notebooks/checkpoints/LSTM_optuna/trial_008/LSTM_trial_8/checkpoints/last-epoch=7.ckpt (torch, 713914 bytes, 30 tensors)

rnn.weight_ih_l0 f4 [256, 30]
-0.03578167 -0.083696455 0.09120247 0.06314722 0.1653584 -0.08755233 0.17863525 0.11777189
-0.12926236 0.0068766875 0.1399325 -0.011376187 0.096789725 0.15077725 0.019531194 0.049714856
0.024215275 -0.055983983 0.08859157 -0.05153356 0.103161454 0.10676317 0.01902399 -0.01801369
-0.083668046 0.020791965 -0.07155873 -0.09696973 0.15292093 0.08096463 0.0044480134 -0.0018238702
0.18703383 0.028153116 0.36427692 0.017644031 -0.1332877 0.062093914 -1.0903065 0.013460488
-0.048130322 0.06984076 -0.011922209 0.019508835 0.05983065 -0.052858356 -0.042023297 -0.018062893
-0.05862387 0.06437795 0.07835238 0.031306557 0.18377091 -0.08632221 -0.009366053 0.20656045
-0.0018451374 0.09427943 0.043720923 0.15875933 0.15005697 0.0989597 0.20872587 0.019505978
0.14101335 0.06312834 -0.069762506 -0.0463196 0.17455116 0.087511435 -0.111202635 -0.028262932
-0.04039296 -0.059704755 0.03888775 0.01889317 0.089154616 -0.13734913 0.01654808 0.06909335
-0.12115661 -0.07095843 0.017117752 0.018138975 -0.040186357 -0.012513897 -0.01613289 0.008275495
-0.018953945 0.080047846 0.124013886 -0.06502068 0.098198116 -0.110077195 0.116205156 0.12761672
0.004232208 0.15485366 -0.037242085 0.047648873 0.051144324 -0.023086172 -0.0453939 0.09363318
0.13708198 0.0902622 -0.02071181 -0.066822834 0.005135317 0.084486164 0.039143007 0.16989835
0.10570252 -0.067287415 -0.009598259 0.118507914 -0.009909795 0.12689227 -0.06691 0.0038204452
0.08286587 -0.094768666 -0.07052307 0.05256167 -0.30670625 0.30723512 0.07514313 0.057948362
0.15527049 -0.13418353 -0.042285964 0.03870055 -0.20335405 -0.040973872 -0.07203383 -0.17918158
-0.058789406 -0.11932491 -0.109991275 -0.07196827 -0.0145479385 -0.1261795 -0.119782574 -0.03385374
-0.01621389 0.015767243 -0.18669242 -0.13825624 -0.076939024 -0.1806942 0.05895924 -0.10997099
0.05387931 -0.024308419 0.048795667 0.3002242 0.004274534 -0.16585231 0.063688844 -0.091269195
-0.060771566 0.060967106 -0.2933347 -0.16394438 0.39371693 -0.21167292 -0.11347772 0.17272538
-0.06347133 0.07628028 0.081380546 0.016981872 -0.08930575 0.16657722 0.22287117 -0.05311112
0.18435356 0.01688015 -0.06764861 0.074857995 0.035808276 0.070269026 0.122178234 0.067907505
-0.06504449 -0.13381787 0.24929641 0.24770537 0.06853243 -0.099137425 0.20882192 -0.19489339
-0.2771681 -0.16221036 0.20990016 -0.097857594 -0.07248857 0.12614681 -0.10628221 0.13755661
0.07669833 0.11987263 -0.15617703 0.0857154 -0.095030785 -0.12041488 0.09185707 0.098000124
0.15859254 0.12030922 0.12238752 0.13633539 0.10455025 0.14260177 0.20054983 0.27526897
-0.10811868 -0.023428282 0.14179644 -0.10125498 0.0013739779 -0.14810003 -0.14551291 0.054284878
-0.22063044 -0.013894459 -0.122433364 -0.19661708 -0.18439676 -0.028220003 -0.07307317 -0.09717128
0.06773876 -0.06950213 -0.15568584 -0.03467397 -0.07433899 -0.041123044 -0.11921749 0.039407194
0.05175616 0.26829556 0.29141366 -0.040970374 0.1574794 0.2214894 0.0046098363 0.08534502
0.1019216 0.09844412 -0.029969726 -0.01029823 0.103025 0.081154466 0.11400425 0.10168551
00000000: cd8f 12bd 0c69 abbd 5cc8 ba3d 5453 813d
00000010: b653 293e a34e b3bd 29ec 363e 6332 f13d
00000020: 5a5d 04be d655 e13b 774a 0f3e 3063 3abc
00000030: b139 c63d 5a65 1a3e e2ff 9f3c cea1 4b3d
00000040: 1d5f c63c 764f 65bd 7f6f b53d db14 53bd
00000050: 5046 d33d a6a6 da3d 33d8 9b3c 7291 93bc
00000060: 275a abbd e953 aa3c 628d 92bd 1198 c6bd
00000070: 4e97 1c3e c9d0 a53d a4c0 913b ee0e efba
00000080: cc85 3f3e 5da1 e63c 8182 ba3e 378a 903c
00000090: 927c 08be 3056 7e3d 2a8f 8bbf 6189 5c3c
000000a0: 4d24 45bd ac08 8f3d 5e55 43bc fed0 9f3c
000000b0: fc10 753d 0182 58bd 9f20 2cbd a2f8 93bc
000000c0: 951f 70bd 96d8 833d 3677 a03d 4e3b 003d
000000d0: 712e 3c3e b3c9 b0bd 1374 19bc 9584 533e
000000e0: 8ad8 f1ba 9315 c13d b614 333d ce91 223e
000000f0: 89a8 193e 62ab ca3d 3cbc 553e 00cb 9f3c
00000100: ce65 103e 6e49 813d a5df 8ebd 9fb9 3dbd
00000110: 8abd 323e 3239 b33d 35be e3bd aa87 e7bc
00000120: 1773 25bd f98c 74bd c348 1f3d d9c5 9a3c
00000130: b296 b63d 40a5 0cbe d78f 873c d080 8d3d
00000140: f520 f8bd a752 91bd 873a 8c3c 3098 943c
00000150: 739a 24bd 1707 4dbc 1f29 84bc f195 073c
00000160: 4e45 9bbc 20f0 a33d fefa fd3d 9029 85bd
00000170: 181c c93d 2770 e1bd f8fc ed3d f5ad 023e
00000180: 55ae 8a3b f591 1e3e 288b 18bd 772b 433d
00000190: b67c 513d 361f bdbc f4ee 39bd c1c2 bf3d
000001a0: 385f 0c3e 63db b83d d0ab a9bc 69da 88bd
000001b0: 2946 a83b 1507 ad3d 6b54 203d d5f9 2d3e
000001c0: 907a d83d fccd 89bd 0442 1dbc 47b4 f23d
000001d0: b15c 22bc 0cf0 013e 1c08 89bd 6f60 7a3b
000001e0: 95b5 a93d 1316 c2bd 666e 90bd e84a 573d
000001f0: 9a08 9dbe ec4d 9d3e a4e4 993d 435b 6d3d
00000200: 3aff 1e3e 6867 09be 0c34 2dbd 7884 1e3d
00000210: 0b3c 50be 38d4 27bd 7986 93bd 607b 37be
00000220: 29cd 70bd 9e60 f4bd 1b43 e1bd 1a64 93bd
00000230: 7a5a 6ebc 3335 01be 9150 f5bd 38aa 0abd
00000240: fed2 84bc 4e2a 813c 4c2c 3fbe 0b93 0dbe
00000250: 3592 9dbd e607 39be 3e7f 713d 7838 e1bd
00000260: 8db0 5c3d 7322 c7bc f7dd 473d fdb6 993e
00000270: 6411 8c3b 30d5 29be 4c6f 823d 58eb babd
00000280: 9beb 78bd a5b8 793d f72f 96be 09e1 27be
00000290: 4495 c93e c9c0 58be 0267 e8bd ecde 303e
000002a0: 42fd 81bd d638 9c3d d8aa a63d 911d 8b3c
000002b0: efe5 b6bd 3893 2a3e 5738 643e 0c8b 59bd
000002c0: 2ec7 3c3e 3e48 8a3c 5b8b 8abd 264f 993d
000002d0: b3ab 123d 35e9 8f3d 9538 fa3d 1713 8b3d
000002e0: 0c36 85bd 8d07 09be 8f47 7f3e 7aa6 7d3e
000002f0: bb5a 8c3d 9008 cbbd 6ad5 553e 2292 47be
00000300: fae8 8dbe 791a 26be 11f0 563e 9069 c8bd
00000310: e374 94bd a12c 013e 7daa d9bd a4db 0c3e
00000320: 0414 9d3d c87f f53d dfec 1fbe 8e8b af3d
00000330: 809f c2bd 149c f6bd 8f1f bc3d 4ab4 c83d
00000340: 1566 223e ae64 f63d 4fa6 fa3d 819b 0b3e
00000350: 711e d63d 3306 123e ef5c 4d3e 0ef0 8c3e
00000360: 546d ddbd abec bfbc 1633 113e c55e cfbd
00000370: 0c17 b43a 89a7 17be 5601 15be d259 5e3d
00000380: f2ec 61be 96a5 63bc 58be fabd fd55 49be
00000390: 81d2 3cbe a32d e7bc 63a7 95bd bc01 c7bd
000003a0: 9eba 8a3d 2257 8ebd 1c6c 1fbe 4b06 0ebd
000003b0: 0a3f 98bd a370 28bd 4d28 f4bd 7069 213d
000003c0: 44fe 533d 095e 893e 2c34 953e 8dd0 27bd
000003d0: 4842 213e 1ece 623e 1c0e 973b 5fc9 ae3d
000003e0: 46bc d03d 129d c93d 1283 f5bc e8b9 28bc
000003f0: c5fe d23d 5034 a63d 0f7b e93d 7e40 d03d

rnn.weight_hh_l0 f4 [256, 64]
-0.03361714 -0.3199343 0.05775789 0.08653681 0.017042903 -0.019319035 -0.09797624 0.17527953
-0.041795995 -0.123441905 -0.10305189 0.01214648 0.010962728 0.077633485 0.11274296 0.010390646
0.0037863217 0.15260385 -0.07054414 -0.04786046 0.037086237 0.012692625 0.20031841 0.09674928
0.14877066 0.09411658 -0.11416868 -0.07571319 0.18943788 0.0017548169 -0.04757878 0.10865772
0.14938138 -0.037937265 -0.04015328 0.01973168 0.1378762 -0.2581831 -0.08800818 0.086099565
-0.16242042 0.033848852 0.12576747 -0.25327057 -0.019727267 0.0021968728 -0.02503814 -0.029846473
0.16070642 -0.12756483 -0.12146648 0.055418186 0.040053066 0.049005087 -0.14187323 -0.2360173
-0.0580308 0.110717304 0.14555714 0.10229501 -0.15002574 0.11714869 0.13914439 -0.023679009
0.0875191 -0.31223515 0.13510923 0.14651848 0.1468373 -0.15645239 0.3185725 0.5130967
0.07300828 -0.51056844 -0.16032974 0.14870751 -0.023467002 -0.14464322 0.10795262 -0.29879367
-0.16146752 -0.39519948 -0.22886226 0.42492557 0.1173337 -0.07781963 0.21982075 0.01181141
-0.055202544 -0.07783436 -0.42611918 -0.3721242 0.13604595 0.10394816 0.29107875 -0.055744376
0.00784433 0.14576712 0.017971065 0.16892359 0.2809259 -0.36114702 -0.041459214 0.17418441
0.014198584 -0.09520334 -0.059393577 -0.32221526 -0.055608794 0.03629115 -0.007485105 0.09663842
0.020792628 0.09809027 0.23830563 -0.063929655 -0.122599386 0.1732771 -0.079059094 -0.1751546
-0.06385048 -0.061365206 0.06212796 0.18200432 -0.051229626 -0.09685529 -0.35562164 -0.008192596
-0.2891422 -0.032352977 -0.10745602 0.41474986 -0.034591936 0.06096246 -0.030076144 -0.062865235
0.29124263 0.13299754 -0.10619828 -0.091495655 0.076642334 0.19958805 0.48998836 0.09500944
-0.100860946 0.036655597 -0.16638085 -0.07785154 0.051293388 0.017529929 -0.03689436 0.05606118
0.018854218 0.578416 -0.1149058 0.11622271 0.25040475 -0.14009552 0.16864966 0.068345614
-0.54529655 0.574238 0.3069407 -0.22979905 0.23349796 0.03855908 0.31688395 0.08627779
-0.18865569 0.045729488 0.4915243 0.05743779 -0.007893181 -0.08616959 -0.17753677 0.06087761
-0.07225786 -0.1259652 0.21350938 -0.014106686 -0.020936882 0.6698762 0.015995167 0.08285872
-0.20707893 -0.024797607 0.5989698 0.0060748155 0.26633087 -0.0190116 -0.17297636 -0.054058388
-0.043760978 -0.09988916 0.084060945 0.12967582 0.09936072 -0.04775004 0.15200713 0.042700287
0.07386756 0.21782917 -0.05040114 0.02223937 -0.13599694 0.021168102 0.04600535 -0.19292992
0.07995479 0.12956645 -0.1335206 -0.05843378 0.052652758 -0.058772355 0.12293929 0.14549354
-0.061693862 -0.035791412 -0.08480345 -0.15983565 0.040245507 -0.046802092 0.057903804 -0.022756105
-0.13614744 0.06999133 0.061845183 -0.11584755 0.03279166 -0.06355146 0.15477048 -0.007794093
-0.16830304 -0.10521968 -0.06948681 0.08868241 -0.058264423 -0.047226697 -0.10017489 -0.023111738
0.004873321 0.09959383 0.02010485 0.19832876 0.016082793 0.078275785 -0.18173428 -0.13404033
-0.022848519 0.10058902 -0.043937117 0.17779732 -0.058020655 -0.018540667 0.02246213 -0.024655132
00000000: 20b2 09bd 6ece a3be 8a93 6c3d 363a b13d
00000010: 8f9d 8b3c f442 9ebc c4a7 c8bd 7a7c 333e
00000020: 4732 2bbd 1ccf fcbd df0c d3bd 0802 473c
00000030: 049d 333c 4efe 9e3d c8e5 e63d 873d 2a3c
00000040: f023 783b 2f44 1c3e 7279 90bd 5409 44bd
00000050: bde7 173d baf4 4f3c 4520 4d3e 7d24 c63d
00000060: 5657 183e 32c0 c03d 45d1 e9bd 840f 9bbd
00000070: 01fc 413e e201 e63a f8e1 42bd f087 de3d
00000080: 6ff7 183e 1b64 1bbd c477 24bd 55a4 a13c
00000090: 6b2f 0d3e 9330 84be a23d b4bd f854 b03d
000000a0: 8a51 26be 18a5 0a3d 30c9 003e aeac 81be
000000b0: 149b a1bc 69f9 0f3b c91c cdbc 9780 f4bc
000000c0: 3990 243e 5ba0 02be 6bc3 f8bd 2efe 623d
000000d0: af0e 243d 8fb9 483d 3747 11be 85ae 71be
000000e0: b4b1 6dbd c1bf e23d ee0c 153e 0c80 d13d
000000f0: 59a0 19be a7eb ef3d de7b 0e3e 7bfa c1bc
00000100: 373d b33d 49dd 9fbe 135a 0a3e f108 163e
00000110: 845c 163e 0e35 20be ef1b a33e 4e5a 033f
00000120: 5d85 953d 9db4 02bf 7b2d 24be c846 183e
00000130: df3d c0bc 5a1d 14be 4316 dd3d 7cfb 98be
00000140: be57 25be 9657 cabe de5a 6abe d88f d93e
00000150: a74c f03d e65f 9fbd b118 613e a584 413c
00000160: 101c 62bd 9f67 9fbd 4b2c dabe 1087 bebe
00000170: a14f 0b3e c6e2 d43d 4608 953e 3754 64bd
00000180: 8185 003c fa43 153e 0e38 933c 4efa 2c3e
00000190: 85d5 8f3e 43e8 b8be 23d1 29bd 665d 323e
000001a0: 2da1 683c f8f9 c2bd ae46 73bd 66f9 a4be
000001b0: 0cc6 63bd 07a6 143d 9d45 f5bb 5dea c53d
000001c0: 4d55 aa3c 8de3 c83d 6406 743e 8ded 82bd
000001d0: 6315 fbbd 8d6f 313e bce9 a1bd ba5b 33be
000001e0: 0ac4 82bd 155a 7bbd e379 7e3d 575f 3a3e
000001f0: 28d6 51bd 115c c6bd 0a14 b6be 3d3a 06bc
00000200: 720a 94be 8e84 04bd e711 dcbd 185a d43e
00000210: 46b0 0dbd c6b3 793d 3f62 f6bc 7dbf 80bd
00000220: c11d 953e 8230 083e 7c7e d9bd 1362 bbbd
00000230: a8f6 9c3d cf60 4c3e c1df fa3e 4f94 c23d
00000240: 2f90 cebd 2e24 163d be5f 2abe a170 9fbd
00000250: 0419 523d ed9a 8f3c 8a1e 17bd 68a0 653d
00000260: 2974 9a3c 1213 143f bb53 ebbd 2c06 ee3d
00000270: 0d35 803e 3375 0fbe 7fb2 2c3e c9f8 8b3d
00000280: 8e98 0bbf 4301 133f 5527 9d3e 7150 6bbe
00000290: 171a 6f3e 20f0 1d3d 9d3e a23e 69b2 b03d
000002a0: f52e 41be d84e 3b3d 13a9 fb3e e343 6b3d
000002b0: 6752 01bc af79 b0bd 33cc 35be cd5a 793d
000002c0: eefb 93bd 05fd 00be 34a2 5a3e bb1f 67bc
000002d0: d383 abbc 027d 2b3f 4c08 833c d5b1 a93d
000002e0: 800c 54be 5a24 cbbc 1656 193f 3f0f c73b
000002f0: 855c 883e 37be 9bbc b720 31be 546c 5dbd
00000300: b63e 33bd b092 ccbd 2528 ac3d bdc9 043e
00000310: a27d cb3d 8c95 43bd c2a7 1b3e 7fe6 2e3d
00000320: e047 973d 9c0e 5f3e 6d71 4ebd 572f b63c
00000330: c842 0bbe ba68 ad3c 1b70 3c3d 6c8f 45be
00000340: 56bf a33d 11ad 043e a0b9 08be 4258 6fbd
00000350: 6baa 573d 48bb 70bd 98c7 fb3d 42fc 143e
00000360: b4b2 7cbd 049a 12bd 6ead adbd f5ab 23be
00000370: 79d8 243d 8db3 3fbd 8a2c 6d3d 036b babc
00000380: 3c6a 0bbe 9d57 8f3d 6051 7d3d 7b41 edbd
00000390: 8c50 063d 4527 82bd 277c 1e3e 9765 ffbb
000003a0: a257 2cbe 6a7d d7bd 1a4f 8ebd 209f b53d
000003b0: ada6 6ebd c870 41bd 7e28 cdbd d454 bdbc
000003c0: 61b0 9f3b daf7 cb3d edb2 a43c b216 4b3e
000003d0: 10c0 833c 0e4f a03d 8d18 3abe de41 09be
000003e0: d12c bbbc 9e01 ce3d 68f7 33bd 8010 363e
000003f0: 11a7 6dbd 99e2 97bc 8002 b83c 8ff9 c9bc

rnn.bias_ih_l0 f4 [256]
0.04564226 0.12705432 0.1035289 0.16133139 0.1999319 0.26515025 -0.13207285 0.11244415
0.018593049 0.15719208 -0.06522018 -0.7856058 0.22751981 -0.055289693 -0.04164324 0.3206118
0.024421083 0.023391925 0.33731985 0.13515657 0.69928086 0.2855243 -0.054647747 -0.07175112
-0.058241583 0.054590475 -0.011291236 -0.19375646 0.10857068 0.10928858 0.15651032 -0.012457882
0.016417582 0.06215954 0.05584973 -0.1291253 0.16679482 0.14794299 0.032340664 0.0797768
0.13377076 0.056281123 -0.12753445 -0.2624962 0.065065816 -0.13826358 0.13580555 -0.012582032
0.21419102 0.4438774 0.05345692 -0.09483564 -0.08468592 -0.004863942 0.17303345 0.09017752
-0.1344376 0.16891572 -0.08920766 0.18368961 0.096697845 -0.28101826 0.059028987 0.18162224
-0.21003751 0.035478584 -0.2548054 0.008852196 -0.062308196 0.16408373 -0.59706 0.238334
-0.13988744 -0.039384972 -0.18846956 0.02493624 -0.24598978 -0.03390903 -0.1734462 -0.011701578
0.06290777 0.12761717 -0.008371308 -0.16428065 -0.14802513 -0.041284617 -0.16575924 -0.096082
-0.09628266 0.24177465 0.017533816 -0.310627 -0.10255103 -0.25695863 -0.09013645 0.13274781
-0.046040732 -0.12303162 -0.07805746 0.06558318 -0.36661416 0.06304552 -0.05112278 -0.023568293
0.019478071 0.029626045 -0.22742912 -0.5051321 0.24725914 -0.021479122 0.25304613 0.06797234
-0.0149453655 0.18030818 0.044164907 0.118045054 -0.06280072 0.17718169 0.0047139795 -0.38260975
-0.35337695 -0.14433606 -0.19849873 -0.27089426 0.01327518 -0.39636686 -0.050021112 -0.060055405
0.0442873 0.058093514 0.040158544 0.031167518 -0.04820064 0.06839005 -0.054749645 -0.085029185
0.09248808 0.12233436 -0.11756152 -0.08792736 0.42891917 -0.03664913 -0.19255568 0.025382517
0.03621391 0.07245025 0.04472091 0.05642323 -0.025826635 -0.1212729 -0.03249012 0.17483456
-0.09037614 0.12195073 -0.1630411 0.12529215 -0.026800655 0.056267824 0.10155583 0.04270525
-0.03764859 0.03533625 -0.07700344 0.07606618 0.053254914 0.039937068 -0.009587354 0.084515855
-0.017086184 0.114272654 -0.054829936 -0.057701766 0.124907136 0.08483692 -0.06798293 0.19641595
0.4204139 0.005679591 -0.010098293 0.10719166 0.03066409 0.06286113 0.009296904 0.19712028
0.10759682 0.011498071 0.091655456 -0.15148316 0.035289805 -0.18071881 -0.038967237 -0.02007909
-0.6644379 0.41857782 0.16298296 -0.45409954 0.030671682 0.12553091 -0.042532124 -0.05295654
-0.08427086 0.52449095 -0.056039676 -0.08474259 0.14090146 0.005084372 0.11008386 0.16970918
-0.124139085 0.044891648 0.34144777 0.22431527 -0.031394947 0.18091199 0.0813809 0.17936197
-0.10631414 -0.7216145 -0.12946084 0.060709316 0.13605632 -0.10638164 0.08907925 -0.2065146
0.099812366 -0.9078788 0.1832787 -0.1739885 0.06431002 0.23574618 -0.14969766 0.044162642
0.00041433898 -0.09609407 -0.5911187 0.14395204 0.684837 -0.33165115 0.43690988 -0.23467588
-0.013262006 0.23626156 0.024137259 0.21904352 0.08253435 -0.28174552 -0.12686749 0.075697705
0.19527282 0.17199807 -0.6297308 0.1883913 0.015185234 -0.11592751 0.0073041576 0.013229574
00000000: 61f3 3a3d 871a 023e f606 d43d 0e34 253e
00000010: f3ba 4c3e c6c1 873e 1b3e 07be 1e49 e63d
00000020: 7350 983c f6f6 203e 2892 85bd 761d 49bf
00000030: f4fa 683e 7277 62bd 1a92 2abd 3b27 a43e
00000040: b90e c83c 6ca0 bf3c 30b5 ac3e 7c66 0a3e
00000050: 1204 333f 3e30 923e 51d6 5fbd 40f2 92bd
00000060: ba8e 6ebd 439a 5f3d e0fe 38bc 1868 46be
00000070: 4e5a de3d b1d2 df3d 3e44 203e 251c 4cbc
00000080: 2a7e 863c 009b 7e3d b0c2 643d 6c39 04be
00000090: 43cc 2a3e 5e7e 173e a577 043d 0562 a33d
000000a0: 34fb 083e 0987 663d 6498 02be e765 86be
000000b0: 3a41 853d f894 0dbe 9c10 0b3e de24 4ebc
000000c0: e454 5b3e e643 e33e a5f5 5a3d 3039 c2bd
000000d0: d06f adbd b461 9fbb ae2f 313e feae b83d
000000e0: 03aa 09be 3ef8 2c3e 81b2 b6bd 2119 3c3e
000000f0: 8509 c63d a0e1 8fbe 61c8 713d 2efb 393e
00000100: 1314 57be fe51 113d da75 82be cd08 113c
00000110: e136 7fbd 9105 283e edd8 18bf d40d 743e
00000120: a73e 0fbe 2352 21bd 2afe 40be 1647 cc3c
00000130: bfe4 7bbe 32e4 0abd e19b 31be fab7 3fbc
00000140: cad5 803d 13ae 023e d027 09bc 3039 28be
00000150: e693 17be 0f1a 29bd cabc 29be a4c6 c4bd
00000160: d82f c5bd c693 773e 14a3 8f3c 810a 9fbe
00000170: 4606 d2bd 1590 83be 7699 b8bd 0bef 073e
00000180: 3595 3cbd 01f8 fbbd 97dc 9fbd 7950 863d
00000190: dab4 bbbe 021e 813d 1f66 51bd 4b12 c1bc
000001a0: 7a90 9f3c 52b2 f23c 2ee3 68be 5650 01bf
000001b0: 8031 7d3e fcf4 afbc 438f 813e 1535 8b3d
000001c0: 68dd 74bc b5a2 383e 43e6 343d 9bc1 f13d
000001d0: aa9d 80bd 1e6f 353e ba77 9a3b 6de5 c3be
000001e0: d3ed b4be d5cc 13be 4043 4bbe a7b2 8abe
000001f0: 2480 593c 99f0 cabe f0e2 4cbd a8fc 75bd
00000200: 9a66 353d 77f3 6d3d 497d 243d 0653 ff3c
00000210: 096e 45bd 1510 8c3d 2a41 60bd c823 aebd
00000220: 646a bd3d 708a fa3d 18c4 f0bd 4213 b4bd
00000230: 4b9b db3e 661d 16bd 512d 45be ffee cf3c
00000240: 0955 143d cc60 943d 462d 373d 0b1c 673d
00000250: 6192 d3bc ed5d f8bd 5c14 05bd d507 333e
00000260: 2017 b9bd 4ec1 f93d 3ff4 26be 964c 003e
00000270: 0c8d dbbc 1779 663d 81fc cf3d b3eb 2e3d
00000280: 6835 1abd bebc 103d fbb3 9dbd 96c8 9b3d
00000290: d321 5a3d 0d95 233d 4714 1dbc a616 ad3d
000002a0: 53f8 8bbc c807 ea3d 5b95 60bd b058 6cbd
000002b0: 50cf ff3d fbbe ad3d a23a 8bbd 4321 493e
000002c0: 7e40 d73e dd1b ba3b 5073 25bc 4d87 db3d
000002d0: 4233 fb3c 56bd 803d 0b52 183c e6d9 493e
000002e0: b95b dc3d 6862 3c3c dbb5 bb3d 671e 1bbe
000002f0: 0b8c 103d 5a0e 39be 1c9c 1fbd e77c a4bc
00000300: 9a18 2abf d54f d63e 01e5 263e bc7f e8be
00000310: 2e43 fb3c 2d8b 003e 2a36 2ebd f5e8 58bd
00000320: 3396 acbd 0a45 063f dc89 65bd 868d adbd
00000330: 7948 103e ce9a a63b a673 e13d 3ec8 2d3e
00000340: a23c febd 4ee0 373d 3ed2 ae3e e7b2 653e
00000350: fd97 00bd fe40 393e 08ab a63d aaaa 373e
00000360: 3abb d9bd babb 38bf 6291 04be 55aa 783d
00000370: 5952 0b3e 9ede d9bd 2f6f b63d 9078 53be
00000380: 6d6a cc3d bf6a 68bf 69ad 3b3e 0b2a 32be
00000390: f9b4 833d 7267 713e 584a 19be e3e3 343d
000003a0: a33b d939 f8cc c4bd 8e53 17bf 2a68 133e
000003b0: 7a51 2f3f 2ece a9be a7b2 df3e e04e 70be
000003c0: e348 59bc 8dee 713e 80bb c53c f24c 603e
000003d0: c507 a93d f340 90be 8de9 01be 6607 9b3d
000003e0: 99f5 473e 4320 303e 0a36 21bf a6e9 403e
000003f0: 7dcb 783c 676b edbd b757 ef3b dbc0 583c

rnn.bias_hh_l0 f4 [256]
0.077088855 -0.05519753 0.09244325 0.13266443 0.13354197 0.15945035 -0.08991055 0.08769209
0.21540624 0.08360281 -0.07865859 -0.81188136 0.02966852 -0.003332588 0.09736039 0.26637915
0.08145287 0.1681984 0.40635443 0.038803622 0.502101 0.41369194 0.0967529 -0.06288703
-0.15063925 -0.010342608 0.03293699 -0.10754918 0.100110814 0.19201148 0.17754747 0.098938905
0.0066899187 -0.063721225 0.24612363 -0.059074767 -0.034752566 -0.042322587 0.037716966 0.09010375
0.06740839 -0.00042685476 -0.15510435 -0.31991848 -0.014362147 0.05961671 0.051542062 -0.14250632
0.08585868 0.45193335 -0.16038059 -0.12074114 -0.20047618 -0.03468112 0.022278931 0.06818439
0.018063067 0.15919286 -0.16235724 0.043653533 0.11735991 -0.35967126 0.09527103 -0.005894452
-0.05009385 -0.18078232 -0.26858154 0.15750477 -0.04663434 0.01252437 -0.68119764 0.13907129
-0.19393674 0.14260265 -0.053134173 -0.028072039 -0.34682286 -0.08808366 0.018649973 -0.0551329
0.080568485 0.045266666 0.11786087 -0.17516296 -0.08148059 -0.022869399 -0.2386971 -0.003075367
0.044912443 0.092485406 0.122086 -0.20789246 -0.052215215 -0.25879854 -0.14684176 0.027511928
0.029190248 -0.017977677 0.06194083 0.015025499 -0.29176044 0.047158476 -0.21355242 -0.10074457
-0.050398886 0.18939583 -0.0113087185 -0.35180524 0.3620575 -0.028719224 0.25477746 0.07964131
0.11243785 0.20609966 -0.05793411 0.059980657 -0.084534176 -0.015548387 0.16175608 -0.32560834
-0.34897918 0.037518933 -0.21567182 -0.32688895 -0.061843693 -0.21569058 -0.047772113 -0.21569067
0.03397314 0.010486843 -0.057253025 0.021401638 0.1840323 -0.06165864 -0.10538717 -0.14710645
0.14359872 -0.11239853 0.038608585 0.058745958 0.37956858 0.04609802 -0.3563908 0.06284216
0.121432535 0.01350871 -0.13267396 0.049207475 -0.019360077 -0.046152983 0.026388085 0.15338393
-0.053829387 -0.04812113 -0.12800981 0.22068352 0.0022550675 -0.080747284 0.0353496 -0.07021428
-0.088860616 -0.012016195 -0.0013537267 0.06698367 -0.014401466 0.005206754 0.027064217 0.102186784
-0.06345213 0.049799744 0.1004553 -0.012852521 -0.027347207 -0.012350698 0.04795541 0.20203814
0.4741224 -0.10381371 0.11927835 0.118043154 0.051911708 -0.0145327905 0.079687625 0.14062844
0.0102629615 -0.014342513 -0.059408557 -0.1274819 0.008477071 -0.1920147 -0.041355122 0.095976286
-0.626124 0.43772125 0.0826081 -0.42783794 -0.14479303 -0.07686464 -0.056842335 0.13357885
-0.05792696 0.5175176 0.0897873 0.10690887 0.2187773 -0.029346177 0.04958818 0.01766953
-0.1648977 0.10189977 0.3702001 0.1494143 -0.18599688 0.20298576 0.07349683 0.11835445
-0.13205853 -0.86395955 -0.2538357 0.22332008 0.15128623 -0.06581365 -0.039401762 -0.07631559
0.026092676 -0.7853376 -0.05276691 -0.18955925 0.123046145 0.17820825 -0.030454744 0.043890867
0.05648393 0.117834926 -0.5673577 -0.06309659 0.5730965 -0.44775298 0.326638 -0.12270818
-0.09064943 0.3618525 0.049233563 0.120935366 0.15140235 -0.14365195 0.028039256 0.21624157
0.25974923 0.1948063 -0.53644687 0.19925712 0.022042245 -0.0062763924 0.14367689 0.19170941
00000000: c3e0 9d3d ce16 62bd e352 bd3d 2fd9 073e
00000010: 3abf 083e f446 233e 0623 b8bd e997 b33d
00000020: 7493 5c3e f337 ab3d c117 a1bd 75d7 4fbf
00000030: 650b f33c 8c67 5abb e264 c73d d962 883e
00000040: c3d0 a63d 343c 2c3e b00d d03e 8cf0 1e3d
00000050: b189 003f 6ecf d33e 6226 c63d eaca 80bd
00000060: 2d41 1abe 0b74 29bc f0e8 063d bf42 dcbd
00000070: e606 cd3d a89e 443e 01cf 353e 7ba0 ca3d
00000080: 1b37 db3b 4680 82bd d507 7c3e 62f8 71bd
00000090: b558 0ebd 735a 2dbd 1b7d 1a3d 5188 b83d
000000a0: 690d 8a3d 7acb dfb9 add3 1ebe 5bcc a3be
000000b0: 364f 6bbc a730 743d c51d 533d 2ded 11be
000000c0: add6 af3d cf63 e73e cf3a 24be 2147 f7bd
000000d0: a149 4dbe ca0d 0ebd 4e82 b63c 42a4 8b3d
000000e0: fff8 933c 7403 233e fa40 26be 0cce 323d
000000f0: 645a f03d d526 b8be 751d c33d 3f26 c1bb
00000100: 352f 4dbd 001f 39be 8583 89be ee48 213e
00000110: a603 3fbd 0433 4d3c f862 2ebf b468 0e3e
00000120: 5a97 46be 6e06 123e 38a3 59bd 55f7 e5bc
00000130: c492 b1be 3565 b4bd d4c7 983c 09d3 61bd
00000140: 1701 a53d 8a69 393d 0a61 f13d eb5d 33be
00000150: 4cdf a6bd 9b58 bbbc 036d 74be 198c 49bb
00000160: 1cf6 373d fd68 bd3d 3a08 fa3d c3e1 54be
00000170: 9fdf 55bd 3e81 84be b05d 16be b260 e13c
00000180: 6320 ef3c ec45 93bc abb5 7d3d 832d 763c
00000190: a061 95be 3f29 413d 7cad 5abe 2b53 cebd
000001a0: 106f 4ebd fbf0 413e 3448 39bc d11f b4be
000001b0: 9a5f b93e 9444 ebbc 3172 823e fc1a a33d
000001c0: d145 e63d ca0b 533e 514c 6dbd 47ae 753d
000001d0: 4120 adbd a9be 7ebc 63a3 253e 23b6 a6be
000001e0: 66ad b2be 74ad 193d 13d9 5cbe fd5d a7be
000001f0: d04f 7dbd fedd 5cbe b1ac 43bd 04de 5cbe
00000200: 6b27 0b3d 02d1 2b3c 2682 6abd 7d52 af3c
00000210: f772 3c3e c58d 7cbd 3bd5 d7bd 13a3 16be
00000220: 8b0b 133e 3331 e6bd 0924 1e3d 9a9f 703d
00000230: d056 c23e 47d1 3c3d db78 b6be 64b3 803d
00000240: 9fb1 f83d a353 5d3c afdb 07be c78d 493d
00000250: 0699 9ebc e90a 3dbd d32b d83c ad10 1d3e
00000260: 347c 5cbd a91a 45bd 0115 03be dcfa 613e
00000270: c1c9 133b d55e a5bd beca 103d 81cc 8fbd
00000280: 8efc b5bd 93df 44bc 886f b1ba bc2e 893d
00000290: 20f4 6bbc 6b9d aa3b c7b5 dd3c 4e47 d13d
000002a0: 31f3 81bd d1fa 4b3d 82bb cd3d 6193 52bc
000002b0: 4007 e0bc 955a 4abc e46c 443d 16e3 4e3e
000002c0: 2cc0 f23e 489c d4bd 3548 f43d 9cc0 f13d
000002d0: 5fa1 543d f11a 6ebc 4433 a33d e700 103e
000002e0: fb25 283c dcfc 6abc 6356 73bd 9d8a 02be
000002f0: 6ae3 0a3c 809f 44be fd63 29bd 378f c43d
00000300: aa49 20bf 001d e03e 6f2e a93d 930d dbbe
00000310: a044 14be 356b 9dbd 82d3 68bd e5c8 083e
00000320: d244 6dbd 097c 043f 67e2 b73d 0af3 da3d
00000330: 2807 603e 6567 f0bc fa1c 4b3d b1bf 903c
00000340: f1da 28be d4b0 d03d de8a bd3e 1000 193e
00000350: f775 3ebe 80db 4f3e 8285 963d d163 f23d
00000360: 5a3a 07be 742c 5dbf c1f6 81be 05ae 643e
00000370: c7ea 1a3e 4fc9 86bd be63 21bd 594b 9cbd
00000380: 4fc0 d53c e30b 49bf 1e22 58bd d21b 42be
00000390: 9eff fb3d 397c 363e 3a7c f9bc e9c6 333d
000003a0: b25b 673d 7053 f13d 5b3e 11bf c938 81bd
000003b0: 74b6 123f e13f e5be 193d a73e 6d4e fbbd
000003c0: 69a6 b9bd bb44 b93e 22a9 493d f6ac f73d
000003d0: 3809 1b3e 7f19 13be 95b2 e53c 6e6e 5d3e
000003e0: dafd 843e 4d7b 473e 9554 09bf 0f0a 4c3e
000003f0: f091 b43c 32aa cdbb 0920 133e 794f 443e

rnn.weight_ih_l1 f4 [256, 64]
0.006548772 -0.116775915 -0.22540747 0.24717326 -0.1483311 0.026931897 0.18223022 0.2876667
0.0897239 -0.18104738 0.21185419 -0.45582044 0.017073352 -0.15722324 0.1863787 -0.057185747
0.0673972 -0.17155616 0.10821449 0.28450075 0.059429176 0.14728828 0.25679657 -0.03272532
-0.18015058 0.56536794 -0.36044025 -0.073496975 0.24643752 -0.19915868 -0.009786024 -0.23742457
-0.21308775 0.17811441 0.10500571 -0.08344513 0.14140035 -0.20103414 0.27541405 -0.13559026
0.08985325 0.041996945 0.10477918 -0.47761247 0.105685845 0.21497458 0.13113636 0.05996617
0.011217352 0.029873101 -0.038909208 -0.18428557 0.055170335 0.19593863 -0.2583064 -0.22838645
-0.59811044 -0.11639765 0.045862425 0.3767495 0.17094593 -0.1405604 -0.4918972 0.11600889
0.29208386 -0.21846946 -0.20482461 -0.023046616 -0.07291365 -0.012878343 0.088430926 0.32578287
-0.16583559 -0.20254822 0.11968211 -0.11853271 -0.16491961 -0.20888449 -0.11039529 -0.03620591
-0.085044816 -0.0049140137 -0.12217491 0.2548226 -0.0472201 0.14977047 -0.03200417 -0.3011661
-0.24066791 0.38481736 -0.15493639 -0.18401502 0.022695642 0.21897192 -0.14831388 -0.10858454
0.15406244 0.033142325 -0.1379451 0.19139001 0.03336905 -0.178384 -0.012022814 -0.2371687
0.18994983 0.055475373 -0.055249825 -0.15368602 0.14744654 0.09529845 0.26211149 0.051276557
-0.117702104 0.3916866 -0.034471788 -0.08592665 0.06713011 -0.06092385 -0.13838002 0.09644508
0.019355688 0.00044168305 -0.09678849 0.039086483 -0.03690414 -0.0015535523 -0.19413055 0.19164819
0.61561364 -0.08406974 -0.12466817 -0.31523696 0.08937131 -0.20088744 -0.0024562252 0.18166794
-0.07801889 -0.27405992 0.057692535 -0.0029807326 0.16532338 -0.09326588 -0.13086109 0.11065572
0.016420634 -0.11370321 -0.204005 -0.09822786 -0.1807054 0.06350105 0.07533986 -0.106639
-0.045123134 -0.38507727 -0.20721717 -0.056194317 -0.17937554 0.12754379 -0.010799401 0.039090343
-0.12920466 -0.35018092 -0.051086664 0.45620942 -0.018295674 -0.45731553 -0.10022132 0.0618307
0.04068007 0.06648186 -0.4808243 0.09236674 0.057623874 0.053873178 0.05481476 0.0808103
-0.070200525 -0.040224373 0.073373616 -0.07437988 -0.12046229 -0.045738548 -0.14797737 -0.103669584
-0.10784699 0.0791964 -0.21052092 0.23593439 -0.044360776 -0.2004035 -0.32763243 0.14064789
-0.9937703 -0.04457569 -0.1967291 -0.1122413 -0.18985477 0.3072059 -0.19856343 0.012421543
0.014435449 -0.30831307 0.05449611 -0.450233 0.06489112 -0.1053981 0.014985293 0.040208884
-0.12986483 -0.16907667 0.099628896 0.14726417 -0.0646331 0.17569004 -0.13586041 0.014970097
-0.014734824 1.7897824 -0.08072078 0.20570152 0.29027402 -0.20575547 -0.11743134 -0.1380522
0.13078603 1.0980986 0.060351867 -0.02694873 -0.11081222 -0.01676004 0.008531755 -0.17793915
0.15450567 0.023045924 0.2025211 -0.22125679 0.12640749 0.1965532 0.2204524 0.015112105
-0.23595576 0.11609681 0.01076838 -0.030046066 0.13614132 0.037392914 0.17537458 0.087406695
-0.08026766 -0.03815978 0.79152757 -0.113940656 0.08416695 -0.1824526 -0.066323936 0.0226697
00000000: 1597 d63b 3628 efbd 37d1 66be fd1a 7d3e
00000010: 1ce4 17be 48a0 dc3c 8f9a 3a3e 0d49 933e
00000020: 2ac1 b73d 7c64 39be 4ef0 583e 4c61 e9be
00000030: 6add 8b3c 21ff 20be 0fda 3e3e 9a3b 6abd
00000040: 8b07 8a3d 6bac 2fbe 8f9f dd3d 15aa 913e
00000050: 026c 733d bdd2 163e d77a 833e fc0a 06bd
00000060: 6579 38be f4bb 103f a08b b8be 9585 96bd
00000070: 1e5a 7c3e 41f0 4bbe 8f55 20bc 6d1f 73be
00000080: ad33 5abe a063 363e 3c0d d73d 48e5 aabd
00000090: 41cb 103e e5db 4dbe 1203 8d3e 2cd8 0abe
000000a0: fb04 b83d fd04 2c3d 7796 d63d 9f89 f4be
000000b0: d271 d83d 4c22 5c3e 9c48 063e 169f 753d
000000c0: fcc8 373c 6fb8 f43c 435f 1fbd 5bb5 3cbe
000000d0: 4afa 613d 23a4 483e bd40 84be 23de 69be
000000e0: c41d 19bf e461 eebd 3dda 3b3d 4fe5 c03e
000000f0: 730c 2f3e 11ef 0fbe f3d9 fbbe 1296 ed3d
00000100: 048c 953e 75b6 5fbe 8bbd 51be 42cc bcbc
00000110: c053 95bd b0ff 52bc 461b b53d 03cd a63e
00000120: ced0 29be cd68 4fbe e51b f53d 47c1 f2bd
00000130: b0e0 28be d1e5 55be ed16 e2bd a64c 14bd
00000140: fa2b aebd bc05 a1bb d736 fabd 1c78 823e
00000150: dd69 41bd 6e5d 193e ce16 03bd 7132 9abe
00000160: a671 76be c806 c53e a5a7 1ebe 6f6e 3cbe
00000170: 36ec b93c 2d3a 603e 98df 17be 9261 debd
00000180: 8bc2 1d3e 3fc0 073d 7b41 0dbe befb 433e
00000190: fcad 083d 4caa 36be 56fb 44bc 5adc 72be
000001a0: 3582 423e 253a 633d a44d 62bd de5f 1dbe
000001b0: 3afc 163e d52b c33d 7a33 863e 5e07 523d
000001c0: cd0d f1bd 258b c83e 4a32 0dbd 50fa afbd
000001d0: 837b 893d 498b 79bd 7eb3 0dbe 0085 c53d
000001e0: d28f 9e3c b291 e739 0b39 c6bd 2619 203d
000001f0: cc28 17bd 91a0 cbba 29ca 46be 6c3f 443e
00000200: db98 1d3f c12c acbd 0752 ffbd bd66 a1be
00000210: 4e08 b73d 70b5 4dbe 9ff8 20bb 2907 3a3e
00000220: 5ec8 9fbd 9551 8cbe 024f 6c3d 6558 43bb
00000230: 884a 293e 2f02 bfbd 7300 06be 779f e23d
00000240: 9184 863c 3bdd e8bd b0e6 50be b02b c9bd
00000250: d60a 39be d70c 823d c94b 9a3d 8c65 dabd
00000260: 09d3 38bd d928 c5be bd30 54be 032c 66bd
00000270: 39ae 37be d79a 023e f9ef 30bc 321d 203d
00000280: 3a4e 04be ea4a b3be 4040 51bd 4894 e93e
00000290: cfe0 95bc 4325 eabe d640 cdbd 3042 7d3d
000002a0: 25a0 263d a427 883d 9a2e f6be c62a bd3d
000002b0: 0307 6c3d 1faa 5c3d 7185 603d df7f a53d
000002c0: 4bc5 8fbd 50c2 24bd e844 963d 7b54 98bd
000002d0: efb4 f6bd 5858 3bbd 6187 17be b850 d4bd
000002e0: e2de dcbd b931 a23d cc92 57be c998 713e
000002f0: a5b3 35bd 9336 4dbe 70bf a7be 0006 103e
00000300: bb67 7ebf 0095 36bd 5a73 49be c4de e5bd
00000310: 4a69 42be 174a 9d3e 3654 4bbe ba83 4b3c
00000320: a982 6c3c 36db 9dbe 5037 5f3d f184 e6be
00000330: a3e5 843d f6da d7bd e084 753c 12b2 243d
00000340: 49fb 04be 6f22 2dbe 3c0a cc3d 6bcc 163e
00000350: 5c5e 84bd 17e8 333e fe1e 0bbe 2345 753c
00000360: 556a 71bc 9717 e53f f050 a5bd 6ba3 523e
00000370: cc9e 943e 90b1 52be d87f f0bd 8e5d 0dbe
00000380: c6ec 053e 7f8e 8c3f 8533 773d 95c3 dcbc
00000390: 84f1 e2bd 5a4c 89bc c6c8 0b3c ae35 36be
000003a0: bc36 1e3e ceca bc3c b161 4f3e 2491 62be
000003b0: f770 013e 3e45 493e 46be 613e c398 773c
000003c0: 639e 71be 2ac4 ed3d dc6d 303c 2b23 f6bc
000003d0: a168 0b3e 5029 193d 6595 333e 4802 b33d
000003e0: 5f63 a4bd 6e4d 1cbd 8da1 4a3f b859 e9bd
000003f0: b95f ac3d dbd4 3abe d8d4 87bd cfb5 b93c

rnn.weight_hh_l1 f4 [256, 64]
-0.20279779 -0.22075154 -0.07880275 0.12257082 0.015923882 -0.1954405 0.1757287 0.15172245
-0.08319237 0.2521114 0.09398924 -0.20499903 0.16998124 -0.32508245 -0.19176295 -0.18914759
-0.20847015 -0.26478347 -0.08730746 0.29268575 0.0896629 0.20617668 0.09390453 0.038406394
-0.014930449 0.05937821 0.21259005 -0.14445704 -0.13027184 0.21466133 0.20070209 0.040787242
0.050331898 0.34157133 0.17572999 0.15166005 -0.2887396 -0.16388671 0.045400303 -0.028727047
0.17864664 0.14501773 0.13549788 0.32918403 -0.37807912 -0.29819083 -0.018244043 0.2738865
0.053876843 -0.052103136 0.1699583 -0.3050742 -0.25002867 0.014166756 0.078617655 -0.18561332
-0.006331339 0.06673989 -0.05545123 -0.13989766 -0.28283837 -0.16975449 -0.08874064 -0.13944176
-0.11049587 -0.060635652 -0.21692413 0.24575995 0.24562731 -0.3202192 0.27126777 0.11706839
0.23530255 0.06262329 0.1131259 0.07852342 0.17329329 -0.08006012 -0.1374999 -0.3297293
-0.14210345 -0.067991056 -0.10399366 0.13615571 0.010976262 0.15257858 0.03026552 -0.039354842
-0.0133589795 -0.21197319 -0.09993797 -0.22859672 0.09401972 0.068779156 0.15456404 0.22862959
0.029898485 0.14890443 0.0047082165 0.1014612 -0.23864879 0.034455374 -0.29638422 -0.03671979
0.14301538 0.46137458 0.021759665 0.18980245 -0.027519885 -0.09998048 -0.15416282 0.045128666
0.0055577783 -0.02259781 0.026503919 -0.20451805 -0.08235382 -0.084779866 -0.19818665 -0.25876403
-0.010072044 -0.027803227 -0.27807155 -0.16726814 -0.10296541 -0.08303195 0.14284912 0.057440583
-0.08356395 -0.5564385 -0.11951458 -0.202037 0.21160926 -0.14017959 0.17635351 0.10101582
-0.15050176 0.07932046 0.20984527 -0.21244888 0.3861471 -0.092205614 -0.16041496 -0.20977749
-0.06923851 -0.3029914 0.064781435 0.33634755 0.13410796 0.27906466 0.22410901 0.13627625
-0.141765 0.07589415 0.22085062 -0.12638415 -0.22361508 0.15950616 0.27843323 0.16108333
0.2827378 0.34405953 0.3898799 0.31743032 -0.46342987 -0.14511624 -0.02384308 0.052229278
0.23658244 0.0038251036 0.10011082 0.28352076 -0.24288203 -0.12016665 -0.010002243 0.2910013
0.12214073 -0.11256043 0.28857094 -0.19302942 -0.09582916 0.09185216 -0.21997057 -0.19435135
-0.11823247 0.12992945 -0.12991388 -0.26799265 -0.14701605 -0.398252 -0.11548601 0.055278666
0.23598355 -0.002261492 -0.013059654 0.16699825 -0.07808775 0.19958091 0.11863943 -0.17515598
0.25426307 0.013052322 -0.24618062 -0.04927059 -0.00742085 -0.05658878 0.29032645 0.06577815
0.03104709 -0.19468561 -0.2006196 -0.020233106 -0.14507109 -0.056554057 0.042627234 -0.1916871
0.16103978 -0.094287425 -0.00053993484 0.07187911 0.3120434 -0.046299785 0.026690312 -0.046424102
0.14218573 -0.08158642 -0.055924643 -0.09249113 0.14512664 0.22283609 0.14657937 0.016334701
-0.030120345 -0.04707101 -0.15863453 -0.047186717 0.23407829 0.111963205 0.07956814 0.0058803177
-0.11682015 0.20676821 0.1429661 -0.031435084 -0.022378359 0.19162548 0.13794014 0.024760084
-0.13446455 -0.2263944 0.2769298 0.12633787 0.07675075 0.046756584 0.10775764 -0.07755399
00000000: 39aa 4fbe b10c 62be 5663 a1bd 6906 fb3d
00000010: cd72 823c 8e21 48be 39f2 333e 215d 1b3e
00000020: c360 aabd bf14 813e 6e7d c03d 44eb 51be
00000030: 900f 2e3e 3571 a6be 825d 44be e8af 41be
00000040: 3379 55be b391 87be 41ce b2bd e8da 953e
00000050: 2fa1 b73d fb1f 533e 0551 c03d 0650 1d3d
00000060: d89e 74bc 9136 733d 35b1 593e 8cec 13be
00000070: fb65 05be 2ed0 5b3e d984 4d3e 8610 273d
00000080: d228 4e3d 70e2 ae3e 90f2 333e c64c 1b3e
00000090: add5 93be ebd1 27be abf5 393d fc54 ebbc
000000a0: 25ef 363e 877f 143e f5bf 0a3e cf8a a83e
000000b0: 9693 c1be 78ac 98be 8874 95bc da3a 8c3e
000000c0: f7ad 5c3d 196a 55bd 8c09 2e3e af32 9cbe
000000d0: c203 80be ae1b 683c 4b02 a13d 6b11 3ebe
000000e0: 1f77 cfbb ecae 883d d420 63bd 5541 0fbe
000000f0: 31d0 90be 1fd4 2dbe a7bd b5bd d2c9 0ebe
00000100: a94b e2bd 175d 78bd 5c21 5ebe 7fa8 7b3e
00000110: ba85 7b3e c5f3 a3be 9ce3 8a3e 8dc1 ef3d
00000120: 27f3 703e a440 803d 8dae e73d e3d0 a03d
00000130: cc73 313e 8ff6 a3bd c6cc 0cbe 47d2 a8be
00000140: 9183 11be e53e 8bbd a1fa d4bd 676c 0b3e
00000150: c8d5 333c 8f3d 1c3e 65ef f73c 8b32 21bd
00000160: 9fdf 5abc 800f 59be 47ac ccbd 4215 6abe
00000170: 698d c03d 16dc 8c3d 0946 1e3e e01d 6a3e
00000180: abed f43c 677a 183e 6247 9a3b e4ca cf3d
00000190: 5960 74be 1421 0d3d acbf 97be 7e67 16bd
000001a0: a072 123e 4a39 ec3e 5341 b23c 935b 423e
000001b0: 6271 e1bc 91c2 ccbd dcdc 1dbe d6d8 383d
000001c0: 061e b63b 0b1f b9bc bf1e d93c 2e6d 51be
000001d0: 1fa9 a8bd 11a1 adbd 71f1 4abe b87c 84be
000001e0: 3705 25bc 98c3 e3bc 655f 8ebe 5748 2bbe
000001f0: 87df d2bd a80c aabd 0a47 123e d146 6b3d
00000200: 9423 abbd c172 0ebf 0fc4 f4bd cae2 4ebe
00000210: 19b0 583e 3d8b 0fbe 0496 343e 62e1 ce3d
00000220: 221d 1abe c472 a23d aee1 563e 338c 59be
00000230: 13b5 c53e 4cd6 bcbd d243 24be e9cf 56be
00000240: eccc 8dbd b021 9bbe 21ac 843d bf35 ac3e
00000250: 9953 093e 90e1 8e3e d57c 653e 008c 0b3e
00000260: d82a 11be 646e 9b3d aa26 623e d96a 01be
00000270: 5afb 64be 9555 233e cd8e 8e3e 07f3 243e
00000280: 02c3 903e 9228 b03e 579e c73e 3a86 a23e
00000290: ae46 edbe 5a99 14be 9052 c3bc 5eee 553d
000002a0: ab42 723e 97ae 7a3b e706 cd3d a229 913e
000002b0: 11b6 78be ef19 f6bd 73e0 23bc 1ffe 943e
000002c0: eb24 fa3d 1586 e6bd 92bf 933e 81a9 45be
000002d0: 1442 c4bd fc1c bc3d f73f 61be 0a04 47be
000002e0: dd23 f2bd 3a0c 053e 2508 05be 5536 89be
000002f0: 608b 16be b0e7 cbbe ee83 ecbd e26b 623d
00000300: aca5 713e 8a35 14bb 29f8 55bc 9701 2b3e
00000310: 78ec 9fbd f05e 4c3e 3bf9 f23d 175c 33be
00000320: c52e 823e 68d9 553c c616 7cbe f5cf 49bd
00000330: 9a2a f3bb a3c9 67bd aba5 943e b2b6 863d
00000340: 7856 fe3c aa5b 47be 396f 4dbe e6bf a5bc
00000350: 848d 14be 3aa5 67bd e599 2e3d a049 44be
00000360: 9de7 243e c419 c1bd 6a8a 0dba 5b35 933d
00000370: 27c4 9f3e d8a4 3dbd a4a5 da3c 3327 3ebd
00000380: 2399 113e c816 a7bd 3d11 65bd fd6b bdbd
00000390: 149c 143e 252f 643e e718 163e 5ad0 853c
000003a0: f1be f6bc 88cd 40bd 1771 22be dc46 41bd
000003b0: 38b2 6f3e f74c e53d 9ff4 a23d aeaf c03b
000003c0: 673f efbd 0cbb 533e b565 123e 13c2 00bd
000003d0: d252 b7bc 7839 443e 2e40 0d3e a9d5 ca3c
000003e0: 13b1 09be efd3 67be bec9 8d3e b75e 013e
000003f0: 7f2f 9d3d d583 3f3d 0ab0 dc3d a0d4 9ebd

rnn.bias_ih_l1 f4 [256]
-0.0153660625 -0.10853109 0.09655049 0.049696516 -0.11043067 -0.26177338 0.052248575 -0.1692038
-0.050496694 -0.10395139 -0.084439546 -0.23072924 -0.05372819 0.005881951 -0.17907353 -0.022410385
-0.08395176 -0.13092294 -0.071037434 -0.17965168 -0.1781691 -0.112933986 -0.12409726 -0.20668422
-0.11397732 -0.042892136 -0.2470691 0.019398855 -0.07659647 -0.10529709 -0.14335631 -0.1795897
-0.21601799 0.04774934 -0.08087135 -0.07140971 -0.14296156 -0.015593337 -0.20059875 -0.108177274
-0.088362284 0.051292676 -0.17896493 -0.024667956 -0.1984872 0.019903118 -0.023889964 -0.28793538
-0.11669825 -0.21656461 -0.03188168 0.047999095 -0.07860245 -0.15838858 -0.16478196 -0.14829516
-0.06632711 -0.11772108 -0.17025903 0.0007598128 -0.07395203 -0.24201506 -0.27460533 -0.012116093
-0.033209506 -0.13069023 -0.14791787 -0.1225092 -0.11556016 -0.0833091 -0.1909552 -0.02061693
-0.029498491 -0.18941233 -0.0841231 -0.062216435 -0.1169757 -0.15624346 -0.035165746 -0.18457901
0.006100785 -0.16430262 0.026527332 -0.06039157 0.11977347 0.045875065 -0.020441331 -0.07891548
-0.07552538 -0.080313414 -0.039036922 0.0019728844 -0.025921907 -0.14587696 -0.12106076 0.046905406
-0.028007157 -0.04318311 -0.20592977 -0.10641516 -0.08767573 -0.01570117 0.060309313 0.02698671
0.05313297 -0.04957262 0.08538362 0.026312694 -0.014792825 0.040482927 0.12915206 -0.038979717
0.003401319 0.07987328 -0.056393642 -0.22416182 0.07432064 0.12696643 -0.092276044 -0.21640342
-0.015411149 -0.105237134 -0.097841814 -0.21890502 0.00031094096 0.0073450827 0.057272818 0.006591667
-0.018231098 0.049355976 0.166677 -0.088395804 -0.057846934 -0.0642268 0.039233007 -0.027125955
0.053919446 -0.03269026 0.06377065 0.0672676 0.085044645 -0.08283021 0.047832545 0.10287775
0.041611798 0.07564826 0.14616385 0.043416936 0.12873164 0.022200657 -0.11717466 0.053079225
0.032855462 -0.09259088 0.07900807 0.07375988 -0.06380576 -0.06549972 0.09361841 0.07978108
0.032437824 -0.11703985 -0.027749432 0.011729178 0.06685553 -0.18661265 -0.07542732 -0.062100936
-0.069971554 -0.08106409 -0.07083937 -0.0059428336 -0.08691155 0.06767392 0.12624384 -0.04788379
0.14693591 -0.057305817 -0.005279615 0.005246311 -0.07395002 -0.05424634 -0.06526389 -0.0147987
0.09554642 0.066467315 -0.0046234503 -0.007672173 -0.010512113 -0.07472727 -0.04200782 0.15100138
-0.19012389 -0.29294854 0.087199755 -0.063458234 -0.2058356 0.019564208 0.05227572 -0.07893881
-0.13727222 -0.12636647 -0.14048819 -0.07431023 -0.1834721 -0.17873523 0.03487318 -0.014077603
0.08261582 -0.037182577 -0.018693035 -0.1148191 -0.19301648 -0.0671394 -0.14625074 0.05143542
0.0640994 -0.03379479 -0.072952725 -0.18842855 -0.055448923 -0.08365737 -0.07023205 -0.059116706
-0.120645225 -0.08393079 -0.16209805 -0.051870823 -0.25623855 0.060864277 -0.16657922 -0.15038842
0.004204458 -0.16497558 0.024828793 -0.027869925 -0.15309294 -0.1483506 -0.17590505 -0.04837988
0.0833794 -0.0007801869 -0.14486504 0.061516445 -0.09677515 0.002084011 -0.041065253 -0.05041877
-0.09538393 0.0059161317 -0.11451728 -0.08036736 0.013348431 -0.25272655 -0.11229544 -0.08002287
00000000: f0c1 7bbc 8c45 debd 43bc c53d 938e 4b3d
00000010: 7a29 e2bd 2907 86be 9a02 563d c343 2dbe
00000020: 9fd5 4ebd 77e4 d4bd a4ee acbd 4944 6cbe
00000030: 1712 5cbd 62bd c03b 0d5f 37be fc95 b7bc
00000040: e6ee abbd aa10 06be 137c 91bd 9cf6 37be
00000050: f671 36be ef49 e7bd b426 febd 07a5 53be
00000060: f16c e9bd aaaf 2fbd afff 7cbe 59ea 9e3c
00000070: 9cde 9cbd 00a6 d7bd ffcb 12be 5de6 37be
00000080: d233 5dbe d094 433d e19f a5bd 413f 92bd
00000090: 8464 12be 327b 7fbc c269 4dbe 0c8c ddbd
000000a0: 49f7 b4bd 4518 523d 9542 37be 7414 cabc
000000b0: 3b40 4bbe dd0b a33c e3b4 c3bc 446c 93be
000000c0: 7eff eebd 1dc3 5dbe 5d96 02bd b39a 443d
000000d0: 52fa a0bd 9e30 22be 9abc 28be b0da 17be
000000e0: 82d6 87bd c017 f1bd 6258 2ebe 2d2e 473a
000000f0: 2974 97bd ccd2 77be 1299 8cbe 9482 46bc
00000100: b106 08bd a9d3 05be c877 17be 1ae6 fabd
00000110: ceaa ecbd f69d aabd c389 43be d6e4 a8bc
00000120: d2a6 f1bc 4ef5 41be bb48 acbd a9d6 7ebd
00000130: f590 efbd 49fe 1fbe f509 10bd 4802 3dbe
00000140: 18e9 c73b f23e 28be d94f d93c 275d 77bd
00000150: cb4b f53d 7ee7 3b3d 9474 a7bc 709e a1bd
00000160: 0dad 9abd 5c7b a4bd 2ee5 1fbd 824b 013b
00000170: 2e5a d4bc c560 15be b4ee f7bd e21f 403d
00000180: 446f e5bc c6e0 30bd 41df 52be 31f0 d9bd
00000190: 558f b3bd bd9f 80bc e606 773d 3c13 dd3c
000001a0: f5a1 593d a90c 4bbd 9bdd ae3d b88d d73c
000001b0: 9b5d 72bc 6dd1 253d 7040 043e 32a9 1fbd
000001c0: aae8 5e3b 9a94 a33d 05fd 66bd ad8a 65be
000001d0: 6b35 983d 7d03 023e 39fb bcbd dc98 5dbe
000001e0: 0b7f 7cbc 9186 d7bd 4a61 c8bd a328 60be
000001f0: ca05 a339 05af f03b e796 6a3d e9fe d73b
00000200: 6259 95bc 7e29 4a3d 60ad 2a3e dc08 b5bd
00000210: e8f0 6cbd 5789 83bd cab2 203d 4037 debc
00000220: a3da 5c3d 39e6 05bd 309a 823d 98c3 893d
00000230: e32b ae3d e3a2 a9bd 0fec 433d 92b1 d23d
00000240: 2271 2a3d 7aed 9a3d faab 153e f5d5 313d
00000250: 3ad2 033e 27de b53c 45f9 efbd 9a69 593d
00000260: 7393 063d 4aa0 bdbd fcce a13d 6c0f 973d
00000270: 98ac 82bd b824 86bd 02bb bf3d 4364 a33d
00000280: 86dd 043d 97b2 efbd c752 e3bc bd2b 403c
00000290: 8deb 883d 6317 3fbe a479 9abd 8d5d 7ebd
000002a0: 3f4d 8fbd ee04 a6bd 3b14 91bd 1abc c2bb
000002b0: affe b1bd a098 8a3d 1146 013e cb21 44bd
000002c0: 5e76 163e 81b9 6abd 9f00 adbb 3fe9 ab3b
000002d0: 1c73 97bd 6931 5ebd 13a9 85bd 3f76 72bc
000002e0: d7ad c33d 0420 883d 5080 97bb da66 fbbb
000002f0: ff3a 2cbc 9c0a 99bd 6410 2cbd 1ba0 1a3e
00000300: d6af 42be 5afd 95be c995 b23d 64f6 81bd
00000310: 91c6 52be 1e45 a03c 111f 563d acaa a1bd
00000320: 1791 0cbe 3666 01be 23dc 0fbe f62f 98bd
00000330: 1ce0 3bbe 5e06 37be 2ed7 0e3d bfa5 66bc
00000340: 7c32 a93d c24c 18bd 2322 99bc 4726 ebbd
00000350: 1da6 45be 6280 89bd c1c2 15be f2ad 523d
00000360: 8c46 833d 686c 0abd 3d68 95bd 6af3 40be
00000370: 691e 63bd 8e54 abbd d2d5 8fbd 5c24 72bd
00000380: d814 f7bd e8e3 abbd 08fd 25be 8076 54bd
00000390: b331 83be d24c 793d be93 2abe 6cff 19be
000003a0: 8dc5 893b 5cef 28be c165 cb3c 784f e4bc
000003b0: 65c4 1cbe 38e9 17be 7420 34be fb29 46bd
000003c0: d2c2 aa3d 7585 4cba 8057 14be abf8 7b3d
000003d0: 0d32 c6bd e793 083b 0a34 28bd ea83 4ebd
000003e0: a658 c3bd 1cdc c13b 0988 eabd a497 a4bd
000003f0: 61b3 5a3c 6065 81be 27fb e5bd 08e3 a3bd

rnn.bias_hh_l1 f4 [256]
-0.17749473 -0.22515012 -0.021869263 0.06619962 -0.22451396 -0.24699351 -0.1604454 -0.08370378
-0.14790325 -0.00083716534 -0.0050100447 -0.22925536 -0.25076497 -0.1864864 -0.14175281 -0.0089315
-0.17580804 -0.072987705 -0.16179605 -0.22791944 -0.09293637 -0.2038366 -0.17517129 -0.03446981
-0.1394194 -0.16463926 -0.051668484 -0.029913971 -0.1264386 -0.25295803 -0.16826822 -0.28009602
-0.29181078 -0.17020653 -0.20486432 -0.30838957 -0.23354033 0.039015867 -0.18320364 -0.20771937
-0.10527749 0.044613134 -0.09325141 -0.02668488 -0.1966089 0.06591971 -0.21513604 -0.12865609
0.09919083 -0.10453481 -0.19248268 0.041103825 -0.25573653 -0.21086706 -0.2931764 -0.19166146
-0.0902373 -0.20868275 -0.26798528 -0.19783886 -0.1783301 -0.2516244 -0.29757378 0.040729858
-0.21989146 -0.12007442 -0.0006201037 -0.10611159 0.014636885 -0.014404743 0.0082876235 -0.0035927722
-0.021357534 -0.058686055 -0.015256094 -0.14644374 -0.18918236 -0.13172358 -0.099280104 -0.19717689
-0.1276157 0.03473097 -0.03241751 -0.1677912 -0.07240122 -0.08030512 -0.15254438 -0.014432961
0.00056875416 -0.024095496 -0.061521094 -0.15392011 0.03519715 0.047925703 -0.24509951 -0.1677696
-0.068368554 0.029085713 -0.0024218776 -0.17647418 0.052447543 -0.053203207 0.12759669 -0.0073279752
-0.03904084 0.023548981 -0.08251436 0.021604873 0.01988171 -0.015175945 -0.03502393 -0.1047209
-0.07670942 -0.116134524 -0.04981635 -0.04698534 -0.11479201 0.107748 0.14888322 -0.17344275
-0.15457503 -0.02227471 -0.056526423 -0.1675766 0.07418127 -0.042799875 -0.04085283 0.0397995
-0.045069654 -0.0011064389 -0.04436119 -0.027697602 -0.012907683 0.0071242754 -0.015064071 0.10699551
0.052141085 -0.11144624 -0.08089009 0.034650918 0.10070627 0.059182044 0.09589127 0.10858537
-0.07090132 0.005801384 0.031164888 0.030428655 0.14298335 0.06437066 -0.03299397 -0.009603388
0.09480542 0.10534695 -0.124511674 0.06936443 -0.15016325 -0.16265343 -0.14446768 -0.022194382
0.070231974 -0.0363905 -0.011986382 0.11056983 -0.013847797 -0.05835798 0.10460528 -0.11720434
-0.035843536 -0.111873664 0.05371335 -0.012462058 0.049186327 -0.028132685 0.067564815 0.096285775
-0.0313132 0.09061102 0.034718264 -0.09543279 -0.15515761 0.040054332 -0.04790229 -0.050920885
-0.058102347 0.027483147 -0.09107275 0.014932148 0.08341726 -0.0018142452 0.01396971 0.19444264
-0.07928327 -0.16530524 0.05123835 -0.07762994 -0.007517199 -0.042220723 0.10395721 -0.17638476
-0.008243122 -0.07486517 -0.091015756 -0.03718471 -0.1806119 -0.1206972 0.11628167 0.014372444
-0.00168189 -0.117338605 -0.13030091 -0.14233123 -0.023621408 -0.11605417 -0.023069952 -0.15364166
-0.14534326 -0.022827681 0.01868725 -0.15823466 0.020677138 -0.070447706 -0.077901 -0.1916782
-0.24373434 0.042225976 -0.044493515 -0.2277802 -0.25093624 -0.12699096 -0.08116708 0.0115293795
-0.024962423 0.07897366 -0.016368765 -0.14999847 0.028147742 0.06785481 -0.2819124 -0.120845474
0.09161733 -0.19359022 -0.08238151 0.05476681 0.021871252 -0.1234526 -0.19035727 -0.01497942
-0.0011022147 -0.06582441 -0.23998643 -0.1324239 -0.088946864 -0.192045 -0.1772002 0.07943449
00000000: 2ec1 35be c18d 66be 2b27 b3bc ab93 873d
00000010: fde6 65be deeb 7cbe cd4b 24be e36c abbd
00000020: f373 17be 3775 5bba 4d2b a4bb ebc1 6abe
00000030: 4464 80be 4af6 3ebe a627 11be 6d55 12bc
00000040: 0607 34be 947a 95bd ddad 25be b763 69be
00000050: 6c55 bebd 8bba 50be 1a60 33be 3730 0dbd
00000060: f6c3 0ebe 3297 28be 55a2 53bd 250e f5bc
00000070: 1f79 01be b783 81be 814e 2cbe bf68 8fbe
00000080: 3968 95be 9f4a 2ebe f4c7 51be 3de5 9dbe
00000090: 3225 6fbe 1acf 1f3d bc99 3bbe 63b4 54be
000000a0: ba9b d7bd 43bc 363d 98fa bebd 409a dabc
000000b0: d853 49be ea00 873d 9f4c 5cbe 6cbe 03be
000000c0: 9024 cb3d 5916 d6bd 2e1a 45be 7c5c 283d
000000d0: e6ef 82be 89ed 57be 381b 96be e742 44be
000000e0: 55ce b8bd eeb0 55be 5e35 89be 4596 4abe
000000f0: 2a9c 36be ead4 80be 975b 98be 5ad4 263d
00000100: 3a2b 61be 94e9 f5bd 748e 22ba 0951 d9bd
00000110: 8ccf 6f3c df01 6cbc d0c8 073c b774 6bbb
00000120: fff5 aebc ca60 70bd b2f4 79bc 59f5 15be
00000130: 05b9 41be 8ce2 06be 5e53 cbbd bde8 49be
00000140: b1ad 02be 1042 0e3d 39c8 04bd 75d1 2bbe
00000150: 1747 94bd 0377 a4bd 9834 1cbe 3a78 6cbc
00000160: 7218 153a eb63 c5bc 8bfd 7bbd 3c9d 1dbe
00000170: e32a 103d be4d 443d 5efb 7abe cbcb 2bbe
00000180: d004 8cbd 2945 ee3c 5db8 1ebb a6b5 34be
00000190: 3cd3 563d 9beb 59bd b5a8 023e 831f f0bb
000001a0: 4ae9 1fbd cbe9 c03c 4afd a8bd b4fc b03c
000001b0: f8de a23c 87a4 78bc 4175 0fbd e977 d6bd
000001c0: d419 9dbd f0d7 edbd 3b0c 4cbd b373 40bd
000001d0: 1318 ebbd fcaa dc3d d874 183e fa9a 31be
000001e0: eb48 1ebe 7479 b6bc 4088 67bd 3399 2bbe
000001f0: 5aec 973d ec4e 2fbd 4c55 27bd cd04 233d
00000200: f59a 38bd ee05 91ba 14b4 35bd 15e6 e2bc
00000210: bf7a 53bc c172 e93b 4bcf 76bc 7620 db3d
00000220: e491 553d ed3d e4bd b4a9 a5bd 1fee 0d3d
00000230: 173f ce3d df68 723d a462 c43d 0262 de3d
00000240: b634 91bd 8919 be3b 824d ff3c 8445 f93c
00000250: 3a6a 123e c4d4 833d af24 07bd 8757 1dbc
00000260: 5829 c23d 24c0 d73d faff febd f00e 8e3d
00000270: 65c4 19be 9f8e 26be 56ef 13be fed0 b5bc
00000280: c8d5 8f3d 340e 15bd 8862 44bc 6f72 e23d
00000290: dfe1 62bc c708 6fbd 4b3b d63d d408 f0bd
000002a0: acd0 12bd 051e e5bd 8802 5c3d a92d 4cbc
000002b0: 9a77 493d 8476 e6bc 6c5f 8a3d 7a31 c53d
000002c0: 4542 00bd 4592 b93d bd34 0e3d 4472 c3bd
000002d0: a3e1 1ebe 0310 243d 3135 44bd 6b92 50bd
000002e0: bafc 6dbd 5624 e13c 5a84 babd f8a5 743c
000002f0: abd6 aa3d f8cb edba 36e1 643c f91b 473e
00000300: 445f a2bd c745 29be 4edf 513d 72fc 9ebd
00000310: d652 f6bb a3ef 2cbd 85e7 d43d 359e 34be
00000320: 290e 07bc e952 99bd 7866 babd ff4e 18bd
00000330: 53f2 38be 1830 f7bd 1625 ee3d 667a 6b3c
00000340: dd72 dcba 394f f0bd 9a6d 05be 47bf 11be
00000350: af81 c1bc cfad edbd 32fd bcbc 3d54 1dbe
00000360: ddd4 14be 1e01 bbbc 0116 993c 4408 22be
00000370: 1a63 a93c e346 90bd 8f8a 9fbd 4a47 44be
00000380: 7f95 79be 25f5 2c3d d53e 36bd 363f 69be
00000390: b77a 80be eb09 02be ed3a a6bd b9e5 3c3c
000003a0: ff7d ccbc f1bc a13d ca17 86bc 3399 19be
000003b0: 1896 e63c 76f7 8a3d d256 90be d57d f7bd
000003c0: dea1 bb3d 843c 46be a3b7 a8bd 2a53 603d
000003d0: 572b b33c b7d4 fcbd 04ed 42be 3e6c 75bc
000003e0: 3078 90ba f3ce 86bd 01bf 75be 219a 07be
000003f0: c629 b6bd 72a7 44be f873 35be 8dae a23d
