notebooks/checkpoints/LSTM_optuna/trial_005/LSTM_trial_5/checkpoints/best-epoch=4-val_loss=8.29.ckpt (torch, 713914 bytes, 30 tensors)

rnn.weight_ih_l0 f4 [256, 30]
00000000: 09ff b4bc c590 8cbd 232b d93d e9f2 223d
00000010: 069f 253e 28ce b2bd a6a2 143e 8f15 b03d
00000020: 5a5d 04be 8a86 2bbc adb4 173e 56f0 a23c
00000030: 08a9 c13d a3ec da3d 6172 383d 5a8c 393d
00000040: 6097 413c 870c d7bc 8d8f 943d c8d1 debc
00000050: e92c 803d 105b 183e 9c6f 273d 3bc9 4cbd
00000060: 0cc0 57bd 0610 2b3d 52dd ccbd 8da5 40bd
00000070: 8357 073e 9b1a bf3d 78d8 81bc fbc8 9cbc
00000080: 3300 2b3e 1cf4 5ebc 2efc a33e af0d b33b
00000090: 9795 11be 38b8 263d 10ac 74bf 5a03 0f3c
000000a0: f4dd 7abd b00d 9e3d d269 37ba f981 1d3c
000000b0: d6aa 673d 62ca 2bbd b6ca 50bd 8f4a d3bc
000000c0: 1472 81bd cea3 633d afe6 913d 9078 d33c
000000d0: d9de 433e a3be c9bd 6171 97bc e0ed 6a3e
000000e0: e182 78bc 52f6 b33d ccee e73c 8df5 163e
000000f0: 758d 0b3e a2a2 473d f8f6 2c3e 88f9 003e
00000100: 2cb7 fa3d 6efe 113d 6ebb 8bbd f1ae 48bd
00000110: 7304 2a3e 44e7 5d3d c233 cfbd aabc 5abd
00000120: 6805 42bc 1d67 44bd 0f02 4c3c 7999 d43c
00000130: fe62 ae3d 8276 12be f5cf 2c3d 51ed 8c3d
00000140: 0f55 07be 0b71 b03b 1060 0bbc 677c 093d
00000150: 7b1c f73c e5d3 51bd 3ace a13c 4cbd 843d
00000160: d635 79bc 469f b43d 692c fe3d 50f6 84bd
00000170: 384f c93d ff58 e1bd 6783 ee3d ebfb 023e
00000180: b135 f13b 45c8 1f3e 288b 18bd 5aa4 4a3d
00000190: 71bf 513d 233e bbbc 0d3a 3abd 2d89 bf3d
000001a0: db37 0c3e 6f4d b83d 4491 aabc e067 89bd
000001b0: f438 a13b c5c8 ac3d a857 1f3d 45ba 2d3e
000001c0: 6700 d83d 9a19 8abd 9224 20bc 024a f23d
000001d0: d5e9 23bc 5ab9 013e 9dcc 88bd 0548 803b
000001e0: ece8 db3d 2dfe 13be 7f12 003d 074f e03d
000001f0: e694 84be 8cdc 833e 141c 913d 98e7 443d
00000200: 78e8 cbbc a9d7 0bbe 58e4 a9bc b0a5 7a3d
00000210: f98d 38be 8e10 73bc 452c 5ebd 9d98 1fbe
00000220: 15fb 0cbd 6428 ccbd 7515 b2bd 87ea 44bd
00000230: 87a1 b63b 7660 d3bd 33e6 c6bd ae6c 4cbc
00000240: efa6 ce3b 06d0 283d 6835 2cbe bb50 ecbd
00000250: efc6 5ebd 279d 20be 4b7c 8c3d b47d dfbd
00000260: 18d3 6c3d e9dc d6bd 33b1 02ba b861 613e
00000270: a3de 02bc 939b 42be 1523 633c 0f7e 9ebd
00000280: 51dc 75bd eb1a 9b3d 32ac 90be c58f dfbd
00000290: abb9 5e3e 1dbd c7bd aae3 d9bd f5dc 2a3e
000002a0: 1e68 04be 764c 573d bd6f 463e b695 863d
000002b0: 3b49 a4bd 8fa2 253e 1eaf 283e 2aa7 0cbd
000002c0: 31d2 1b3e 27ed 4abd 4371 dfbd fc4a b93d
000002d0: 6730 c03d bb32 f53d 491e 283e ddbb d9bb
000002e0: 6b97 72bd dbf3 04be b16a 713e bb1f 683e
000002f0: 642c 843d 2f04 a9bd 38d3 5a3e 19c3 f1bd
00000300: 4212 4ebe afa7 93bd 3203 a03d 0206 25bd
00000310: e821 3f3c efd5 043c 7fb2 86bd db16 393e
00000320: a33e 1d3d 2fa5 303e a2cf bfbd fbec b43a
00000330: c1b1 e9bc 0e52 76bd b999 a83c eb58 7d3d
00000340: 5ac9 173e dd2d 423e 5c38 bb3d a121 de3d
00000350: 06f3 e23d b29e 983d af8b 2a3e fef7 7b3e
00000360: d59e c5bd a247 c7bc 3438 113e 006e c2bd
00000370: 9cd4 483c b5ec 06be 2c23 0abe d2c5 793d
00000380: 0609 4dbe 2f74 c3ba c5be fabd 538d 2dbe
00000390: f846 31be c526 dcbc c472 41bd cedf abbd
000003a0: 2b0d 923d 5dc8 3bbd 4ec2 14be 41a2 d8bc
000003b0: daee 62bd e6dd ebbc a008 f0bd 2f89 413d
000003c0: cb65 cd3d e213 513e 9cec 683e 77ae 8ebc
000003d0: 5298 ee3d 8329 423e edff ae3a 7a14 a33d
000003e0: 46bc d03d f77d 643d 6e26 ddbc 1ef6 bfbb
000003f0: 4e8a e23d 561a a83d a9ca ea3d f6b4 dc3d
-0.022094266 -0.0686355 0.10603931 0.03978244 0.16173944 -0.087307274 0.1451517 0.08597862
-0.12926236 -0.010469088 0.14815016 0.019889992 0.09456068 0.10689666 0.045030955 0.045299865
0.011815876 -0.02625109 0.07253943 -0.02719964 0.06258566 0.14878488 0.040877923 -0.049996596
-0.052673385 0.041763328 -0.10003151 -0.04703288 0.13216977 0.093312465 -0.01585029 -0.019138804
0.16699295 -0.013608005 0.32028335 0.0054642777 -0.1421722 0.04070303 -0.95575047 0.008728826
-0.061246827 0.077174544 -0.00069966645 0.009613507 0.056559406 -0.041941054 -0.05097457 -0.025792388
-0.06320587 0.05557614 0.071240775 0.025814325 0.19127978 -0.09850814 -0.01848668 0.22942305
-0.015167923 0.08787216 0.02831211 0.14742108 0.1362818 0.048739083 0.16891086 0.12595189
0.122419685 0.035643034 -0.06822859 -0.048994962 0.1660326 0.05417563 -0.10117294 -0.05340258
-0.011842109 -0.0479499 0.012451663 0.025952088 0.08514975 -0.1430302 0.04219051 0.06881202
-0.13216041 0.0053845695 -0.00850679 0.033565905 0.030164948 -0.05122747 0.019751657 0.06481418
-0.015210589 0.088194415 0.12410814 -0.06492293 0.09829563 -0.11003303 0.11646157 0.12791412
0.007361137 0.1560374 -0.037242085 0.049473144 0.051207963 -0.022856778 -0.045465518 0.09352336
0.13693182 0.08999144 -0.020821221 -0.06709266 0.0049201194 0.08436731 0.038901955 0.16965587
0.10546952 -0.06743164 -0.009774344 0.11830522 -0.01000448 0.12668362 -0.06679652 0.0039148354
0.10737786 -0.14452429 0.03126764 0.10952573 -0.2589485 0.257542 0.070854336 0.048072428
-0.024891123 -0.13656487 -0.020738766 0.06119317 -0.18022908 -0.01483549 -0.054241437 -0.15585561
-0.034419138 -0.099686414 -0.08695499 -0.048075225 0.005573455 -0.10321133 -0.09711876 -0.012477083
0.006306521 0.04121401 -0.16817248 -0.115388356 -0.054388937 -0.15684949 0.068596445 -0.10912648
0.057818502 -0.10491354 -0.0004985511 0.22009933 -0.007987651 -0.1900466 0.013863345 -0.077388875
-0.060024563 0.075734936 -0.28256375 -0.10916094 0.21750514 -0.09752867 -0.106391266 0.16685851
-0.12930343 0.052563153 0.19378562 0.06571524 -0.0802178 0.16175292 0.16473052 -0.034339108
0.152169 -0.049542572 -0.10910275 0.09047505 0.09384232 0.11972567 0.16417803 -0.0066447095
-0.059226435 -0.12983648 0.23575856 0.22668354 0.06453779 -0.08252751 0.21369636 -0.1180479
-0.20124152 -0.072097175 0.078131095 -0.040288933 0.011665799 0.008107646 -0.06577014 0.18075125
0.038389813 0.17250513 -0.09365775 0.0013803536 -0.028527142 -0.060136847 0.020581113 0.061852377
0.14822903 0.18962808 0.09141609 0.10846258 0.11081509 0.07452144 0.16654848 0.2460632
-0.096494354 -0.02432615 0.14181596 -0.09493637 0.012257721 -0.13176234 -0.1348998 0.06097967
-0.20022973 -0.0014911945 -0.12243418 -0.16948442 -0.17312229 -0.026873956 -0.04722859 -0.08392297
0.07131418 -0.04584538 -0.14527246 -0.026444556 -0.055403568 -0.028792333 -0.11720395 0.04724997
0.10029181 0.20417741 0.2274651 -0.017417176 0.116501465 0.18961148 0.0013351418 0.0796289
0.1019216 0.055784192 -0.026995864 -0.005858197 0.11061536 0.08208148 0.114644356 0.10776703

rnn.weight_hh_l0 f4 [256, 64]
00000000: baa5 40bd 92ee 84be a113 4d3d 148c 983d
00000010: ab81 8f3c c8d2 1cbd 32e9 b3bd 1712 2d3e
00000020: e44c d2bc 4437 1fbe bda2 10be 960f 9d3d
00000030: 1e07 af3d b2af 9c3d 3478 053e 4f5b 03bb
00000040: fe70 c2bc 5bc5 303e 135d 4abd 1cb5 06bd
00000050: 5a67 6e3d 503e eabb cfab 4e3e 136b cd3d
00000060: beaf 443e 7973 dc3c 3960 7fbd 8b0d 43bd
00000070: f994 4e3e 4322 4039 5dd9 e5bc a01c c13d
00000080: a154 fd3d 9d09 a5bd d069 9bbc 7e23 593c
00000090: 64b5 063e 1302 86be cb0d 8fbd c64c b93d
000000a0: 364c 35be d326 7d3d 95b5 b23d b3e3 55be
000000b0: 7165 9bbd c945 84ba 2d23 5abd c816 06bd
000000c0: b14e 383e e908 2abe 4508 dabd 99e1 853d
000000d0: 952a 1c3d 3822 7d3d ee9b 0fbe ef50 79be
000000e0: ed63 72bd 9c3b fd3d f9f9 1b3e 2d28 be3d
000000f0: 9edd 05be 4819 e93d 9390 ee3d f93a 87bc
00000100: 551c d93d 23fc 8fbe ddfa 073e fe44 0a3e
00000110: 22b0 013e dd23 dabd 886d 863e f871 fa3e
00000120: ba42 5d3d 9782 f8be 8f57 14be 68df 173e
00000130: 1ec8 f03b 7378 18be 9a84 9c3d 198b 86be
00000140: 75aa 22be 06e3 8bbe 7162 15be 4b04 bd3e
00000150: 5165 d13d 1304 88bd a06b 2e3e 7386 c1bb
00000160: 98c3 48bd cc83 9bbd 319a bdbe ad10 b4be
00000170: d7ab b83d c130 b03c fbb3 353e 1f47 41bd
00000180: 3e1d a3bd ef43 153e 1506 9f3c 8d8e 0a3e
00000190: 279a 573e f5bb acbe fc60 6dbd e1cd 223e
000001a0: bea5 e03c 5a8c 9cbd e574 9cbd 3a9d 9ebe
000001b0: d25b 2bbd d554 ef3c 7be2 e13b 1e7b 8e3d
000001c0: 2263 32bc f852 dd3c cde3 623e 827b a8bd
000001d0: 296f 96bd 0f1b 1f3e dba1 72bd 6b2b 01be
000001e0: 60f5 83bd 761e 86bd 095a 7e3d 6dcd 1b3e
000001f0: 5bee 8fbd aab7 f8bd 3dfd 9ebe 4c39 05bd
00000200: 6a61 56be b106 80bc c7c0 e0bd 87bb b03e
00000210: 64df 8cbd 003c 943d bf3b 7cbd 9fb7 8dbd
00000220: 6b97 0a3e a657 a03e 873c a6bd 1824 4dbd
00000230: a27e e03d 945e 303e f6c6 003f 97dd 003e
00000240: 4e74 8dbd 895b 603d 4f87 31be 256a b4bd
00000250: 9481 f93d b794 263d f031 7bbd 4268 f23c
00000260: d9a4 3bbb a90c 0c3f 8177 b3bd 4f38 2f3e
00000270: 9775 4c3e 7c85 04be d5f2 1e3e a8fd 4e3d
00000280: 9069 f4be 1772 093f a19a b53e aaaf 5abd
00000290: 11a3 513e 805d 5a3d bab6 2f3e 31f6 703d
000002a0: ac47 25be 96af 833d cf9d d93e 4a96 d53d
000002b0: 2067 6d3c 5dc5 afbd 55a9 1abe eb36 b33c
000002c0: 38e4 6cbd 8708 18be 8db1 3d3e b2a4 17bd
000002d0: fe51 82bc 2397 143f e1da 453d c41b f43d
000002e0: f400 34be 7ff9 d6bc ca02 033f d637 aabc
000002f0: 237d 8a3e 0dea 94bc 9bbd 17be a05d 52bd
00000300: ee3f 33bd 988d ccbd 33b0 ab3d dbc9 043e
00000310: a8c9 cb3d 0c93 43bd b0a7 1b3e d227 2f3d
00000320: 0d48 973d 5c10 5f3e 2e5e 4ebd 462d b63c
00000330: 7543 0bbe f474 ad3c fe70 3c3d 1ebd 45be
00000340: d4b7 a33d 3461 033e aab6 08be 87c0 69bd
00000350: c8ac 573d 2166 6fbd a2c5 fb3d be9d 143e
00000360: 28ad 7cbd 0e9a 12bd e5e1 adbd 03ac 23be
00000370: a4db 243d 5594 3fbd 8224 6d3d 41fa babc
00000380: 4c69 0bbe 9d57 8f3d 774f 7d3d 7740 edbd
00000390: df4f 063d d526 82bd 087c 1e3e 9b56 09bc
000003a0: 2d77 2bbe d0b5 d8bd 2f4d 8ebd b09e b53d
000003b0: 0492 6ebd af4d 42bd 3e05 ccbd 4adc bdbc
000003c0: d694 9f3b ca01 cc3d 3be0 9c3c f053 4a3e
000003d0: 6d2b 833c 2b4f a03d a117 3abe 1a41 09be
000003e0: 963b bbbc 10d3 cc3d 79f7 33bd 4410 363e
000003f0: aca6 6dbd e5e4 97bc 1501 b83c 6fc3 c9bc
-0.04703305 -0.25963265 0.050067548 0.07448593 0.017517885 -0.038286954 -0.08784713 0.16901432
-0.02567143 -0.15548426 -0.1412458 0.076689884 0.08546279 0.07650699 0.13034135 -0.0020043438
-0.02373552 0.17262785 -0.04940517 -0.032887563 0.058204032 -0.0071485415 0.20182727 0.100301884
0.19207665 0.02691053 -0.062347624 -0.047620337 0.20174016 0.0001832331 -0.028057748 0.09429288
0.12369657 -0.08058474 -0.018971354 0.013253091 0.13155133 -0.26173458 -0.06985053 0.090478465
-0.17704853 0.061804604 0.0872604 -0.20887642 -0.07587708 -0.0010091598 -0.053256202 -0.03273657
0.17998768 -0.16604961 -0.106461085 0.0653717 0.038126547 0.06180021 -0.14024326 -0.2434728
-0.059177328 0.12364885 0.15232076 0.09285007 -0.13072821 0.11381775 0.11648669 -0.016507613
0.10601107 -0.28122053 0.1327929 0.13502881 0.12664846 -0.10651372 0.2625544 0.48915076
0.054018714 -0.48537132 -0.14486526 0.14831316 0.0073480746 -0.14889698 0.07642479 -0.26277998
-0.15885337 -0.27321643 -0.14588334 0.36917338 0.10224403 -0.06641402 0.17033243 -0.00590592
-0.049014658 -0.07593498 -0.370317 -0.35168973 0.09017151 0.021507623 0.17744438 -0.047186967
-0.07964562 0.14576696 0.01941208 0.13530941 0.21054898 -0.3373715 -0.05795382 0.15898849
0.027422782 -0.076439574 -0.07639483 -0.3097933 -0.041835614 0.029215256 0.0068934537 0.069570765
-0.010887893 0.027017102 0.22157212 -0.08226682 -0.07345421 0.15537666 -0.05923639 -0.12614219
-0.06443286 -0.06548779 0.062097583 0.15215082 -0.070278846 -0.12144406 -0.3105258 -0.032525346
-0.20935598 -0.01562819 -0.10974269 0.34518072 -0.06878546 0.072380066 -0.061580416 -0.069197886
0.13534324 0.3131687 -0.081170134 -0.05008325 0.10961653 0.17223579 0.5030359 0.1258453
-0.06906949 0.054774795 -0.17336772 -0.08809308 0.12182918 0.04066917 -0.06132692 0.02959073
-0.0028632192 0.5470682 -0.08763028 0.17111324 0.19966732 -0.12941545 0.1552232 0.050534874
-0.47736788 0.5368971 0.35469535 -0.053390183 0.20472361 0.053311825 0.17159548 0.058828536
-0.16140622 0.06429975 0.4250321 0.10429056 0.014489919 -0.08582566 -0.15103658 0.021876773
-0.057834834 -0.14847003 0.18524761 -0.0370223 -0.015908238 0.58043116 0.048304442 0.119193584
-0.17578489 -0.026242016 0.5117613 -0.020778578 0.27048597 -0.01817801 -0.14818422 -0.05135882
-0.04376214 -0.09987944 0.08383217 0.12967627 0.09950572 -0.047747657 0.15200686 0.042762585
0.073867895 0.21783584 -0.050382785 0.022238385 -0.13599952 0.021173932 0.046006195 -0.19310424
0.07994047 0.12830049 -0.13350931 -0.057068374 0.05265501 -0.058447007 0.12293555 0.14513299
-0.061688572 -0.03579145 -0.084903516 -0.15983586 0.040248528 -0.04677232 0.057896145 -0.022824408
-0.13614386 0.06999133 0.06184336 -0.11584561 0.032791015 -0.06355063 0.15477002 -0.008382465
-0.1674468 -0.10581553 -0.06948315 0.08868158 -0.05824472 -0.047437366 -0.09961937 -0.023176331
0.0048700375 0.09961279 0.01914989 0.19758582 0.016011918 0.078276 -0.18173076 -0.1340374
-0.022855561 0.100011945 -0.04393718 0.17779642 -0.05802028 -0.018541763 0.022461453 -0.024629323

rnn.bias_ih_l0 f4 [256]
00000000: f176 2e3d d3e9 e73d f14b 9a3d 5194 253e
00000010: ad54 363e 3063 603e 51b8 febd 50ce c63d
00000020: 462c 96bc 8f3b 1f3e 1833 dfbc c4a7 13bf
00000030: f1ad 823e a841 97bd 4162 65bd 0d28 8b3e
00000040: 9cad c73c c479 f5ba beaa a83e a2eb 013e
00000050: 83de 133f a619 963e e755 8abc 6b5e cabc
00000060: 2c5a 1cbd 1dda aa3c 9339 a6bc 4baf 58be
00000070: 4c1c b63d c530 e93d 39d7 0b3e cf55 cfbc
00000080: 6941 bbbc 2671 ed3d 4f2c 8d3b b3bc 09be
00000090: f85a 153e 28c0 0f3e 7755 323d 630b d73d
000000a0: 92f8 033e 85d9 063d 5c2a d0bd 5bec 15be
000000b0: bae0 453d 44b9 0bbe 2823 e33d 9a06 d73c
000000c0: 2342 423e 3f5f c03e 8db5 c33d ba47 8bbd
000000d0: 4192 79bd 6b00 943c d890 1a3e 7b67 9c3d
000000e0: e277 02be 1c7b 263e 193c afbd 55ec 233e
000000f0: 2266 ca3d e516 19be 8c7e 013d a9aa 3e3e
00000100: 426c 55be 274d 3a3d 0a0a 5cbe 1130 143c
00000110: 15ce 7bbd c349 343e 7669 f3be e595 6a3e
00000120: 4083 0dbe 3519 eabc 1b13 33be 39aa de3c
00000130: eb7b 7abe 685d 09bd c53a 12be 42cf e5bc
00000140: cce1 9d3d 864c e63d b879 5cbb 3297 11be
00000150: ffc7 94bd a1fa aebc 7c85 39be 9f3e 9cbd
00000160: 0dc2 a3bd b575 783e ab18 9dbb 7289 98be
00000170: b058 04be 2bf5 20be 6a81 c3bc 9e1d fc3d
00000180: 30d2 6abd 214c c5bd 3f06 abbd ef2c 593d
00000190: a6e0 bebe 6b3c 523d bd36 1fbd cd1a 14bd
000001a0: bc19 5b3c 3c62 123d 75a5 68be 4d29 c6be
000001b0: d286 183e 8734 02bd d99b 793e 2c98 86bd
000001c0: 2c78 0abd 7ae3 083e 0e61 b43d b07d cf3d
000001d0: 0f7f c7bc ca8e 233e ab60 61bb f7e0 abbe
000001e0: 8940 39be cedf 09be cde1 3cbe 8ebb 83be
000001f0: c741 01bb cc67 89be c0b7 7dbd add3 8cb9
00000200: 8fce 743d 17f6 6e3d f70e 2d3d 8a65 023d
00000210: 8b1a 48bd 1ee9 843d 67d9 a5bc bdf0 9cbd
00000220: ec51 6c3d 6b72 f43d 56dd e3bd 1da7 01be
00000230: 4a71 bd3e 5a52 33bd 4f69 0fbe bfac 2abb
00000240: 35c5 113d 69ce 4d3d a803 a73d fa76 093d
00000250: 7931 2ebd a54e b9bd a650 b3bc 5467 383e
00000260: 9186 a8bc a507 e53d b680 29be 339c bc3d
00000270: ff1c 3bbd 0e99 433d f65c fa3d 2a2a 963c
00000280: d150 eebc a63d bd3c 266c 56bc 575b 8f3d
00000290: dcd0 413d 18a0 303d 1b9e 27bc 5dcf 5f3d
000002a0: 583b 22bc be2d bb3d 6efd 6bbd 32dc 77bd
000002b0: 480f 013e b836 ac3d c507 9cbd 344a 5c3e
000002c0: 1bac a43e 47ac 7db9 c575 d6ba a7ea d33d
000002d0: c3eb 473d d3a3 533d 48f1 803c 62f7 363e
000002e0: 3b1f ba3d 90aa 85bd 0cdb bb3d 6d53 05be
000002f0: b481 143d 8792 13be ab3e e4bc 2881 07bd
00000300: 2587 17bf bc23 bd3e 7a1b e33d 239f 8cbe
00000310: 1765 093d 30ad e73d a907 6cbd 7a79 52bd
00000320: 13fb 36bd e9bb c93e 73f3 d73b 43ab 98bd
00000330: 2696 f33d f0ec 233c 7567 c73d 8c07 3a3e
00000340: abc1 e7bd 327e 213d 4644 753e 73ce 4b3e
00000350: df9d 09bc 1865 253e 4d92 913d 3665 373e
00000360: fc30 d5bd 2e48 0ebf 2f07 90bd 02b9 3d3d
00000370: 6bd4 f43d 8fa8 e2bd e2cb a23d 8173 53be
00000380: a80e a23d 1f8d 30bf 50a7 303e aea7 38be
00000390: fd93 92bc 481d 433e 60e3 d4bd af0e d53d
000003a0: 6b6a bd39 3365 b6bd c8b4 d5be f35f 073e
000003b0: e3c0 0f3f 180f 7fbe 2078 b13e 627a 21be
000003c0: 4efd 2b3b dc01 2e3e a695 393c f2dc 5f3e
000003d0: f510 b63d 1de6 45be 1ce6 02be 65f4 b93c
000003e0: f130 2f3e 76d3 113e 82cd f3be 0cc0 373e
000003f0: 9136 303d ec29 cabd d6e8 8eba 3bb6 50bd
0.0425939 0.11323895 0.07534016 0.1616986 0.17805739 0.21912837 -0.12437499 0.0970732
-0.018331658 0.15550064 -0.027246043 -0.57677865 0.25523332 -0.0738557 -0.056001905 0.27178994
0.024374776 -0.0018728306 0.32942766 0.12687543 0.577614 0.29316443 -0.016886665 -0.024703225
-0.038171932 0.020855958 -0.020291125 -0.21160619 0.08892116 0.11386255 0.1365632 -0.025309471
-0.022858338 0.11593847 0.0043082605 -0.1345089 0.14585483 0.14038146 0.043538537 0.10500219
0.12887791 0.032922287 -0.101643294 -0.14640944 0.04831002 -0.13644892 0.1109069 0.026248265
0.18970542 0.37572667 0.095561124 -0.0680079 -0.060930494 0.018066606 0.15094316 0.07636925
-0.12741044 0.162579 -0.085563846 0.16008122 0.098827615 -0.1495014 0.031614825 0.18619789
-0.20842078 0.045483734 -0.21488205 0.009044663 -0.061475832 0.17606263 -0.47541398 0.22908743
-0.13819599 -0.028576473 -0.17487757 0.027180778 -0.24461333 -0.033536345 -0.14280231 -0.02805293
0.07709083 0.112450644 -0.0033641886 -0.14217833 -0.07264709 -0.021359744 -0.18117326 -0.076291315
-0.079959966 0.24263652 -0.0047942004 -0.29792362 -0.12924457 -0.15718524 -0.02386542 0.123103365
-0.057329357 -0.09633661 -0.08350801 0.053021368 -0.37280768 0.05132715 -0.038870562 -0.03615837
0.013372835 0.035738215 -0.22719367 -0.38703385 0.1489518 -0.031788375 0.24375857 -0.06571993
-0.03380601 0.13368025 0.08807574 0.10131395 -0.024352578 0.15972438 -0.0034389894 -0.33570072
-0.18091024 -0.13464281 -0.18445511 -0.2572903 -0.0019723044 -0.26837003 -0.061942816 -0.00026860592
0.059767302 0.05834016 0.0422506 0.031835116 -0.04885344 0.06489776 -0.020245267 -0.07663105
0.057695314 0.11935886 -0.11126201 -0.12661405 0.37000495 -0.04377971 -0.14005016 -0.0026042906
0.035588462 0.050245676 0.08154994 0.03356073 -0.04252765 -0.090482034 -0.021889042 0.18008167
-0.020571979 0.11183099 -0.16553006 0.0920948 -0.04568195 0.047753386 0.12224762 0.018330652
-0.02909127 0.023100685 -0.013087308 0.069998436 0.047318324 0.043121427 -0.010230566 0.054641116
-0.009901844 0.09139584 -0.057614736 -0.06051273 0.12603486 0.08408874 -0.076186694 0.21512681
0.32162556 -0.00024192139 -0.0016362002 0.10347491 0.048808824 0.051669907 0.015740052 0.17867807
0.09087988 -0.06526673 0.09172639 -0.13020106 0.036256507 -0.14411364 -0.027861914 -0.033082157
-0.5919059 0.36941326 0.11089225 -0.27465162 0.033543672 0.1131233 -0.057624493 -0.05138538
-0.044673037 0.39401177 0.0065903007 -0.074545406 0.11893873 0.010005221 0.0973653 0.18166941
-0.11316236 0.03942699 0.23951825 0.19902973 -0.008399456 0.16151845 0.07107983 0.17909703
-0.10409734 -0.5557889 -0.0703262 0.046319015 0.11954578 -0.11067306 0.07949044 -0.2064953
0.07912952 -0.68965334 0.17251325 -0.18032715 -0.017892832 0.19054139 -0.10394931 0.10403191
0.00036128177 -0.08906021 -0.41739488 0.13220195 0.56153697 -0.24908102 0.3466196 -0.15769342
0.002624351 0.16992897 0.011327183 0.21861628 0.08889953 -0.19326063 -0.12783092 0.022699544
0.17108513 0.14240822 -0.47617728 0.17944354 0.04302079 -0.09871277 -0.0010903131 -0.05095504

rnn.bias_hh_l0 f4 [256]
00000000: 93a2 973d d956 8dbd e597 833d 7239 083e
00000010: 2bb2 e43d 834d e83d 755f a8bd 1b1d 943d
00000020: c7c3 363e e1c0 a73d b8a4 26bd c361 1abf
00000030: 4609 6b3d 2564 b3bc d6fc a93d 5dc7 5e3e
00000040: 53b8 a63d 555d 123e 3e03 cc3e 450a fa3c
00000050: 6dc8 c23e d6b8 d73e f9bd 093e 5fc1 81bc
00000060: 01b4 05be 1c8a 34bd ae17 c43c 7a68 00be
00000070: e4c8 a43d b54d 493e fc61 213e 794e b03d
00000080: e478 05bd 7be4 22bc 7e40 473e ae02 84bd
00000090: 3f1d 64bd d852 4cbd d55a 483d af31 ec3d
000000a0: fa07 803d 41da c2bc 9250 04be 45b9 50be
000000b0: 62eb febc 4d9f 7b3d 9742 da3c 5d54 d4bd
000000c0: e962 7b3d 287f c43e 023b f2bd a855 c0bd
000000d0: 4ff6 34be 4985 40bc 3e01 4639 75b9 5e3d
000000e0: 198a cd3c 5286 1c3e cb85 22be 4b37 a43c
000000f0: 01b7 f43d 91a1 69be 88f8 8a3d 19cb acba
00000100: e28f 46bd 22e0 2ebe 5525 6abe 637b 213e
00000110: f99a 3bbd 3dbb c83c c53e 0fbf c5f0 043e
00000120: f3db 44be c517 1d3e dcf6 21bd 6594 d3bc
00000130: 4ede b0be dca1 b3bd 3be8 493d 4766 92bd
00000140: 180d c23d 3795 f63c 2aa2 fb3d edbb 1cbe
00000150: 1df7 c7bb 21f8 40bb ac1a 82be 04ef 883c
00000160: f1d1 7a3d ba2c bf3d ec4d cc3d addf 47be
00000170: d29a a1bd 81d7 22be 0602 a5bd fa5e 923c
00000180: 9ea6 923c 73d4 0e3c 4c62 673d 2877 213b
00000190: 6c8d 98be ae29 113d 8021 4ebe 281c e8bd
000001a0: c470 67bd 6433 483e ed6d 35bc be50 6fbe
000001b0: 190a 873e 2edc 1fbd b861 7b3e 7364 5dbd
000001c0: 5da5 bf3d 8f4c 233e d8c1 65bc 4426 313d
000001d0: a9c4 3cbd e130 07bd 1b4a 1d3e adb1 8ebe
000001e0: b2bf 34be ad61 413d a077 4ebe e466 a0be
000001f0: ece1 9dbd c398 b3bd 7f81 74bd 2fa5 1fbe
00000200: 678f 4a3d 0ddc 2f3c 78f0 61bd 6cca b43c
00000210: d7c7 3b3e dc6d 85bd 0a2b 91bd 5909 0ebe
00000220: 9cd5 de3d e948 ecbd f9f1 373d f352 a43c
00000230: cf2c a43e 5a9c 1f3d df96 9bbe 87c4 0e3d
00000240: 7069 f73d 8978 0ebc 524a c4bd 49d1 d73c
00000250: d2b4 13bd aab1 7bbc fc81 173d 2c70 223e
00000260: 9bdd 823c ff8d 6ebd 85a1 05be 63fc 3f3e
00000270: f833 88bc f2ce b6bd b28b 653d d7b7 c1bd
00000280: 1876 a4bd c4ab c6bc ae20 803d 2f83 793d
00000290: 119c a6bc ce7a 093c cc70 d83c 5718 943d
000002a0: f978 66bd 648d dc3c 9607 c83d 0151 80bc
000002b0: 3fc9 d6bc 869c 56bc a5d2 223d 070c 623e
000002c0: c92b c03e edbc e0bd 4ece 023e f623 ea3d
000002d0: c979 8f3d 80bb d2bc 6d65 b03d c33c fa3d
000002e0: c579 d3bb 7996 babd 390c 73bd 8b7f d9bd
000002f0: f4b9 1a3c ad23 1fbe 69ce f7bc faed a93d
00000300: 35b8 0dbf e7f0 c63e ecff f93c f659 7ebe
00000310: be53 11be 66d4 b6bd 8d52 93bd 9e64 0a3e
00000320: e926 96bc e529 c63e 3713 1c3e 4dd5 ef3d
00000330: e489 493e cb17 c8bc ae04 173d 60ba f23c
00000340: 669d 1dbe c97f c53d cd5a 893e 3637 fe3d
00000350: fae9 26be 9aff 3b3e c96c 813d abd8 f13d
00000360: 31f5 04be e8b8 32bf f35f 47be cdf1 553e
00000370: 9402 0a3e 5093 8fbd 6eaa 48bd e840 9cbd
00000380: 0743 b13b 432e 11bf 6a1d 82bd 7599 48be
00000390: 2c4b 273d 1232 083e 1093 7a3c 3280 d43d
000003a0: f523 673d ecba ff3d 728a c9be 0949 99bd
000003b0: a24b e63e 3af9 babe 0905 723e 3c4b 3bbd
000003c0: 671d 99bd 744e 973e c630 153d 79cd f63d
000003d0: d08d 213e bcf6 61bd a4ce dd3c 3f29 273e
000003e0: 1437 713e 802e 293e cc0a c4be 75e0 423e
000003f0: 8f4c 4c3d 4537 333c 5587 0a3e df95 023e
0.074040554 -0.069013305 0.06425456 0.13303164 0.11166795 0.11342909 -0.08221332 0.07232114
0.1784812 0.081910856 -0.04068443 -0.6030542 0.05738189 -0.021898339 0.08300178 0.21755739
0.08140626 0.14293416 0.39846224 0.030522475 0.38043538 0.42133206 0.13451375 -0.015839277
-0.13056947 -0.044077024 0.023937073 -0.12539855 0.08046129 0.19658549 0.15760034 0.086087175
-0.032585993 -0.009942169 0.19458196 -0.064458236 -0.055691954 -0.049883693 0.04891475 0.11532914
0.062515214 -0.023785712 -0.1292136 -0.20383175 -0.031118099 0.061431218 0.02664308 -0.103676535
0.061373625 0.38378263 -0.11827661 -0.09391338 -0.17672084 -0.011750528 0.00018883214 0.054376084
0.025090264 0.15285614 -0.1587135 0.020045897 0.11948968 -0.22815539 0.06785685 -0.0013183086
-0.04847706 -0.17077687 -0.22865804 0.15769725 -0.04580209 0.024503345 -0.55955154 0.12982471
-0.19224529 0.15341099 -0.039542064 -0.025827596 -0.34544605 -0.087711066 0.049293738 -0.07148414
0.09475154 0.030100448 0.1228679 -0.15306063 -0.0061024562 -0.0029444771 -0.25410974 0.016715534
0.061235372 0.09334703 0.099758 -0.1951892 -0.07890858 -0.1590252 -0.080570266 0.017867554
0.017901715 0.008717644 0.056490228 0.0024637673 -0.29795396 0.03544014 -0.20129967 -0.113334954
-0.056504026 0.19550854 -0.011073572 -0.23370644 0.2637489 -0.03902834 0.24548995 -0.054050874
0.093577124 0.15947174 -0.014023267 0.043249384 -0.046085987 -0.0330056 0.153603 -0.2786993
-0.17651251 0.04721229 -0.20162821 -0.313285 -0.07709107 -0.08769371 -0.05969381 -0.15590356
0.049453165 0.010733617 -0.05516097 0.022069179 0.18337952 -0.06515095 -0.07088287 -0.13870753
0.108805865 -0.11537344 0.044908497 0.020059085 0.32065436 0.038967468 -0.30388543 0.03485539
0.120806575 -0.00869573 -0.09584488 0.026344912 -0.036061116 -0.015362183 0.036989197 0.15863103
0.01597481 -0.058240887 -0.13049896 0.18748622 -0.016626343 -0.089261904 0.056041427 -0.09458893
-0.08030337 -0.024251826 0.06256233 0.060916122 -0.02033809 0.008391095 0.026420973 0.07231205
-0.056267712 0.026922889 0.09767072 -0.015663626 -0.026219008 -0.0130988415 0.039751668 0.220749
0.37533405 -0.10973535 0.12774011 0.1143264 0.070056506 -0.025724173 0.086130954 0.12218621
-0.006453725 -0.09110732 -0.05933783 -0.1062003 0.009443749 -0.15540953 -0.030249791 0.082973436
-0.553592 0.3885567 0.03051754 -0.24839005 -0.14192101 -0.089272305 -0.0719348 0.13514945
-0.0183291 0.38703838 0.15241705 0.11710606 0.19681507 -0.024425408 0.036869697 0.029629886
-0.15392074 0.09643514 0.26827088 0.124128744 -0.16300192 0.18359223 0.06319577 0.11808904
-0.12984158 -0.69813395 -0.19470195 0.20893021 0.13477546 -0.070105195 -0.04899066 -0.076295674
0.0054096016 -0.56711215 -0.063532665 -0.19589789 0.040843174 0.1330035 0.0152938515 0.10376014
0.056430776 0.124868244 -0.39363438 -0.074846335 0.44979578 -0.3651827 0.23634733 -0.045726046
-0.07476311 0.29552042 0.036423467 0.120509095 0.15776753 -0.055166945 0.027076073 0.16324328
0.23556167 0.16521645 -0.38289487 0.19030936 0.0498777 0.01093847 0.13528188 0.12752484

rnn.weight_ih_l1 f4 [256, 64]
00000000: d9a8 6dbd 410b 07be ae6e 2dbe 19af 743e
00000010: 40cf debd fa21 473d 7945 ba3d 7f6e 893e
00000020: 6d6d 1e3d 735f 3cbe 6fbe 1f3e a2f8 dcbe
00000030: 122f 5abc 6b5b d0bd 7bd2 3a3e 0bdb ddbc
00000040: d42f 9a3d 3c04 1dbe 2f23 cc3d d1fd 283e
00000050: 4573 6f3b 4713 fc3d 2cde 863e f3f9 74bc
00000060: a0f2 9fbd 9600 d43e f842 7cbe 88ef 87bd
00000070: 195a 393e fde9 2ebe 86e7 1abd 0ad6 1bbe
00000080: 5252 4ebe c0d6 4d3e ead2 903d 1803 d4bc
00000090: a96f a43d 5bfa 56be d230 673e ee00 41bd
000000a0: 1623 1d3d 93c5 f83d 657d 013d d417 b9be
000000b0: 2e20 c63c 9ca5 143e c5f4 c13d 1134 a23d
000000c0: 20ac e4bb 8573 85ba 7a06 e73c fb1d a9bd
000000d0: 0fc4 043e 861d 1c3e 05eb 74be 8c19 6cbe
000000e0: dd53 a5be 1615 78bd f164 853d 93cd ad3e
000000f0: f710 ff3d 17fa 1abe 3816 e1be b7a0 273d
00000100: 2109 2bbe 68a4 45bd e232 50be 8ea2 0c3e
00000110: 57c9 cfbd 588c 22bd 1900 213e 86f2 8a3e
00000120: 8efd 67bd 8213 27be 34db cb3d 0f92 a8bd
00000130: 2ec2 3fbd baf1 0ebe b7a1 903d cdec 54bc
00000140: b690 2dbd 7243 203d df20 4abd 1846 123e
00000150: ce6a e4bd 5af7 a23d 0041 913c 5d43 94be
00000160: 4599 27be 23fe 323f fade 80be aebd 17be
00000170: 3cad bb3d c817 b93d c230 e9bc df6c 0bbe
00000180: 2d81 203d 629c f43d e526 ac3b 495d e0bd
00000190: 9043 033e 0b16 01be 4b0b 0e3e b345 6cbe
000001a0: 031a 2c3e 8305 373e 06d4 0c3e 934b 4fbe
000001b0: 8681 6c3d d332 233e 2b83 653e b6fa 9a3d
000001c0: 124d 01be 486b 0f3e 8e8f 03bc d21f 8bbd
000001d0: 32e0 c93d e13d c23d a102 b1bd cadd 92b8
000001e0: e18b 0dbe 7352 90bd 450d 043e 9814 d43d
000001f0: b819 023e 4f2f bf3c 58c8 8abe 6164 3e3e
00000200: 9243 fb3d a02a 04bd 7553 0dbe c1ee a2bc
00000210: be92 bb3d d36e aabd 146b 8c3d b7f7 363e
00000220: 4d8f 263e 82b1 79be 5c6d 7c3d 6370 b1bd
00000230: 413d 1fbd 62cb bbbd 3434 9a3d 4553 4e3d
00000240: 13c4 3b3d f0ca e3bd f53c 90bd ae77 c4bd
00000250: 181a 10be ae2d 913d 4350 af3d 6f33 e3bd
00000260: 63c0 26bd 2805 313e 843b a8be 5390 d8bd
00000270: 6803 8a3c a542 0dbe b38e a23d 808e 4d3d
00000280: 8ffc 67be 176f 32bd f0b8 6c3d 11fe 9cbc
00000290: 5ecd a03d 24b5 d4be 00dc f13c ba4a 893d
000002a0: 5ca9 1d3d f850 ab3d 02dc 78bd 594d b1bd
000002b0: 05a0 503d 48bb 553d 9e89 693d 10af a63d
000002c0: 3ae3 d3bd 6332 adbd b485 9b3d cda6 94bd
000002d0: 6298 83bd 191f 213e 4fe8 77bd 17df 3fbe
000002e0: 562d 67be a1e0 943d d108 863d be1f c93e
000002f0: 94cf cb3d ebac 6bbe 7299 ddbe 298c 163e
00000300: d696 04bf 82d9 0a3e fa8d 2cbe b9f7 dbbd
00000310: c077 43be 6344 5c3e 0f96 25be 8d58 81bc
00000320: eb77 9d3d 9a12 7dbe 25d8 ff3c 40c8 f4bd
00000330: 1bec 87bd 2988 a1bd fb83 6e3d 2076 f43c
00000340: 6b38 0cbe 009f 1fbe 0809 c5bb 0d95 013e
00000350: 5e38 eabc b428 133e 0248 e9bd a473 253d
00000360: 0d22 d1bb 9086 863f 1e21 e23c 3880 a73d
00000370: 8afd b13e aa68 8ebd 7fa3 5dbd 0b90 f1bd
00000380: ae27 b23d f92f 273f 76e5 073e 24c3 82bd
00000390: 98fe 18bd 627e af3c 1461 723d 1be3 1abe
000003a0: f0dc 023e 08f8 e23d 33e9 c53d ad81 18be
000003b0: e1b7 cf3d 23db 343e 8ee3 433e 8973 9a3c
000003c0: 97bf 23be b712 093e 5688 133d b84a 5dbb
000003d0: 84ff 2a3e cd69 d43d 2842 673e f784 bc3d
000003e0: 5ecc febd 4e50 babc 0516 503e 1bed 89bd
000003f0: a550 0d3e 4926 30be e728 c9bd 564f e6bb
-0.058022354 -0.13187887 -0.16936752 0.2389492 -0.108793736 0.048616387 0.09095282 0.26842114
0.038678575 -0.18395786 0.15599988 -0.43158442 -0.0133168865 -0.101736866 0.18244354 -0.027081987
0.07528654 -0.15333647 0.09967648 0.16503073 0.0036537212 0.12308364 0.2634138 -0.014952171
-0.07809949 0.41406697 -0.24634922 -0.06637484 0.18100776 -0.17081447 -0.037818454 -0.15218368
-0.2014859 0.20101452 0.07071479 -0.025880381 0.0802911 -0.2099394 0.22577217 -0.047120027
0.03836354 0.12147059 0.031613726 -0.36150992 0.024185266 0.145163 0.09470514 0.07920087
-0.0069785267 -0.0010181522 0.02820133 -0.082576714 0.12965415 0.15245637 -0.23917778 -0.2305662
-0.32290545 -0.060566984 0.06513394 0.33945903 0.12454408 -0.15134464 -0.43962264 0.040924754
-0.16702701 -0.048252493 -0.2033191 0.13733885 -0.101458244 -0.039684623 0.15722694 0.27138156
-0.056638293 -0.16316035 0.09953919 -0.082309835 -0.046816044 -0.13959399 0.07062095 -0.012995911
-0.042374335 0.03912682 -0.049347755 0.14284551 -0.11153184 0.07957335 0.01773119 -0.28957644
-0.16367061 0.6991903 -0.25170118 -0.14818451 0.09163901 0.09037739 -0.028465632 -0.1361575
0.03918569 0.1194389 0.00525366 -0.10955293 0.12818742 -0.12606065 0.13871495 -0.23073463
0.16806798 0.17873196 0.13752756 -0.20243673 0.05774071 0.15937357 0.22413318 0.075673506
-0.12627056 0.14005768 -0.008029832 -0.067931786 0.09857215 0.09484459 -0.086430795 -7.003134e-05
-0.13822891 -0.07046976 0.12895687 0.103554904 0.12705123 0.023337988 -0.27105975 0.18592979
0.122687474 -0.032267213 -0.13801368 -0.019889237 0.09158848 -0.08321919 0.06856361 0.17867933
0.16265602 -0.2438412 0.06162773 -0.08664014 -0.038876776 -0.091696516 0.07529488 0.05037238
0.045841288 -0.11122692 -0.07042877 -0.095931396 -0.14072454 0.07088791 0.085602306 -0.110937946
-0.040710818 0.17287123 -0.32857907 -0.10574403 0.016847327 -0.13794954 0.07937374 0.050184727
-0.22654937 -0.043562975 0.057793558 -0.019164117 0.07851671 -0.4154445 0.02952385 0.06703706
0.03849159 0.08365053 -0.06075669 -0.08657331 0.050933857 0.05218056 0.057016008 0.08138859
-0.103460744 -0.08456876 0.07593861 -0.07258377 -0.06425549 0.15734519 -0.06052428 -0.18737446
-0.22575888 0.07269407 0.0654465 0.3928203 0.09951702 -0.23015182 -0.43281132 0.14701904
-0.5179266 0.13559535 -0.16851035 -0.10740609 -0.1908865 0.21510462 -0.16170524 -0.015789295
0.07688888 -0.24714127 0.031230995 -0.11952257 -0.066368304 -0.078872986 0.058231335 0.029841483
-0.13693397 -0.15587997 -0.0060130395 0.12654515 -0.028591331 0.14370996 -0.113906875 0.040393487
-0.006382233 1.0509815 0.027603682 0.08178753 0.34763747 -0.06953557 -0.054111 -0.11795052
0.086989745 0.65307575 0.13271126 -0.06384876 -0.037352175 0.021422569 0.059174612 -0.15125696
0.12779593 0.110824645 0.0966362 -0.14893217 0.10142494 0.17661719 0.19129774 0.01885392
-0.15991054 0.13386045 0.036018692 -0.003376646 0.16699034 0.103717424 0.2258383 0.092050485
-0.12441324 -0.02274337 0.203209 -0.067346774 0.13800295 -0.17202105 -0.09822255 -0.0070285005

rnn.weight_hh_l1 f4 [256, 64]
00000000: 62cf 32be dfe3 52be 681a 89bd 2578 ea3d
00000010: cafc 663d 3efa 5cbe ca55 113e e027 0d3e
00000020: 5998 bfbd f146 553e cd66 0d3e a7f7 5dbe
00000030: b4c6 003e 8a54 88be bb78 10be 0555 43be
00000040: f376 4bbe 0546 5cbe b35f 37bd 2ab0 803e
00000050: 8779 aa3d 0297 1b3e 2ca0 873d 8b8e a83c
00000060: 519a f03c 0c13 563d fec0 2e3e e7c8 47bd
00000070: e7be d0bd 52d2 423e 09e8 523e 78aa 993d
00000080: 68a2 003e 719f 933e 5bf6 e93d 9caa 373e
00000090: d8fc 4bbe cb28 06be 7e87 8a3b 1fdf 1abc
000000a0: 18e6 513e 0941 ba3d 01e3 9a3d a8f5 963e
000000b0: 3d28 a6be cb90 77be 96fe 79bd ba0d 433e
000000c0: 8198 773d 5700 febd ab18 003e d8f1 79be
000000d0: 8b0a 5bbe 4abd 633d 2e47 dfbb 8180 f0bd
000000e0: 3f29 15bd 01f1 803d b89e 74bd efa3 b9bd
000000f0: d0b5 6fbe 66d7 44be 802a e3bd c8d4 a4bd
00000100: b431 09be 8289 49bd 74e0 13be ac3c 013e
00000110: 70c9 903e 3e72 4cbe e39a 343e 0da9 2d3e
00000120: aaf7 c53d 59ad 8c3c 4eb9 783c dfd0 26bd
00000130: a5a6 4e3e 9c77 f2bd a105 2abe ee6e 47be
00000140: 31c2 77be ef98 5abe aba7 b1bd f5da 143e
00000150: 06b6 063e 8612 393e 6b0f 8a3d 3c7a b13c
00000160: a95f 8e3d f7eb abba d7b4 1bbd d9a4 86be
00000170: d14c 483d c5cb 9f3d 98c3 273e ff78 d43d
00000180: aa07 233e 753a 373e bdad 453d 26c3 223e
00000190: 4d87 a3bd 2208 413b 93e8 67be 2b91 2e3e
000001a0: 384a 7b3e 12f9 a93e 9148 473d c003 853e
000001b0: 1608 64bd 8c90 04be ecda 793c 34af f23d
000001c0: 7dbe 5a3c 3ff0 21be 78c8 6f3d f13e 5ebe
000001d0: 5b71 c4bd 1887 1d3e b560 44be e850 87be
000001e0: 48e5 28be 9aff 843c 58a4 70be 4046 3ebe
000001f0: 9778 07be 4d88 4cbe 0823 f13c aaeb 79bd
00000200: 5dd7 0abd ac16 aabe c8e0 c4bd 34e3 33be
00000210: 48f7 053e a865 3bbe c0e7 143e 35aa 413c
00000220: 234a d3bd f6ec b83c b90c 5a3e fde4 07be
00000230: e677 873e c963 85bc 5770 f9bd a872 2fbe
00000240: cc57 29bd a9f6 4ebe 0adf 283d dc67 653e
00000250: 8a25 b73d 43ba 6b3e d606 2c3e 55e8 b73d
00000260: 10e3 f1bd d123 863b 39f0 163e 78ac 88bd
00000270: f0ab 27be 710c 0d3e 7e85 c73d 291b 473e
00000280: aedb 8c3e 8c79 933e 90a5 833e ad7f 3a3e
00000290: fcc9 87be 7238 e6bd ce99 86bd c2e5 6e3d
000002a0: d22e 0c3e 4739 c1bc 4f77 803d f61c 303e
000002b0: b9bb 39be 1bd8 92bd b92c 4abd 02a6 5d3e
000002c0: e768 f83d 28f3 c1bd c502 5f3e 7f4f 16be
000002d0: 1602 37bd d99b bc3d ae35 4dbe 3889 bdbd
000002e0: e4e4 b0bd a6a7 153d d648 ecbd 9c32 49be
000002f0: 2649 acbd 291f 84be 2114 b7bd f259 453d
00000300: c520 443e f7b0 93bd a466 8fbb 9d4f fb3d
00000310: e10e 38bd ac59 183e b9a7 c23d 1590 11be
00000320: d16c a53d 96f8 b33d 8a66 0dbe 0eee 64bd
00000330: bf6d 9d3c e142 cabd ddcd 823e ecd1 803c
00000340: cc03 96bd 6482 0cbe 637f f1bd cdf1 c93c
00000350: 7297 ddbd e5e9 c4bc 5032 b53c aae5 2ebe
00000360: d3c1 1b3d b83c bbbd 7d67 d33c 7847 123d
00000370: 9520 883e 49c2 303d 6d6a 853d fd56 09bc
00000380: 2158 d7bc 41c9 48bd 6f1a 46bc b379 72bd
00000390: 824a c33d 97b1 313e de38 e93d bcc6 62bb
000003a0: ab7f ff3c 2139 07bd dbcb 00be db3f afbc
000003b0: 1a0e 4a3e 2e51 943d 8023 ed3c a3e7 a33d
000003c0: 9d24 9fbd 0ae9 823d f841 343e 3761 65bd
000003d0: 480e 8ebd 1b07 e73c d2ef 753d b847 92bc
000003e0: 0d97 8abd b132 36be 9434 113e 5b47 a13d
000003f0: 25fb 393d 5611 27bc d00c c33c b102 f2bc
-0.17461923 -0.20594738 -0.0669449 0.11448697 0.056393422 -0.21579835 0.14192882 0.13784742
-0.0935523 0.20827843 0.13808747 -0.21676503 0.12575799 -0.26626998 -0.14108555 -0.19075401
-0.19869594 -0.21511085 -0.044769 0.25134403 0.08323961 0.15194324 0.06622347 0.020575782
0.029370459 0.05226426 0.17065808 -0.04877558 -0.10192662 0.19025543 0.20596327 0.075032175
0.12561953 0.28832582 0.11423942 0.17936176 -0.19920671 -0.13101499 0.0042275777 -0.00945261
0.2049793 0.09094436 0.07562829 0.29484296 -0.32452574 -0.24176328 -0.061033808 0.19048205
0.060448173 -0.124024086 0.1250941 -0.24408662 -0.2139074 0.055600442 -0.006813905 -0.1174326
-0.03641629 0.06295968 -0.05972168 -0.09064471 -0.234092 -0.19222793 -0.110920906 -0.08048397
-0.13397866 -0.049203403 -0.14441091 0.126208 0.28278685 -0.19965455 0.1763721 0.16959019
0.09666379 0.017172502 0.015180899 -0.04072654 0.20180757 -0.1183922 -0.1660371 -0.1947591
-0.24195172 -0.21347402 -0.08674558 0.1453665 0.13155374 0.18073472 0.06741222 0.021664731
0.069518395 -0.0013116588 -0.03801426 -0.26297644 0.048901383 0.07802538 0.16383207 0.10374641
0.15920892 0.17893393 0.048261393 0.15894756 -0.07984791 0.002945431 -0.22647314 0.17047565
0.24540031 0.33197838 0.04865319 0.25979424 -0.055671774 -0.12945765 0.015249949 0.118498236
0.01335108 -0.15814303 0.05854079 -0.21703698 -0.09591933 0.15383565 -0.19177516 -0.26428914
-0.16493714 0.016235162 -0.23500192 -0.18581486 -0.13229595 -0.1997387 0.02943565 -0.061015762
-0.033896793 -0.33220422 -0.09613186 -0.1756714 0.13082612 -0.18300498 0.1454153 0.011820366
-0.10316875 0.02257393 0.21293916 -0.13270946 0.26458663 -0.016282933 -0.1217963 -0.17133582
-0.041343495 -0.20211281 0.04122833 0.224029 0.08942707 0.23020272 0.16799483 0.08979861
-0.11810887 0.004093625 0.14740075 -0.06673521 -0.16374183 0.13774277 0.097422585 0.19443955
0.27511352 0.2880367 0.25712252 0.18212767 -0.2652129 -0.11241235 -0.06572305 0.058324583
0.13689736 -0.023586882 0.06272756 0.17198548 -0.18138017 -0.07170125 -0.049359057 0.21645358
0.121293835 -0.094702065 0.217784 -0.14678763 -0.044679724 0.09209413 -0.20040008 -0.09254688
-0.086374074 0.036536835 -0.1153733 -0.19648212 -0.084123895 -0.25805023 -0.08939386 0.04818148
0.19153126 -0.07211488 -0.0043762494 0.122710444 -0.044936065 0.14877957 0.09504647 -0.14215119
0.08077396 0.087876484 -0.13808647 -0.05589109 0.01921737 -0.098760374 0.25547686 0.015725099
-0.07324943 -0.13721615 -0.11791875 0.024651432 -0.108199015 -0.02403731 0.022118717 -0.17079797
0.038026642 -0.091424406 0.025806183 0.03571269 0.26587358 0.043154035 0.0651444 -0.008382556
-0.02628714 -0.049020056 -0.012091263 -0.059198093 0.095356956 0.17352901 0.113878 -0.0034603318
0.031188807 -0.033013467 -0.12577765 -0.021392753 0.19731942 0.07242046 0.028947592 0.080031656
-0.07770655 0.06392105 0.1760329 -0.056000914 -0.06936318 0.02820163 0.060043164 -0.017856464
-0.06767092 -0.17792775 0.14180213 0.07874938 0.045405526 -0.010197004 0.02380982 -0.029542299

rnn.bias_ih_l1 f4 [256]
00000000: fdc0 153d 41b4 c7bc 0ce6 dc3d 2154 8b3d
00000010: eb0a 31bd df93 35be 4b28 843d 77ed 18be
00000020: 19c2 4ebd aa62 d1bd 1c30 b1bd 4d8f 33be
00000030: 136c c8bc 1e9f 483d 8dcb 26be a561 443c
00000040: fbc5 55bd db68 babd 7477 44bd 3ffb 0dbe
00000050: f2de cabd 46fd 9bbd a9c9 4fbd dde2 32be
00000060: ad85 90bd 868f ebbc ec66 48be 6da0 5e3d
00000070: f01c 74bd 9dc4 e6bd 75b3 68bd 3eb5 c5bd
00000080: bc51 4fbe cf8e aa3d 6e16 10bd 0ef0 8ebc
00000090: 07df 15be 160b 41bc 5a89 55be 0167 85bd
000000a0: c6f4 13bd c80d 6d3d 53c3 1abe 6834 85bc
000000b0: caed 3ebe 1643 893c ef3b 1bbd 4f40 5bbe
000000c0: 6db7 e3bd f116 28be fc13 eb3c ae58 9e3d
000000d0: 0798 1cbd 525b 1fbe 3c54 8abc f729 c1bd
000000e0: d42e b4bc 3822 96bd 74f3 d8bd 7582 073d
000000f0: de0f 61bd 72d1 5ebe 058a 63be 2b6f 5bbc
00000100: c967 b8bc 2296 13be be9c f5bd 22ae d7bd
00000110: dfef 01be a80f 7ebd d4d2 3abe 8643 3dbc
00000120: a6d0 2cbd f3f7 57be b98c cebd 8c6d ecbc
00000130: 5abd 8ebd 1947 c9bd bea1 1ebd bf9c 32be
00000140: 36a9 9c3c 471e 37be c079 393d 9bba 85bc
00000150: 20c3 a63d 1ad0 7e3c 4475 8ebd 7b5e 99bd
00000160: c267 b5bd f1e3 aebd 5e7a 5abc b6e9 053d
00000170: 1c80 eebc a6c9 2abe bc4a acbd b8f4 7e3d
00000180: 1998 1cbd 2034 71bd 3aaa 48be 1999 97bd
00000190: d647 d7bd 9bd8 ffbb f6ee b73c 5bdb 3f3c
000001a0: 45fd cb3c d25f b2bc b1ed a83d a695 e53b
000001b0: 55ae b5bc 314c 3f3d f38b 893d 2d9f 8bbd
000001c0: a064 713c 3b85 a23d 837f f3bc 4bba 2ebe
000001d0: e42e 2a3d 8a25 dd3d 4b1e eebd acf3 31be
000001e0: 9717 2dbc e15d 70bd aa66 b2bd a75f 3bbe
000001f0: 6957 1a3c 5ab6 ad3b 2d3d 943d 4058 623c
00000200: 065f 1abc e929 cd3c 5316 143e 7a2c b2bd
00000210: e06d 56bd f286 9abd 3185 593d ea8d 05bd
00000220: d482 773d dc22 3fbc 0321 5e3d f877 793d
00000230: d3b8 ad3d fa85 92bd 839b 2c3d dd51 b93d
00000240: 8912 323d 7469 643d 3477 1f3e 034d b33c
00000250: 517d df3d 9951 ee3c 3e9b debd a649 493d
00000260: 32f8 e33c 1484 cbbd 2598 b93d 2fa3 c93d
00000270: 69f1 71bd b419 48bd 0ef7 cc3d 0e0e c53d
00000280: c1b1 153d a55a e3bd 6b8e d9bc 72ad 703a
00000290: e448 a13d c4b3 2dbe a2a9 a3bd c2df 5ebd
000002a0: 8a7e 9bbd 6cd4 6dbd fd8a 89bd faf0 dfba
000002b0: 5692 adbd 22ac b73d 9e98 d63d 2579 29bd
000002c0: 3ffe 043e 6eda 42bd 0a5c a63a 90f3 573c
000002d0: 84a9 85bd 5404 49bd 90ec bebd 42c5 8fbb
000002e0: feba a03d d05f 883d ee89 1dbc 2b0d 57bb
000002f0: a292 07bc 7854 a2bd 03c3 73bd 2b5a 073e
00000300: 69d4 18be f99e 85be 4203 d93d ba90 3ebc
00000310: f845 2bbe be62 753d 2557 8c3d dd8a 8ebc
00000320: f820 b9bd 66de d5bd d71d c4bd 354a 9f3c
00000330: 7336 12be 06cb 09be c071 b73b 7bb4 d03c
00000340: 2178 e73d 7108 3e3c 22ac 94bb ce2d 8cbd
00000350: 9443 24be da9d 80bd c61d 66bd 2d88 b33d
00000360: 4e9d a83d d006 4ebb 3bbf 9cbd 356b 1cbe
00000370: a13c b3bb ffb9 75bd a4a8 52bc 23ee 293c
00000380: e623 2ebd 1fc2 bcbd c8f5 f2bd 1ff8 c2bc
00000390: 5098 2fbe 5ae2 933d 83e0 b6bd 970f ebbd
000003a0: 6fe6 153d 6c94 19be ff44 a53c 46be 4e3d
000003b0: 438a 20be 5504 0cbe 560f 7abd a3b7 88bb
000003c0: a3c1 b33d a60b 2b3d f848 0fbe 4d73 c03d
000003d0: a810 40bd 1f25 333d e035 d23b 050d 9c3b
000003e0: f376 67bd 27e9 5c3d e3dc e8bc 4d67 48bd
000003f0: 2661 ee3b 8ecd 31be 83af 2fbe d399 8ebd
0.036561 -0.024377944 0.107860655 0.06803156 -0.043223303 -0.1773219 0.06452998 -0.14934336
-0.050478075 -0.10223897 -0.08651754 -0.17535134 -0.024465596 0.04897987 -0.16288586 0.011986171
-0.052190762 -0.09102031 -0.047965482 -0.13865374 -0.09905805 -0.076166674 -0.050729427 -0.17469354
-0.07056747 -0.02875496 -0.19570512 0.054352213 -0.05959791 -0.1126797 -0.05681177 -0.0965371
-0.20246023 0.0832802 -0.03517764 -0.017448451 -0.1463586 -0.011782428 -0.20853177 -0.06513787
-0.036122106 0.05787447 -0.15113573 -0.01626034 -0.18645397 0.016755622 -0.037898954 -0.2141125
-0.1111897 -0.16415001 0.028696053 0.07731758 -0.038230922 -0.1556218 -0.01688587 -0.09431832
-0.021994986 -0.073307455 -0.1059331 0.033083398 -0.054946773 -0.21759585 -0.22220619 -0.013393204
-0.022510426 -0.1441274 -0.11992787 -0.1053126 -0.1268916 -0.06202665 -0.18244487 -0.011551743
-0.04219117 -0.21090679 -0.100854345 -0.02886083 -0.0696971 -0.09828014 -0.038728468 -0.17442606
0.019123655 -0.17882644 0.045282125 -0.016324332 0.08142686 0.015552545 -0.069559604 -0.07488724
-0.08857681 -0.0853957 -0.013334839 0.032693587 -0.029113822 -0.16678485 -0.08412692 0.0622451
-0.03823099 -0.0588876 -0.19596186 -0.07402248 -0.105117485 -0.007807804 0.022452813 0.011710013
0.024901042 -0.021774206 0.08248461 0.007006365 -0.022177855 0.04670352 0.06716146 -0.0681747
0.0147334635 0.07935568 -0.029723888 -0.17063253 0.041548625 0.10798176 -0.11626872 -0.1737811
-0.010564706 -0.05868328 -0.08710988 -0.18298207 0.009420254 0.005301279 0.07238231 0.013814986
-0.009422069 0.025044398 0.14461641 -0.086998895 -0.05235088 -0.0754527 0.053105537 -0.032606043
0.0604275 -0.011666026 0.0542307 0.060905427 0.08482518 -0.0715446 0.042140495 0.09048817
0.043474708 0.05576463 0.15572816 0.021887308 0.10912574 0.029091643 -0.10869454 0.049142502
0.02782831 -0.09937301 0.090622224 0.09845578 -0.059068117 -0.048852637 0.100080594 0.09621821
0.036546472 -0.111012734 -0.026557168 0.0009181119 0.07875231 -0.16963106 -0.07991339 -0.05441261
-0.07592495 -0.05806391 -0.06715963 -0.0017085366 -0.08475177 0.089683786 0.10478328 -0.041375298
0.12987612 -0.047571592 0.0012692225 0.013180628 -0.06526473 -0.049076393 -0.093224645 -0.0043875286
0.07848166 0.066589 -0.0096154045 -0.0032814245 -0.008274706 -0.079262674 -0.05951215 0.1321799
-0.14924778 -0.2609785 0.105963245 -0.011631185 -0.1672591 0.05990862 0.06852559 -0.0174002
-0.090394914 -0.1044281 -0.09576004 0.019444564 -0.14278583 -0.13456354 0.005598277 0.025476685
0.1130221 0.011598692 -0.0045371214 -0.06844674 -0.16041404 -0.06280108 -0.056180738 0.08766208
0.082331285 -0.0031437166 -0.07653662 -0.15275271 -0.005469874 -0.059991833 -0.01285759 0.010371718
-0.042514704 -0.09216713 -0.11863285 -0.023799954 -0.17147946 0.072209075 -0.08929541 -0.11477583
0.03659671 -0.14998025 0.020174501 0.050474428 -0.15677743 -0.13673528 -0.06104978 -0.004172282
0.08777168 0.041759156 -0.13992679 0.09396992 -0.046890885 0.043736573 0.006415114 0.0047622942
-0.056509923 0.05393329 -0.02842564 -0.04892664 0.0072747646 -0.17363569 -0.17156796 -0.069629334

rnn.bias_hh_l1 f4 [256]
00000000: b594 00be 4f61 10be b5fe 2cbc 8720 ad3d
00000010: fa14 21be 5d71 26be 2bb8 17be 98c0 82bd
00000020: 156f 17be dd6e 653a 7844 e8bb ef0c 32be
00000030: a3d1 62be 58d4 12be 2194 00be fe9b d03c
00000040: 2a81 13be 7f84 07bd 9c0d 0ebe 5a68 3fbe
00000050: 6d83 62bc 1114 2bbe 7e7e d0bd af76 22bb
00000060: b8a0 c4bd 2f1d 1abe 31e4 9fb9 6b20 a53b
00000070: 2e22 e0bd 6a4b 85be c45e a7bd 8fc5 49be
00000080: 0a77 8ebe 6be8 09be 98fd 22be 6c44 82be
00000090: b59f 72be 2c6b 2f3d 54b9 43be a2a1 28be
000000a0: bc3d 59bd c6b1 513d 2cfc 85bd 23ba 95bc
000000b0: 6701 3dbe d58e 803d faa4 6abe d699 60bd
000000c0: a16c d63d 527c 55bd 1612 07be 9839 903d
000000d0: b088 5cbe 3d18 55be 7ac4 14be 2cfd 0cbe
000000e0: 1707 3cbd 0436 28be 468c 50be a27c 29be
000000f0: f425 23be 7ba8 68be 220f 7bbe 4a99 213d
00000100: 8236 56be 38b7 08be 1a36 e03c 1119 b6bd
00000110: 36a4 583b 715f e13b dc9a 893c 8851 b33b
00000120: 5478 0bbd 7135 a4bd e004 03bd b79a e7bd
00000130: 044f 11be 960f 97bd 269f d2bd 3483 3fbe
00000140: 7daf eabd 578a a53c 9ed9 5fbc 2563 fdbd
00000150: cecf e2bd f090 e2bd 7b80 4ebe 2c79 2abc
00000160: 1a84 4cbc 1906 efbc deb6 12bd d04f fcbd
00000170: f117 033d 4654 dd3c 7129 55be 9416 1cbe
00000180: 17f5 a0bd 4a3d 5b3c 1240 f73b 048a 13be
00000190: 3f62 0f3d d096 39bd 9bc9 b73d 882d b9bc
000001a0: 54c6 89bd a251 523d 3ded aebd 22a3 163b
000001b0: fcbe 4c3c e6b8 12bc a0af c6bd 4b21 09be
000001c0: 94e4 85bd 4ee7 eebd e49d bdbc 486b d63b
000001d0: 0d1b 17be 69c9 b53d 9ac6 ff3d caf5 05be
000001e0: 6052 19be b9e4 c63c 9d93 3bbd 3bd0 06be
000001f0: 4294 aa3d cead 37bd d1e3 d2bc 1b9b 403d
00000200: d285 14bd 7839 d0bc 2008 88bd 2574 d7bc
00000210: 67dd f2bb a565 86bb 4c2d 9cba 4de7 cf3d
00000220: ee39 703d 4f2f b9bd 8633 b9bd 00be e73c
00000230: 07cc cd3d 6651 903d 69ba b83d 4d02 c53d
00000240: fb63 8dbd bfb9 66bc 8cd3 263d b9cd 113c
00000250: 64ad fc3d 9df1 913d e1d0 c8bc 96d7 5dbc
00000260: 9add b73d 5adc c93d e536 e7bd b3a2 c03d
00000270: 5dea 14be bd82 15be 7451 0dbe c2a5 bcbb
00000280: 0d40 983d 8fbc f8bc e0d9 30bc 484e cc3d
00000290: 22b4 ffba 9579 29bd 4d0b cd3d f349 e0bd
000002a0: a433 2bbd 4a03 b6bd 4315 6b3d d0cd 06bc
000002b0: 6a50 523d dda3 c8bb ded7 3c3d c585 d23d
000002c0: fc22 46bd d481 cd3d b707 293d 7832 b3bd
000002d0: 9efc 15be 183d 393d 025e 9bbd 5eed 25bd
000002e0: 3cf1 99bd 5123 e23c 85bd c4bd 134b 9e3c
000002f0: b26b af3d ad13 d0bb 07a9 67bb 09d6 333e
00000300: ea50 1dbd 9e88 08be 265d 8f3d c060 d3bc
00000310: 366f fe3c c5f0 f5ba 362f f63d 0634 ebbd
00000320: 863e 1e3d 01ca 58bd ba97 3dbd 04b6 673d
00000330: aa48 0fbe 40b9 9cbd a330 b23d 4fe2 5c3d
00000340: a24f eb3c c967 8cbd a2dd edbd 5286 c4bd
00000350: 3123 133c 3ecb e4bd 6a37 893d 4377 f0bd
00000360: 7829 02be e42d 003c cf74 773c 0800 fbbd
00000370: 2ab4 903d ad9e 3fbd ca27 a8bc d63e fabd
00000380: 3094 29be 8938 0b3d eeb8 86ba 8280 4cbe
00000390: 5e2a 2abe e1d7 ecbd b684 7ebb 2b18 413d
000003a0: d475 f33b d272 c03d 8538 acbc 58bf 92bd
000003b0: e067 c83c 20c1 a23d f310 2bbe 73f4 9cbd
000003c0: afa0 c43d 1dad 1abe dd9a 9ebd 8ca0 b23d
000003d0: 7af4 923d c786 a7bd 4f4e 12be 8daa 243d
000003e0: 6db6 1a3d b3e0 91bc 8996 1dbe 5bd0 cebd
000003f0: 0d9a c2bd a354 e7bd e825 72be c2f7 b73d
-0.12556727 -0.1409962 -0.010558774 0.0845347 -0.15730658 -0.16254182 -0.14816348 -0.063843906
-0.14788468 0.00087521767 -0.0070882402 -0.17387746 -0.22150283 -0.14338815 -0.12556507 0.025465008
-0.14404741 -0.033085342 -0.13872379 -0.1869215 -0.01382528 -0.16706873 -0.101803765 -0.002478998
-0.09600967 -0.15050195 -0.0003049686 0.005039265 -0.10944019 -0.260341 -0.08172372 -0.19704269
-0.27825195 -0.13467567 -0.15917051 -0.25442827 -0.23693736 0.042826816 -0.19113666 -0.16467908
-0.05303739 0.05119493 -0.065422386 -0.018277233 -0.18457566 0.06277243 -0.22914496 -0.05483421
0.10469938 -0.052120514 -0.13190493 0.07042235 -0.21536517 -0.20810027 -0.14528075 -0.13768452
-0.0459052 -0.16426855 -0.2036601 -0.1655145 -0.15932447 -0.2272052 -0.24517491 0.03945283
-0.2091923 -0.13351142 0.027369548 -0.088915 0.0033056862 0.0068778326 0.016797476 0.0054723658
-0.0340503 -0.08018006 -0.03198707 -0.113088064 -0.14190298 -0.0737602 -0.102842614 -0.18702394
-0.11459253 0.020207567 -0.013662724 -0.12372426 -0.11074792 -0.11062801 -0.20166199 -0.010404866
-0.012482667 -0.029177712 -0.035818927 -0.123199105 0.032005254 0.027017724 -0.2081659 -0.15242988
-0.07859247 0.013381312 0.0075454796 -0.14408118 0.035005804 -0.04530984 0.08974 -0.022604719
-0.06727281 0.051347382 -0.08541343 0.0022985418 0.012496706 -0.008955216 -0.097014666 -0.13391607
-0.065377384 -0.116652116 -0.023146577 0.0065435506 -0.14756413 0.088763066 0.12489052 -0.13082042
-0.1497283 0.024278985 -0.045795072 -0.13165371 0.08329059 -0.044843487 -0.025743397 0.04702292
-0.036260433 -0.025418028 -0.06642175 -0.0263005 -0.007411647 -0.0041014724 -0.0011915355 0.10151539
0.058648996 -0.090422265 -0.090430304 0.028288841 0.10048681 0.070467755 0.0901993 0.096195795
-0.069038354 -0.014082371 0.04072909 0.008899146 0.12337759 0.07126162 -0.024513664 -0.013540169
0.08977814 0.09856482 -0.11289767 0.094060324 -0.14542527 -0.14600654 -0.13800603 -0.0057570646
0.07434092 -0.03036335 -0.010794133 0.099758685 -0.001950864 -0.041375715 0.10011921 -0.10951605
-0.041797295 -0.08887346 0.057393324 -0.00822778 0.05134622 -0.0061230497 0.046104304 0.10279421
-0.048373207 0.100345284 0.041267123 -0.087498605 -0.14647147 0.04522428 -0.0758629 -0.040509574
-0.07516715 0.02760473 -0.096064605 0.019322908 0.08565463 -0.006350002 -0.003534855 0.17562117
-0.038407244 -0.13333365 0.070001885 -0.02580297 0.031058889 -0.0018763772 0.120207235 -0.11484532
0.038633846 -0.05292702 -0.046287276 0.056570068 -0.13992563 -0.07652521 0.08700683 0.053926762
0.028724495 -0.06855733 -0.11614539 -0.09595932 0.008980558 -0.11171578 0.067000225 -0.11741497
-0.12711132 0.007823441 0.015103533 -0.12255865 0.070656136 -0.046782184 -0.020526785 -0.12219016
-0.16560435 0.033989463 -0.0010278502 -0.19970897 -0.16617724 -0.11564613 -0.0038836426 0.04714219
0.0074298177 0.093969 -0.021023044 -0.07165402 0.024463594 0.07946992 -0.16705684 -0.076638125
0.096009605 -0.151051 -0.077443816 0.08722028 0.071755365 -0.081800036 -0.14287685 0.040201712
0.03777163 -0.01780734 -0.15389456 -0.100983344 -0.09502039 -0.1129544 -0.23647273 0.08982803
