notebooks/checkpoints/LSTM_optuna/trial_007/LSTM_trial_7/checkpoints/best-epoch=2-val_loss=42.51.ckpt (torch, 713914 bytes, 30 tensors)

rnn.weight_ih_l0 f4 [256, 30]
0	0xbc93c388	-0.018037573
1	0xbd8220ec	-0.063539356
2	0x3de0cb92	0.10976328
3	0x3d67d8d8	0.056603283
4	0x3dba9fd4	0.09112516
5	0xbd9c86a1	-0.07642866
6	0x3dd7dd50	0.10540259
7	0x3d1ec1d2	0.03875906
8	0xbc1abf56	-0.009445032
9	0xbdf59962	-0.11992146
10	0x3dfcb757	0.12339657
11	0xbc209ac2	-0.009802522
12	0x3dc99be6	0.098441884
13	0x3d3e2ef3	0.046431493
14	0x3d0bebd3	0.034160446
15	0x3cd6cc8e	0.026220586
16	0xbcd69c4f	-0.02619758
17	0x3bc2b908	0.0059424676
18	0x3d08f44d	0.03343611
19	0xbd961edd	-0.073301055
20	0x3dbbb054	0.09164491
21	0x3dcab6a4	0.09898117
22	0xbc7e4da3	-0.01552144
23	0xbd3e4c30	-0.046459377
24	0xbdc3c982	-0.09559919
25	0xbc4a34c6	-0.012341684
26	0xbdd2dc48	-0.102959216
27	0xbdb1ad71	-0.086756594
28	0x3d9e0d11	0.07717336
29	0x3d547fd1	0.051879708
30	0xbd322ff9	-0.04350278
31	0xbd742d3b	-0.059613448
32	0x3e02922e	0.12751076
33	0xbd834e86	-0.064114615
34	0x3e0548f8	0.13016117
35	0xbd343bfa	-0.04400251
36	0xbd8ebf62	-0.06970097
37	0x3dbc16b4	0.09184018
38	0xbde4c506	-0.11170392
39	0x3d700295	0.058596212
40	0xbdc8d444	-0.098061115
41	0x3e02c30b	0.12769715
42	0x3cdfa0b0	0.027298301
43	0xbbc584b2	-0.0060277814
44	0x3d08136a	0.03322164
45	0xbc16f8ef	-0.009214624
46	0xbd2e719d	-0.04258882
47	0xbccf83f8	-0.025331482
48	0xbd602e76	-0.05473181
49	0x3d41cad5	0.047312576
50	0x3cfc8bce	0.030828383
51	0x3dc4a552	0.09601845
52	0x3dc9c928	0.09852821
53	0xbcc48a20	-0.023991644
54	0xbcf26b1f	-0.029592095
55	0x3dda83ab	0.10669645
56	0x3d8bd9cc	0.06828651
57	0x3dff30d3	0.12460484
58	0xbd2473fc	-0.040149674
59	0x3e034007	0.12817393
60	0x3dd4694d	0.10371647
61	0x3bbd457d	0.005776106
62	0x3e00a3fd	0.12562557
63	0x3d4565c0	0.04819274
64	0x3d9dd81d	0.07707236
65	0xbd385bb6	-0.045009337
66	0xbd0e5023	-0.034744393
67	0xbc9ecc1e	-0.01938444
68	0x3da97e3b	0.0827603
69	0xbbfb1cb0	-0.007663332
70	0xbda5a70c	-0.08088502
71	0xbc031ffe	-0.008003233
72	0x3d02f585	0.031972427
73	0xbc903420	-0.01760298
74	0x3d4e6619	0.050390337
75	0x3d93c606	0.07215504
76	0x3de8ec53	0.113732
77	0xbdd1c243	-0.102421306
78	0x3dad0faa	0.08450253
79	0x3d659947	0.05605438
80	0xbd5d3ce7	-0.05401316
81	0x3d567676	0.052359067
82	0xbc84e4ab	-0.016222319
83	0x3dd9f44a	0.106422976
84	0x3da12aea	0.07869513
85	0xbd84d3b9	-0.064856954
86	0x3dcf23ec	0.101142734
87	0x3dded92e	0.108812675
88	0x3c2b6cd0	0.010462955
89	0x3dce609d	0.10077021
90	0x3da4784f	0.080307595
91	0xbde213f9	-0.11038966
92	0x3d590331	0.05298156
93	0xbd503199	-0.05082855
94	0x3de82cb5	0.11336652
95	0x3dcc1d08	0.09966475
96	0xbd5ccfd2	-0.05390913
97	0x3dcacaec	0.099019855
98	0xbd2f2a95	-0.04276522
99	0x3bcebf7c	0.006309448
100	0x3c535553	0.012898761
101	0xbdb7d78d	-0.0897666
102	0xbd11ba1e	-0.035577886
103	0x3deda565	0.11603812
104	0x3e0075f4	0.12544996
105	0x3df5de69	0.12005312
106	0xbcbc82d1	-0.023011597
107	0xbc9727de	-0.018451627
108	0xbb7e2861	-0.0038781392
109	0x3d896f60	0.06710696
110	0x3d4a3748	0.049369127
111	0x3e104652	0.14089325
112	0x3dc9862d	0.09840045
113	0xbdbf12c6	-0.093297526
114	0xbd3a8c96	-0.04554423
115	0x3dd0bf4c	0.10192737
116	0xbcd34b12	-0.025792632
117	0x3de577d0	0.11204493
118	0xbdb7e589	-0.08979327
119	0xbd2c7701	-0.04210568
120	0xbdd43f06	-0.10363583
121	0xbdc518c6	-0.09623866
122	0xbdc77805	-0.09739689
123	0x3de9b608	0.11411673
124	0xbd7922e6	-0.060824297
125	0x3dfac6b5	0.122449316
126	0x3d812fdf	0.06307959
127	0x3c905521	0.017618718
128	0xbdb3fd39	-0.08788533
129	0xbdfa2198	-0.12213439
130	0x3c888ee8	0.016669706
131	0x3dc5e910	0.09663594
132	0xbe07aab3	-0.1324871
133	0x3c0883a6	0.008332169
134	0x3ba5e8b9	0.005063143
135	0xbdef33e6	-0.11679821
136	0x39b650bf	0.00034773906
137	0xbd59c9cb	-0.05317096
138	0xbd31a5ce	-0.043371014
139	0xbc16c692	-0.009202616
140	0x3d3dd1b9	0.046342585
141	0xbd5dc5d6	-0.05414375
142	0xbd63ea09	-0.055643115
143	0x3cd7c090	0.026336938
144	0x3d48d671	0.049032632
145	0x3d8eacae	0.0696653
146	0xbde9e90b	-0.114214025
147	0xbd8c6a23	-0.068561815
148	0xbc3ecda2	-0.011645706
149	0xbdf2c803	-0.118545555
150	0x3d96f3ea	0.07370742
151	0xbdfafe4f	-0.12255537
152	0x3d53b459	0.051685665
153	0x3ca67597	0.020319743
154	0x3b97a6c8	0.004628036
155	0x3c375e11	0.011191861
156	0x3cf15c6f	0.029463021
157	0xbe39cdc9	-0.18144907
158	0x3d8249ed	0.063617565
159	0xbd1fd5d1	-0.03902227
160	0xbd570ebb	-0.052504282
161	0xbdbb66bc	-0.091504544
162	0x3ddb8eff	0.10720634
163	0xbd8cca2d	-0.068744995
164	0xbc279e23	-0.010230574
165	0x3d09391d	0.033501733
166	0xbdb19b39	-0.086721845
167	0xbb6ff13d	-0.0036612295
168	0xbd9a1170	-0.07522857
169	0x3dcdbd1f	0.100458376
170	0x3cf70ef4	0.030158497
171	0x3cdeb157	0.027184172
172	0xbcf41c74	-0.029798724
173	0x3d744776	0.059638463
174	0x3e11a59e	0.14223334
175	0xbcc2a922	-0.02376229
176	0x3dca6bfe	0.09883879
177	0xbd8ce77b	-0.06880089
178	0xbd76b3e6	-0.06023016
179	0x3ded2533	0.11579361
180	0xbc4c35df	-0.012464016
181	0x3b9cabd4	0.0047812257
182	0x3d3d5de2	0.04623211
183	0x3bc92d44	0.0061394293
184	0xbd6f4c45	-0.058422346
185	0xbdbba8f7	-0.09163087
186	0x3dbfe1e6	0.093692586
187	0x3de2ce41	0.11074496
188	0x3da4cca9	0.08046848
189	0xbcd23ea7	-0.02566464
190	0x3cb46b76	0.022023898
191	0xbe03fdf8	-0.1288985
192	0xbdd6d2bc	-0.10489413
193	0xbdd5ff14	-0.10449043
194	0x3c4ee336	0.0126274135
195	0xbd64c9d7	-0.055856552
196	0xbcde28d8	-0.027119085
197	0xbd78723e	-0.060655825
198	0xbd257b17	-0.04040059
199	0x3e0895d5	0.13338406
200	0x3bcd3b54	0.006263176
201	0x3deabaf4	0.1146144
202	0xbdf43f70	-0.11926162
203	0xbdd01cf0	-0.101617694
204	0xbac41520	-0.0014959909
205	0xbddcd687	-0.10783105
206	0xbb980bc6	-0.0046400754
207	0xbc3bb4e7	-0.011456705
208	0x3ded306c	0.11581501
209	0x3deea775	0.11653034
210	0x3ca9409f	0.020660697
211	0x3d077a6f	0.033075746
212	0x3d2d79e4	0.042352572
213	0x3ce3b360	0.027795494
214	0x3d79976b	0.06093542
215	0x3e00d065	0.12579496
216	0xbd69d020	-0.05708325
217	0xbbf174c4	-0.007368656
218	0x3e47e3dc	0.19520515
219	0xbd7c37c2	-0.061576612
220	0x3d7a41ec	0.061098024
221	0xbd96aa80	-0.07356739
222	0xbdc2165f	-0.09476923
223	0x3d94b89c	0.07261774
224	0xbdf0f588	-0.11765581
225	0x3c82da1d	0.015973145
226	0xbdaf289b	-0.08552667
227	0xbe00cda8	-0.12578452
228	0xbe013ac7	-0.12620078
229	0x3bb4daf4	0.0055192653
230	0x3ccae75e	0.024768528
231	0xbd2604b5	-0.040531833
232	0x3de64652	0.11243881
233	0x3cd72cb8	0.02626644
234	0xbdde34bf	-0.10849904
235	0xbc19b6bc	-0.009381946
236	0x3c9ba5a7	0.018999888
237	0x3c438d5d	0.011935559
238	0xbdc3c3c6	-0.09558825
239	0x3d9a2955	0.07527415
240	0x3dd08c7d	0.10183046
241	0x3ded99ca	0.116015986
242	0x3e102722	0.14077428
243	0x3d248f78	0.040175885
244	0x3d55fa81	0.052240852
245	0x3e024a99	0.12723769
246	0xbc90ec34	-0.017690755
247	0x3d750c3e	0.05982613
248	0x3dfdc629	0.12391312
249	0x3b25697f	0.0025239883
250	0xbd95e22c	-0.073185295
251	0x3d53a5cd	0.05167179
252	0x3dc56ec2	0.09640266
253	0x3dc61009	0.09671027
254	0x3de34d00	0.11098671
255	0x3d987fbf	0.07446241

rnn.weight_hh_l0 f4 [256, 64]
0	0xbe068850	-0.13137937
1	0xbe03eb25	-0.1288267
2	0xbdb37ccb	-0.08764037
3	0x3da7f902	0.08201791
4	0x3d017384	0.031604305
5	0xbbaa9f27	-0.0052069607
6	0xbd8e1f54	-0.06939569
7	0x3e1762a2	0.14783719
8	0x3be8949c	0.0070977937
9	0xbd5cf755	-0.05394681
10	0xbdc3686c	-0.09541401
11	0x3dc15680	0.09440327
12	0x3dff87fc	0.12477109
13	0x3c1f9d29	0.00974206
14	0x3dfcba46	0.12340216
15	0xbd62b2cc	-0.055346295
16	0xba68ec35	-0.0008885295
17	0xbd3e3076	-0.046432935
18	0xbe28c8cf	-0.16482852
19	0x3db8c46f	0.09021842
20	0xbda0d6a9	-0.07853443
21	0x3dc178d8	0.09446877
22	0x3dbf0013	0.09326186
23	0x3cd4dc14	0.025983848
24	0x3debf375	0.11521045
25	0x3d209ae6	0.039210223
26	0xbe285c7a	-0.16441527
27	0x3c397ac9	0.011320778
28	0x3c23fa9d	0.010008481
29	0x3d27130f	0.04078966
30	0xbd4175e2	-0.047231562
31	0xbdef6617	-0.11689394
32	0x3ddc3b99	0.10753555
33	0xbbd13e9d	-0.006385638
34	0x3cc86121	0.024460377
35	0xbce03d3e	-0.027372953
36	0x3daa55a4	0.08317116
37	0xbe1e7c83	-0.15477185
38	0xbda8f6ca	-0.08250196
39	0x3d169d74	0.036771253
40	0xbdd0eea8	-0.1020177
41	0xbde13485	-0.109963454
42	0xbd98dfad	-0.07464538
43	0xbe361e11	-0.17784907
44	0x3d9488a6	0.07252626
45	0x3d60fe0a	0.05492977
46	0x3dac09f5	0.08400337
47	0x3db872eb	0.09006294
48	0x3e426e2c	0.1898734
49	0xbe032652	-0.12807587
50	0xbded8b14	-0.11598793
51	0x3d3f0e3d	0.046644438
52	0xbd6895ee	-0.05678361
53	0x3de6ef68	0.11276132
54	0xbdf1f986	-0.11815171
55	0xbd9d6380	-0.07684994
56	0x3ce80bde	0.028325971
57	0x3d5759ea	0.052575983
58	0x3e072093	0.1319602
59	0xbc65f380	-0.014035106
60	0xbdee04bf	-0.11621999
61	0x3e0a8fd7	0.13531433
62	0x3de54a1a	0.111957744
63	0x3d966d88	0.0734511
64	0x3de0d767	0.10978585
65	0xbd45e128	-0.04831043
66	0x3d1c8c73	0.03821988
67	0x3dd83225	0.10556439
68	0x3d6c3b53	0.057673763
69	0xbde8c591	-0.11365808
70	0x3dce7d3a	0.10082479
71	0x3e1e2da7	0.15447102
72	0x3d383eca	0.044981755
73	0xbe36a414	-0.17836028
74	0xbdd5e1e9	-0.104434796
75	0xbd1f397c	-0.03887318
76	0x3dc30521	0.09522463
77	0xbdc60b4a	-0.09670122
78	0xbc92a67a	-0.017901648
79	0xbb66ac5c	-0.003519795
80	0xbe0a81d5	-0.1352609
81	0xbde0e6fd	-0.109815575
82	0xbd767608	-0.060171157
83	0xbc16d657	-0.009206376
84	0x3d325bcc	0.043544576
85	0xbd13c0ed	-0.03607266
86	0xbda680db	-0.08130046
87	0xbcf3004c	-0.029663227
88	0xbc367409	-0.011136063
89	0xbdc1f4ba	-0.09470506
90	0xbce6e238	-0.028184041
91	0xbdd9baa0	-0.10631299
92	0x3e0ddad6	0.1385301
93	0x3cbac8e5	0.022800872
94	0x3e0c2725	0.13686807
95	0xbc954e45	-0.018225798
96	0xbd8c9802	-0.06864931
97	0x3dde222d	0.10846362
98	0x3cbc5458	0.022989437
99	0x3d9bdd21	0.07610536
100	0x3d95842e	0.07300602
101	0xbe27d8dc	-0.16391319
102	0x3c977b25	0.018491337
103	0x3e00448f	0.12526153
104	0x3d847230	0.06467092
105	0xbd79e854	-0.06101258
106	0x3d45eccd	0.048321534
107	0xbe1104bb	-0.14161961
108	0xbcac9775	-0.021068314
109	0xbdbd3c4e	-0.09240018
110	0x3d04872b	0.03235547
111	0x3dd2f71e	0.1030104
112	0x3d1990ad	0.03749149
113	0xbd85e33f	-0.065374844
114	0x3de4f177	0.11178868
115	0xbde722d6	-0.11285941
116	0x3c3976c8	0.011319824
117	0x3ddae66c	0.10688481
118	0x3bc01686	0.00586206
119	0x3d58c497	0.052921858
120	0xbe156db9	-0.14592637
121	0xbd44b4f3	-0.04802413
122	0xbccf09b7	-0.025273187
123	0xbd702467	-0.058628466
124	0xbdef2e1d	-0.11678717
125	0xbe024f44	-0.1272555
126	0xbdf4c0b5	-0.119508184
127	0x3d76a30f	0.0602141
128	0x3c931751	0.017955454
129	0x3d2ae793	0.041724753
130	0xbdc00917	-0.09376734
131	0x3e29f231	0.16596295
132	0xbc83dc74	-0.016096331
133	0xba069583	-0.00051339733
134	0xbd2a1278	-0.04152152
135	0xbd7ee390	-0.06222874
136	0xbd53f491	-0.05174691
137	0x3d96d3f3	0.07364645
138	0xbc92d690	-0.017924577
139	0xbd965113	-0.073396824
140	0xbe232a83	-0.15934186
141	0x3dca2902	0.09871103
142	0x3ead55a1	0.33854392
143	0x3df10312	0.11768164
144	0xbd80e3b2	-0.062934294
145	0x3ca94a7a	0.020665396
146	0xbd84ec05	-0.0649033
147	0xbe5d15ee	-0.21590397
148	0x3e32b759	0.17452754
149	0x3deb5578	0.11490911
150	0xbcdcf443	-0.026971942
151	0xbcf22f86	-0.029563677
152	0xbd714dfc	-0.058912262
153	0x3eb42bdb	0.3518971
154	0x3785b531	1.593921e-05
155	0xbd939713	-0.072065495
156	0x3e633d65	0.22191389
157	0xbd8d1708	-0.068891585
158	0x3db02709	0.08601195
159	0x3dcd3902	0.10020639
160	0xbea2d252	-0.31801087
161	0x3e820ac8	0.2539885
162	0x3e4f06b2	0.20217398
163	0xbc0a17f2	-0.008428561
164	0x3d4ca29a	0.049959756
165	0x3d3836b2	0.044974037
166	0x3e2b9754	0.16756946
167	0x3be38a9b	0.0069440133
168	0xbdbe7688	-0.09299952
169	0x3e0304bf	0.12794779
170	0x3e7c4e86	0.2463933
171	0x3dd9be71	0.10632027
172	0x3cdbbc66	0.026823234
173	0x3ce1a895	0.027546206
174	0xbde3cd05	-0.11123089
175	0xba6f1105	-0.00091196626
176	0xbd3bf170	-0.04588455
177	0xbdb2e7e1	-0.08735634
178	0x3d9de315	0.07709328
179	0xbdc37418	-0.095436275
180	0xbaca5ec1	-0.0015439616
181	0x3eb5a5ab	0.35477957
182	0x3daa8a4c	0.08327159
183	0x3dd6af84	0.10482696
184	0xbe09d455	-0.13459904
185	0xbd485253	-0.048906635
186	0x3eba6391	0.36404088
187	0xbd1ebc0c	-0.038753554
188	0x3e8f5ce9	0.28000572
189	0xbd0958d4	-0.03353198
190	0xbe9e6aa8	-0.30940747
191	0x3c9c562a	0.019084055
192	0xbd04b1b4	-0.032396033
193	0xbbd98175	-0.006637747
194	0x3dbe16f0	0.09281719
195	0x3e0d0a1a	0.13773385
196	0x3d9372de	0.071996436
197	0x3ca29095	0.019844333
198	0x3dd3635f	0.10321688
199	0xbcaaa7c1	-0.020831944
200	0x3d028576	0.03186556
201	0x3e0edd98	0.13951719
202	0xbdc5c5c8	-0.096568644
203	0x3d4bdfe9	0.049774084
204	0xbe03ce92	-0.12871769
205	0x3d0b9919	0.034081552
206	0x3c19c2b4	0.0093848
207	0xbdac2274	-0.08405009
208	0x3d467bd2	0.048457928
209	0x3ddeeba1	0.108847864
210	0xbe033fe9	-0.12817349
211	0xbd11e362	-0.03561724
212	0x3d290c03	0.04127122
213	0x3b8fc821	0.004387871
214	0x3dba6ab8	0.09102386
215	0x3dea697c	0.11445901
216	0xbcd466df	-0.025927959
217	0xbd61ba01	-0.055109028
218	0xbd8678ea	-0.06566031
219	0xbdf7988c	-0.12089643
220	0x3d1c9af0	0.038233697
221	0xbd2be6fd	-0.041968334
222	0x3cb82b46	0.022481572
223	0xbcf1f094	-0.029533662
224	0xbddd7194	-0.10812679
225	0x3d88adb0	0.06673753
226	0x3cdefbac	0.027219616
227	0xbdcc3799	-0.09971542
228	0x3cc34b5a	0.023839641
229	0xbd12f43d	-0.035877455
230	0x3e03c409	0.1286775
231	0xbc93316d	-0.017967904
232	0xbe15c681	-0.14626504
233	0xbd90e3e3	-0.07074716
234	0xbdcee444	-0.10102132
235	0x3d8637c5	0.06553606
236	0xbcc991cb	-0.024605652
237	0xbda15338	-0.07877201
238	0xbd23604d	-0.03988676
239	0x3d345fe5	0.044036765
240	0x3ccfc592	0.025362764
241	0x3cf07d3e	0.029356595
242	0x3c19c165	0.009384488
243	0x3e2e19c5	0.17002018
244	0x3c33bad9	0.010969841
245	0x3d4a3bac	0.049373314
246	0xbe000ddd	-0.12505288
247	0xbd6ff6ea	-0.058585085
248	0xbc0c1fb7	-0.008552483
249	0x3d79ec23	0.061016213
250	0xbd0ed53d	-0.03487133
251	0x3df670e8	0.12033254
252	0xbd713c24	-0.058895245
253	0x3caa643c	0.020799749
254	0x3d9299b3	0.07158222
255	0xbce8baa0	-0.028409302

rnn.bias_ih_l0 f4 [256]
0	0xbc200a5e	-0.009768097
1	0x3dafb8f4	0.08580199
2	0x3cf31a52	0.029675636
3	0x3e09eeef	0.13470052
4	0x3e0c365e	0.13692614
5	0x3dd8fe7d	0.10595415
6	0xbdb00155	-0.08594004
7	0x3d3dedd0	0.046369374
8	0xbd9a540f	-0.07535564
9	0x3d8b89bf	0.06813382
10	0x3d4f1b44	0.050563112
11	0x3dc69671	0.09696663
12	0x3e0a46b9	0.13503541
13	0xbc62dfb2	-0.013847278
14	0xbd63d348	-0.055621415
15	0x3d33247f	0.043735977
16	0xbd5915b9	-0.052999232
17	0xbd3fe9e0	-0.0468539
18	0x3d987440	0.07444048
19	0x3dc13af0	0.094350696
20	0x3ddba4b5	0.10724775
21	0x3b17379b	0.0023073915
22	0x3b4b7f20	0.0031051114
23	0x3d8648c9	0.065568514
24	0x3dbe172c	0.092817634
25	0x3cb07b8c	0.021543287
26	0xbd5fbc29	-0.054622803
27	0xbd0dc7d9	-0.034614418
28	0x3cb3cb26	0.021947455
29	0x3dc58c0a	0.09645851
30	0x3e10cf0c	0.14141482
31	0xbd7bbdd4	-0.06146033
32	0xbd3dac6a	-0.046307005
33	0x3d4e2b58	0.050334305
34	0xbdab5812	-0.083664075
35	0xbdf1c559	-0.11805219
36	0x3dce1bb5	0.100638784
37	0x3e00118f	0.12506698
38	0x3d19873a	0.037482478
39	0x3d1b1a90	0.03786713
40	0x3e092ac8	0.13395226
41	0xbce9dd46	-0.028547894
42	0x3dbbdd81	0.09173108
43	0x3d99f4c4	0.075173885
44	0xbcf455e5	-0.029826114
45	0xbdddcef9	-0.108304925
46	0x3da296ce	0.0793892
47	0x3dc333bb	0.09531351
48	0x3e126509	0.14296354
49	0xbd494dab	-0.049146336
50	0x3dbc14ad	0.09183631
51	0xbd8ecc00	-0.06972504
52	0x3d3d34e4	0.04619302
53	0x3d64812c	0.05578725
54	0x3dda5f09	0.10662658
55	0x3d76ba0a	0.060236014
56	0xbd7a7f83	-0.06115676
57	0xbd2f06ed	-0.042731214
58	0xbc5cdcd5	-0.013480385
59	0x3dfdbc64	0.12389448
60	0x3bcacc66	0.006188917
61	0xbd3c3df7	-0.04595753
62	0xbca61d71	-0.02027771
63	0x3e0ce63f	0.13759707
64	0xbdd3464a	-0.10316141
65	0x3e0290b2	0.1275051
66	0xbe165af8	-0.1468314
67	0xbd4a94c0	-0.049458265
68	0xbcd6f76b	-0.026241025
69	0x3dff1ce9	0.12456686
70	0xbcf73c2a	-0.030180056
71	0x3e37e331	0.1795776
72	0xbd955d1a	-0.07293148
73	0xbd81c2e5	-0.06336001
74	0xbdd26e05	-0.10274891
75	0x3d3eff04	0.04662992
76	0x3d02a60c	0.031896636
77	0x3d12d955	0.035851795
78	0xbd6b4d63	-0.05744685
79	0x3b84d033	0.0040531396
80	0x3b90cd35	0.004418994
81	0x3da9a7d9	0.082839675
82	0x3c9ba870	0.019001216
83	0xbdefd375	-0.11710254
84	0xba0046fb	-0.00048933894
85	0xbddbc01a	-0.1073
86	0xbd2ade15	-0.0417157
87	0xbdfaaa9e	-0.12239574
88	0xbd48e5c2	-0.04904724
89	0x3e0e58e5	0.13901098
90	0xbd922366	-0.07135658
91	0xbd8e34bd	-0.06943653
92	0xbd8d2765	-0.068922795
93	0xbd5d88e7	-0.05408564
94	0x3b84947c	0.004046021
95	0x3dcfe10e	0.10150348
96	0xbd805cda	-0.0626771
97	0xbda4ad09	-0.08040816
98	0xbda99c45	-0.08281759
99	0x3ba9762f	0.0051715593
100	0xbdfa0904	-0.12208751
101	0xbc6ee0ee	-0.014579995
102	0xbab1d41a	-0.001356724
103	0xbd3c5139	-0.045975897
104	0xbd8351bc	-0.06412074
105	0x3c95db23	0.01829297
106	0xbe541cd5	-0.20714124
107	0xbd78fb2d	-0.060786415
108	0x3ca8e02b	0.020614704
109	0x3d170064	0.036865607
110	0x3dd35c82	0.10320379
111	0x3deca324	0.11554554
112	0xbd8cc83e	-0.06874131
113	0xbd0f3aca	-0.034968175
114	0x3d0c35a8	0.034230858
115	0x3e0e0610	0.138695
116	0x3db0dcc6	0.08635859
117	0x3dde7fb7	0.108642034
118	0xbd1b1d83	-0.03786994
119	0xbd836c84	-0.06417182
120	0x3cec8567	0.028872205
121	0xbd9907db	-0.074722014
122	0xbe03d497	-0.12874065
123	0xbdd3028e	-0.10303222
124	0xbce3f60a	-0.027827282
125	0xbe48dbd8	-0.19615114
126	0xbddd08d3	-0.10792699
127	0xbcfc7832	-0.030819032
128	0x3de1f018	0.110321224
129	0xbaea8732	-0.0017893075
130	0x3be3c111	0.0069505055
131	0x3c97d705	0.018535146
132	0xbdabe225	-0.08392743
133	0x3d9597c1	0.073043354
134	0x3b86b21b	0.0041105873
135	0xbd4d9e6b	-0.050199907
136	0x3ccbd2a6	0.024880718
137	0x3dffc49d	0.12488673
138	0xbe1563a2	-0.14588788
139	0xbd311069	-0.04322854
140	0x3d962508	0.07331282
141	0xbd9cba7b	-0.07652756
142	0x3db77593	0.089579724
143	0x3d079c26	0.0331079
144	0xbd49b207	-0.049242046
145	0x3c94ec31	0.018179031
146	0x3da874e1	0.08225418
147	0xbc374b9d	-0.011187461
148	0xbd8e033d	-0.069342114
149	0xbcb8ff89	-0.022582786
150	0x3892c338	6.998185e-05
151	0x3e11e9b3	0.14249305
152	0xbbafda7c	-0.0053666215
153	0x3d954d7c	0.072901696
154	0xbe304bda	-0.17216435
155	0x3d251b2d	0.04030912
156	0xbd242e4a	-0.040083207
157	0x3dbb70b9	0.091523595
158	0x3d6e3d81	0.058164123
159	0xbbb9aea9	-0.005666573
160	0xbb3711dd	-0.0027934231
161	0x3caf7af9	0.021420943
162	0xbd27341f	-0.04082119
163	0xbd1b4652	-0.03790886
164	0x3d7dacf8	0.061932534
165	0x3d7a1871	0.061058465
166	0xbc8e6d2d	-0.017386043
167	0x3d950b0f	0.072775
168	0xbcf374af	-0.029718725
169	0x3d711431	0.058857147
170	0xbd542072	-0.051788755
171	0xbd4afbbe	-0.049556486
172	0x3e178aad	0.14798994
173	0x3cedd87f	0.029033897
174	0xbcd15f31	-0.025558086
175	0x3ded32f7	0.115819864
176	0xbde0d8ad	-0.109788276
177	0x3c8d8bf7	0.017278655
178	0x3bc0bf2b	0.005882164
179	0x3d75ad8f	0.05997997
180	0x3d99dcfa	0.07512851
181	0x3cfced36	0.03087483
182	0x3ca4e680	0.020129442
183	0x3e016d22	0.12639287
184	0x3dd23845	0.10264639
185	0xbd64ca92	-0.05585725
186	0x3dea0c8f	0.114281766
187	0xbe0f4110	-0.13989663
188	0xbaacde61	-0.0013188833
189	0xbdb30aa2	-0.087422624
190	0x3b889300	0.0041679144
191	0xbda5c220	-0.08093667
192	0x3c4485e6	0.0119948145
193	0x3e2291d9	0.15875949
194	0x3d9d097f	0.07667827
195	0xbdec22bc	-0.115300626
196	0x3d0216ed	0.031760145
197	0x3e42e4ca	0.19032589
198	0xbdb07b80	-0.08617306
199	0xbcc45e16	-0.023970645
200	0xbcd2864b	-0.025698802
201	0x3d13eaeb	0.036112707
202	0xbcf60173	-0.030029988
203	0xbda7a456	-0.081856415
204	0xbc80796e	-0.015682902
205	0x3d8dd2a2	0.06924941
206	0x3c526328	0.0128410235
207	0x3db9c013	0.090698384
208	0xbde3ca2e	-0.11122547
209	0x3da3cc07	0.079978995
210	0xbda8b592	-0.08237757
211	0x3df74b5c	0.120749205
212	0x3e280962	0.1640983
213	0x3d27713f	0.040879484
214	0x3c8d0552	0.017214451
215	0x3e1a2beb	0.15055816
216	0xbcddd1a1	-0.027077498
217	0x3d1f6503	0.03891469
218	0x3cd7e3ae	0.026353683
219	0xbd94f02c	-0.07272372
220	0x3e0ecb71	0.13944794
221	0xbdbceced	-0.092248775
222	0x3dc00971	0.09376801
223	0xbdfe8b8b	-0.124289595
224	0x3d147ceb	0.036251944
225	0xbe019ff0	-0.12658668
226	0x3d34cbe1	0.044139747
227	0xbe15081b	-0.14553873
228	0x3cdea7bb	0.02717959
229	0x3e1bdebf	0.1522169
230	0xbdfa1f87	-0.122130446
231	0x3e1a4da0	0.15068674
232	0xbd24ccba	-0.040234305
233	0xbdc0426c	-0.09387669
234	0x3de22b7e	0.11043452
235	0x3dee2eb3	0.11630001
236	0x3d253afe	0.040339462
237	0x3bab4c6e	0.005227617
238	0x3de72f5c	0.1128833
239	0xbd93950b	-0.07206162
240	0x3d6fcf80	0.058547497
241	0x3c0531c2	0.008129539
242	0xbd967128	-0.073458016
243	0x3e4bee69	0.19915165
244	0x3e093111	0.13397624
245	0xbe2367a7	-0.15957509
246	0xbdb73494	-0.08945575
247	0xbc535b1c	-0.01290014
248	0x3e2311d0	0.15924764
249	0x3d95badd	0.07311032
250	0xbd1370ef	-0.035996374
251	0x3e107a17	0.14109074
252	0x3c3e3587	0.011609442
253	0xbd5b9f98	-0.053618997
254	0xbe26a1c5	-0.16272648
255	0xbdc3ac2c	-0.095543236

rnn.bias_hh_l0 f4 [256]
0	0x3cb1967a	0.021678198
1	0xbdc587b0	-0.09645021
2	0x3c984a34	0.01859007
3	0x3dd927a8	0.10603267
4	0x3d9075c2	0.070537105
5	0x3985f7d0	0.00025552372
6	0xbd33513d	-0.043778647
7	0x3cb116e5	0.021617362
8	0x3df8be4e	0.12145673
9	0xbbb2ca63	-0.0054562553
10	0x3d181025	0.03712477
11	0x3d90c642	0.07069065
12	0xbd80a57e	-0.06281565
13	0x3d1c1916	0.03810986
14	0x3daac450	0.08338225
15	0xbc2bfa1b	-0.0104966415
16	0x3b84224f	0.00403241
17	0x3dc89b43	0.09795239
18	0x3e12eb82	0.14347652
19	0xbb033cb6	-0.00200252
20	0xbdb82cb7	-0.08992904
21	0x3e059b8f	0.13047622
22	0x3e1e36ad	0.15450545
23	0x3d986ffb	0.074432336
24	0x39dc2416	0.00041988556
25	0xbd31b95b	-0.04338966
26	0xbc2a4e86	-0.010394698
27	0x3d5353cd	0.05159359
28	0x3c5cfb1b	0.013487603
29	0x3e377b2b	0.17918079
30	0x3e2659af	0.16245149
31	0x3d4c8a07	0.04993632
32	0xbd658483	-0.056034576
33	0xbd9ab7fc	-0.075546235
34	0x3dda55f2	0.10660924
35	0xbd449e71	-0.048002664
36	0xbdcea96b	-0.10090908
37	0xbd858668	-0.065197766
38	0x3d2f8c9a	0.042858697
39	0x3d456723	0.048194062
40	0x3d8a6c03	0.06758883
41	0xbdae9ac4	-0.08525613
42	0x3d8366b9	0.06416077
43	0x3c916b2a	0.017751295
44	0xbddfc067	-0.1092537
45	0x3db7734b	0.08957537
46	0xbb9fbe5d	-0.004874988
47	0xbd0dc4bf	-0.03461146
48	0x3c6fbbe5	0.0146322
49	0xbd284e88	-0.04109052
50	0xbdf9dc50	-0.122002244
51	0xbdc3d9ee	-0.09563051
52	0xbd8e8910	-0.06959736
53	0x3cd4beef	0.02596995
54	0xbd34bfca	-0.044128217
55	0x3d1ca49d	0.038242925
56	0x3dbb12d2	0.09134449
57	0xbd56da45	-0.05245425
58	0xbdb16af7	-0.0866298
59	0xbc843868	-0.016140178
60	0x3cdbf6c7	0.026851071
61	0xbdff33e9	-0.12461073
62	0x3c82c7c0	0.015964389
63	0xbd4c78b5	-0.049919803
64	0x3d689412	0.056781836
65	0xbdb5c59d	-0.08875582
66	0xbe247647	-0.16060744
67	0x3dcb2651	0.09919418
68	0xbc2d2297	-0.010567329
69	0xbcdd1e59	-0.02699201
70	0xbdea1e8d	-0.11431608
71	0x3da47c28	0.080314934
72	0xbe020744	-0.12698084
73	0x3df2f2b0	0.11862695
74	0x3d057a1a	0.03258715
75	0xbbd104d9	-0.0063787517
76	0xbd8d2dfd	-0.06893537
77	0xbc961a48	-0.018323079
78	0x3e09e193	0.13464956
79	0xbd214b48	-0.039378434
80	0x3cb4e066	0.022079658
81	0x3a00452e	0.0004893121
82	0x3e14b7d6	0.14523253
83	0xbe030e97	-0.12798534
84	0x3d874819	0.066055484
85	0xbdb6092c	-0.08888468
86	0xbdeace3c	-0.11465117
87	0xbcf0c0f9	-0.029388892
88	0x3dbcb7ea	0.09214766
89	0xbc286a22	-0.01027921
90	0x3d07f88d	0.03319602
91	0x3d086318	0.03329763
92	0xbc9842d0	-0.018586546
93	0xbd651258	-0.055925697
94	0xbd57b12b	-0.052659195
95	0xbb74a439	-0.003732933
96	0x3c4daeea	0.01255391
97	0x3cc9e724	0.02464635
98	0x3d6a35da	0.057180263
99	0xbd39e6a6	-0.04538598
100	0xbd4178e1	-0.04723442
101	0xbcf995fd	-0.030467028
102	0xbe27b783	-0.16378598
103	0xbdfc3754	-0.123152405
104	0xbe093694	-0.13399726
105	0x3e365657	0.17806374
106	0x3c131f71	0.008979664
107	0x3dbd858a	0.09253986
108	0x3e0aa93f	0.13541125
109	0x3cf2b112	0.02962545
110	0x3dd6e836	0.104935095
111	0x3e024483	0.12721448
112	0x3d70317c	0.058640942
113	0xbc165942	-0.009176554
114	0xbd8afe80	-0.06786823
115	0x3da52148	0.080629885
116	0x3d845a4e	0.06462537
117	0xbdac364f	-0.08408796
118	0x3df4105a	0.11917181
119	0xbbeaf739	-0.0071705845
120	0x3d08460a	0.03326992
121	0x3ddb6889	0.10713298
122	0xbe156a5d	-0.14591356
123	0xbe22d7bd	-0.1590261
124	0xbdd2d51e	-0.10294555
125	0xbc7d84e9	-0.015473583
126	0xbdd86d95	-0.10567776
127	0xbe3eedbe	-0.18645379
128	0x3dccd07c	0.10000703
129	0xbd4a5340	-0.0493958
130	0xbdb9437c	-0.09046075
131	0x3c0fac68	0.008769132
132	0x3e17dd4b	0.1483051
133	0xbd697f50	-0.05700618
134	0xbd3e935a	-0.046527244
135	0xbde5f0fe	-0.11227606
136	0x3d9ba169	0.07599146
137	0xbde0f6e8	-0.10984594
138	0x3c287950	0.010282829
139	0x3dd3db29	0.10344536
140	0x3cc44aa6	0.023961376
141	0x3bcbc9b5	0.0062191137
142	0xbd981386	-0.07425599
143	0x3d9085b0	0.07056749
144	0x3d135b95	0.03597601
145	0xbd26f695	-0.040762503
146	0xbdc2d918	-0.095140636
147	0xbc96c2d7	-0.018403454
148	0xbd80c4e4	-0.06287554
149	0x3d57311b	0.052537065
150	0x3d717403	0.058948528
151	0x3df7e53b	0.12104269
152	0x3cff6dd5	0.031180302
153	0xbdc70116	-0.09717004
154	0xbe0c6c92	-0.13713291
155	0x3e0af508	0.13570035
156	0xbc34ad71	-0.01102768
157	0xbd3a551d	-0.045491327
158	0xbc03c24e	-0.008041931
159	0xbdf2dd8c	-0.11858663
160	0xbd5d3500	-0.054005623
161	0xbcd46e7d	-0.025931591
162	0x3d0ea849	0.034828458
163	0xbd4079ae	-0.046991043
164	0xbbbb91dd	-0.0057241754
165	0x3cd7ae34	0.026328184
166	0x3c9dd277	0.019265397
167	0x3db93b99	0.090445705
168	0xbd9bd21e	-0.07608436
169	0xbbb80577	-0.005615886
170	0x3dd3f657	0.1034972
171	0xbb9a423c	-0.004707603
172	0xbb8bba71	-0.004264169
173	0xbd8b9426	-0.068153664
174	0x3db9195a	0.090380386
175	0x3df8b6a7	0.12144213
176	0xbd65b364	-0.056079283
177	0xbdbcdb30	-0.09221494
178	0x3e0a812b	0.13525836
179	0x3d91101d	0.070831515
180	0x3dc560e6	0.096376225
181	0xbd3e8b5a	-0.046519615
182	0x3db962c7	0.090520434
183	0x3d8f2846	0.069901034
184	0x3bae17d4	0.005312899
185	0xbda75116	-0.08169763
186	0xbd16a99a	-0.03678284
187	0xbded5a23	-0.11589458
188	0xbce6746a	-0.028131682
189	0xbdca2d0d	-0.09871874
190	0x3ae94fe8	0.0017800303
191	0x3d0fd952	0.035119362
192	0x3d4e1045	0.050308485
193	0x3e362c22	0.17790273
194	0xbb724853	-0.0036969378
195	0xbdb65a06	-0.08903889
196	0xbe13270b	-0.14370362
197	0xbc45c33e	-0.012070475
198	0xbdcdca2f	-0.10048329
199	0x3e267703	0.16256337
200	0x3a290918	0.00064481935
201	0x3ceeb4b7	0.029138906
202	0x3ded2781	0.115798004
203	0x3de0dc6d	0.10979543
204	0x3d7ebf2c	0.062194034
205	0x3d0e9dff	0.034818646
206	0xbd433148	-0.04765442
207	0xbd7b4139	-0.061341498
208	0xbe1ba1a5	-0.15198381
209	0x3e0c46a3	0.13698821
210	0xbd5ba56d	-0.05362456
211	0x3d3bcb27	0.045848038
212	0x3c1b94c0	0.009495914
213	0x3d80ede4	0.06295374
214	0x3c18de55	0.009330352
215	0x3db7664f	0.08955061
216	0xbd585c56	-0.052822433
217	0xbdd3d478	-0.103432596
218	0xbdc8c02e	-0.0980228
219	0x3db816c2	0.08988716
220	0x3e1e63cc	0.15467757
221	0xbd53af6b	-0.051680963
222	0xbd0e2f18	-0.03471288
223	0x3bc1aba1	0.0059103523
224	0xbd1977af	-0.037467655
225	0xbb8485f0	-0.004044287
226	0xbe448312	-0.19190624
227	0xbe24fa1b	-0.16111033
228	0x3daff483	0.08591559
229	0x3dc1e686	0.09467797
230	0xbb3d36f6	-0.002887187
231	0x3e1a0660	0.15041494
232	0x3c81b906	0.015835296
233	0x3df5ddf9	0.120052285
234	0x3e096a37	0.13419424
235	0xbdb9da5f	-0.09074854
236	0xbd923a7f	-0.071400635
237	0xbde3116e	-0.11087309
238	0x3b2b1e51	0.00261106
239	0x3d2373e8	0.03990546
240	0xbc9a55a9	-0.018839674
241	0x3e08ee63	0.13372187
242	0xbd46172b	-0.04836194
243	0x3dcef04a	0.10104425
244	0x3e4fb68e	0.20284483
245	0xbcaff898	-0.021480843
246	0x3d860bb0	0.06545198
247	0x3e02b51c	0.127644
248	0x3e651808	0.22372448
249	0x3dc47112	0.09591879
250	0x3d6aa56a	0.057286657
251	0x3e1b9a80	0.15195656
252	0x3c9746da	0.018466402
253	0x3d658254	0.056032494
254	0xbcd7e3e3	-0.026353782
255	0x3da9daae	0.08293663

rnn.weight_ih_l1 f4 [256, 64]
0	0xbce9e6ee	-0.028552499
1	0xbe0d6053	-0.13806276
2	0xbdded7e7	-0.10881024
3	0x3e35266c	0.17690438
4	0xbd86a8a2	-0.06575133
5	0x3df6368e	0.12022124
6	0x3cc8fc7f	0.024534462
7	0x3e60dcd0	0.21959233
8	0x3c42b941	0.011884988
9	0xbe368d27	-0.17827283
10	0x3da82b05	0.0821133
11	0xbe26f5e5	-0.16304739
12	0x3ce1392f	0.027493088
13	0xbd0ed492	-0.03487069
14	0x3de6def3	0.11272993
15	0xbd613de0	-0.05499065
16	0x3ddea7f0	0.10871875
17	0xbdd11989	-0.102099486
18	0x3df764cd	0.12079773
19	0x3da6685e	0.08125375
20	0xbc8a3419	-0.016870545
21	0x3d85d7a1	0.065352686
22	0x3e6b5928	0.22983229
23	0x3d3313c9	0.04372004
24	0xbc8b67e5	-0.017017314
25	0x3e130b97	0.1435989
26	0xbdb6b907	-0.0892201
27	0xbd3c3a19	-0.045953844
28	0x3d81a973	0.06331148
29	0xbe32e28f	-0.17469238
30	0xbd420530	-0.04736823
31	0xbdb5d6ce	-0.08878861
32	0xbe151444	-0.14558512
33	0x3dec1216	0.11526887
34	0xbac47cee	-0.0014990845
35	0x39249671	0.00015696303
36	0x3c7550a5	0.01497284
37	0xbe178375	-0.1479624
38	0x3e49b5af	0.19698213
39	0x3d4e4ec5	0.05036809
40	0xbcda7b1e	-0.026670035
41	0xbca9e0fb	-0.020737162
42	0x3da30a78	0.07960981
43	0xbe41350a	-0.18867889
44	0xbdad1ca7	-0.084527306
45	0x3d8d5958	0.069018066
46	0x3cf866e2	0.030322496
47	0x3d26c480	0.04071474
48	0x3d2bef38	0.041976184
49	0xbce56a37	-0.028004749
50	0x3d9b3fce	0.07580529
51	0xbb104117	-0.0022011453
52	0x3e0c3470	0.13691878
53	0x3da35b6d	0.079764225
54	0xbe4f2eee	-0.20232746
55	0xbe39d220	-0.18146563
56	0x3d0cfd39	0.03442118
57	0x3c912716	0.017718833
58	0x3ddeb390	0.108740926
59	0x3e88c7e5	0.26715007
60	0x3d99f4d6	0.07517402
61	0xbda94970	-0.0826596
62	0xbdf961dc	-0.12176868
63	0x3bbc27f6	0.0057420684
64	0xbd076a5c	-0.033060417
65	0xbdbc8aff	-0.09206199
66	0xbd700ed2	-0.058607884
67	0x3e0a6ae4	0.13517338
68	0xbd413a11	-0.047174517
69	0xbcbf059d	-0.023318106
70	0x3e132620	0.14370012
71	0x3da8091c	0.082048625
72	0xbc6b566b	-0.014363865
73	0xbd9d79a7	-0.07689219
74	0x3c9b0432	0.018922899
75	0x3d9af9a9	0.0756715
76	0xbd26545e	-0.040607803
77	0xbe0b0901	-0.13577653
78	0x3b94ebc3	0.0045447065
79	0xbddc3dfd	-0.10754011
80	0xbc47e358	-0.012200199
81	0x3c1735e5	0.009229158
82	0xbe0c7111	-0.13715006
83	0xbd254ab7	-0.040354457
84	0x3c99273d	0.018695468
85	0xbd28d99c	-0.041223153
86	0xbdbfc187	-0.09363084
87	0xbe16b530	-0.14717555
88	0xbd9b5f38	-0.07586521
89	0x3e429cd9	0.19005145
90	0xbe2a6a3d	-0.16642089
91	0xbe0b1de9	-0.13585629
92	0x3df8e679	0.12153334
93	0x3d44108b	0.04786734
94	0xbce3a408	-0.027788177
95	0xbd0454a8	-0.032307297
96	0x3c8e544f	0.017374186
97	0xbd1db9df	-0.03850734
98	0x3d8862b0	0.06659448
99	0xbdc1af6f	-0.094572894
100	0x3d98147d	0.07425783
101	0xbd5da696	-0.054113947
102	0x3e26a61e	0.16274306
103	0xbd8ac737	-0.067762785
104	0x3d2da3eb	0.042392652
105	0x3d833d05	0.06408123
106	0x3db293da	0.08719607
107	0xbd629ed0	-0.055327237
108	0xbd2c7cf1	-0.04211134
109	0x3bd625eb	0.006535282
110	0x3dd5aaeb	0.10432991
111	0xbdae382a	-0.08506806
112	0x3b9c0da6	0.004762369
113	0x3e062015	0.13098176
114	0x3d281b8d	0.0410419
115	0x3cab525f	0.020913301
116	0x3d401512	0.046895094
117	0x3e1fbd8d	0.15599652
118	0xbc56c32a	-0.013108054
119	0x3d116622	0.035497792
120	0x3cf20586	0.02954365
121	0xbd27ae05	-0.040937442
122	0x3d7bfd34	0.06152077
123	0xbd394240	-0.045229197
124	0x3e18ce39	0.14922418
125	0x3d54345a	0.05180774
126	0xbe7fca9d	-0.24979635
127	0x3d877a63	0.0661514
128	0xbdc9560f	-0.098308675
129	0x3ce84f7f	0.02835822
130	0xbe0992c8	-0.13434899
131	0xbc39e4cf	-0.011346056
132	0x3dbaa329	0.091131516
133	0xbc5940a8	-0.013260044
134	0x3dcf3c91	0.10118974
135	0x3db3af9d	0.0877373
136	0x3e7b1a34	0.24521714
137	0xbcce8b28	-0.02521284
138	0x3d538ddd	0.051648963
139	0xbcb0b415	-0.021570245
140	0xbd527a54	-0.051386192
141	0xbdaf7b96	-0.08568494
142	0x3e27c65a	0.16384259
143	0xbdba5a87	-0.09099298
144	0x3d5aa224	0.053377286
145	0xbdf28f30	-0.11843717
146	0x3c152ede	0.009105412
147	0xbdb57fae	-0.088622436
148	0xbd4ee926	-0.050515316
149	0x3d8f2038	0.06988567
150	0x3cacf700	0.021113873
151	0xbdc80867	-0.097672276
152	0xbd2ca7ee	-0.042152338
153	0x3e129e2e	0.14318153
154	0xbe998009	-0.29980496
155	0xbd21f716	-0.03954228
156	0x3c952f53	0.018211043
157	0xbe074e7f	-0.13213538
158	0x3d536439	0.05160925
159	0x3d89a131	0.06720198
160	0xbdae84f2	-0.08521451
161	0x3d25addd	0.040449012
162	0x3dab9435	0.083778776
163	0xbe4e9a8e	-0.20176145
164	0x3d92234c	0.071356386
165	0xbe50f692	-0.20406559
166	0xbccf7730	-0.025325388
167	0x3dace89e	0.08442806
168	0x3d2e26c6	0.042517446
169	0xbcdc078f	-0.026859073
170	0x3d87a365	0.06622962
171	0xbd7bbbca	-0.061458386
172	0x3cb6541b	0.022256901
173	0x3cc19a16	0.023633044
174	0x3d801647	0.06254249
175	0x3da8abe7	0.08235913
176	0xbdac16fa	-0.0840282
177	0xbda853b8	-0.08219093
178	0x3da2e095	0.07952992
179	0xbd9c3e50	-0.07629073
180	0xbd9e0789	-0.07716281
181	0x3e35f5bd	0.17769523
182	0x3ca8f81c	0.02062612
183	0xbe25778c	-0.16158885
184	0xbdb0dc19	-0.0863573
185	0x3dbf2b7b	0.09334465
186	0x3c3f1e5b	0.011664952
187	0x3e91d1c5	0.28480354
188	0x39ac1d55	0.0003282825
189	0xbe4c8d35	-0.19975741
190	0xbd97deec	-0.07415566
191	0x3e25b66d	0.16182871
192	0xbd7fb9c2	-0.06243301
193	0xbd2c81de	-0.04211604
194	0xbd87dd92	-0.06634058
195	0x3c23dfbd	0.010002074
196	0xbd656816	-0.056007467
197	0x3db86bd1	0.09004939
198	0xbdbd30da	-0.09237833
199	0x3d7fd33b	0.062457304
200	0xbce4571e	-0.027873572
201	0x3b714121	0.0036812501
202	0xbd12a6dc	-0.03580366
203	0x3d8f8074	0.07006922
204	0xbd5e93b7	-0.05434009
205	0xbc79d0bf	-0.015247523
206	0xbcfd4fea	-0.030921895
207	0xbb7688ba	-0.0037618116
208	0xbdd48617	-0.10377138
209	0xbdd02c04	-0.10164645
210	0xbe52c8a2	-0.20584348
211	0x3d8f0987	0.06984239
212	0xbd3785d4	-0.044805363
213	0x3d859ed0	0.06524432
214	0xbdb77262	-0.08957364
215	0x3dc1cd42	0.09462978
216	0x3d608886	0.0548177
217	0x3d3c2324	0.04593195
218	0xbbb55263	-0.005533503
219	0x3c33c35a	0.010971868
220	0x3e7c746d	0.24653788
221	0xbdc8a365	-0.0979679
222	0x3cfd3a62	0.030911628
223	0xbd85cf98	-0.06533736
224	0x3cb0be56	0.021575134
225	0x3dcf7697	0.10130041
226	0x3e1fd21f	0.15607499
227	0xbdc02134	-0.09381333
228	0xbd337ad9	-0.04381833
229	0xbc36ad0c	-0.011149656
230	0x3d98a9b9	0.07454247
231	0xbdc5b834	-0.096542746
232	0x3d449ddc	0.04800211
233	0xbce665b2	-0.028124664
234	0x3d2ca8fe	0.04215335
235	0xbddcac08	-0.10775
236	0x3d1222c1	0.035677675
237	0x3df00efd	0.11721609
238	0x3dcf03f3	0.10108175
239	0xbd4487d8	-0.047981113
240	0x3d887a2a	0.06663926
241	0x3d9f430a	0.077764586
242	0x3df342a8	0.11877948
243	0x3d9433a1	0.0723641
244	0x3d8c818a	0.06860645
245	0x3e150235	0.14551623
246	0x3dffec2b	0.12496217
247	0x3ca86a9b	0.020558646
248	0x3d572f49	0.05253533
249	0x3d7c82de	0.061648242
250	0x3c2dfaf8	0.010618918
251	0xbda20a2a	-0.07912095
252	0x3e4e7e5b	0.20165388
253	0xbd8c5cd1	-0.06853641
254	0xbe35654a	-0.1771442
255	0xbdb6dc36	-0.08928721

rnn.weight_hh_l1 f4 [256, 64]
0	0xbd709597	-0.05873641
1	0xbdc762a5	-0.09735612
2	0x3cb1b91e	0.021694716
3	0x3dd2e815	0.102981724
4	0xbd415dc5	-0.047208566
5	0xbe2454f3	-0.1604803
6	0x3cdb9f1b	0.026809266
7	0x3d2eefb5	0.04270907
8	0xbcc690a3	-0.02423889
9	0x3df46878	0.11933988
10	0x3de88af3	0.113546275
11	0xbdddfc53	-0.10839143
12	0x3de6b73f	0.1126542
13	0xbe13f566	-0.14449081
14	0x3d900857	0.07032841
15	0xbde2139a	-0.11038895
16	0xbdc4bb30	-0.09606016
17	0xbe1b32db	-0.15156119
18	0xbd1b3d04	-0.037899986
19	0x3e309326	0.17243633
20	0x3dd4ebc4	0.10396531
21	0xbe0c8539	-0.13722695
22	0xbcd85485	-0.02640749
23	0x3c8bfd60	0.017088592
24	0x3db78700	0.08961296
25	0x3c55281b	0.01301005
26	0x3e0747f6	0.13211045
27	0x3d88a200	0.06671524
28	0x3c08ce7e	0.008350013
29	0x3e2009e7	0.15628777
30	0x3e27ad52	0.1637471
31	0x3d2a7e56	0.04162439
32	0x3d9eafa6	0.07748346
33	0x3e020ed9	0.12700976
34	0x3ce649f1	0.02811143
35	0x3e125028	0.1428839
36	0xbdc0f621	-0.09421945
37	0x3a7e3fb9	0.00096988265
38	0xbd877ac6	-0.06615214
39	0xbd489b22	-0.04897607
40	0x3da6c43c	0.081428975
41	0xbb9fa9d8	-0.004872542
42	0xbd13a273	-0.036043596
43	0x3dd67439	0.104713865
44	0xbe2d2eb9	-0.16912355
45	0xbdc0eebc	-0.09420535
46	0xbd78f869	-0.060783777
47	0x3e3b8c72	0.18315294
48	0x3d8a0ac9	0.06740338
49	0xbe003560	-0.12520361
50	0x3cdad9f9	0.026715266
51	0xbe066189	-0.13123144
52	0xbe140ae8	-0.14457285
53	0x3d264bd4	0.04059966
54	0x3bc3c55a	0.005974454
55	0xbb9bb6c5	-0.0047520124
56	0x3d8e6a94	0.06953922
57	0xbcae3a02	-0.021267895
58	0xbc9ecb03	-0.019383913
59	0xbcc39776	-0.023875933
60	0xbe1a2e16	-0.15056643
61	0xbcc66cb4	-0.024221756
62	0xbd7e0b31	-0.06202239
63	0xbd15ee20	-0.036604047
64	0xbdc20b02	-0.09474756
65	0xbc962e2f	-0.018332569
66	0xbd235630	-0.039877117
67	0x3d1c6ab7	0.03818771
68	0x3e37316f	0.17889951
69	0xbd89c1c9	-0.06726415
70	0x3d23060c	0.03980069
71	0x3e09cb70	0.13456511
72	0x3c33a12a	0.0109637175
73	0x3ca0f7f8	0.01964949
74	0xbccfbb52	-0.025357876
75	0xbd71cab5	-0.059031207
76	0x3dab543c	0.08365676
77	0xbcf8d29f	-0.03037387
78	0xbe612380	-0.21986198
79	0xbdd49a07	-0.10380941
80	0xbe2c0ddd	-0.16802163
81	0xbe32d65c	-0.17464584
82	0xbc175e97	-0.009238861
83	0x3de978d5	0.114
84	0x3db0c706	0.08631711
85	0xbdba4082	-0.09094335
86	0x3ca8eff2	0.020622227
87	0xbbe0ed87	-0.006864253
88	0x3cd6b3b6	0.02620874
89	0xbd4e52ad	-0.050371815
90	0xbc4ee6b4	-0.012628246
91	0xbe53257d	-0.2061977
92	0x3e50e480	0.20399666
93	0x3d3e9340	0.046527147
94	0x3e07980e	0.13241598
95	0x3d3aac89	0.0455747
96	0x3e0c4ba9	0.13700737
97	0x3e226984	0.15860564
98	0xbc974706	-0.018466484
99	0x3e0a52ae	0.13508102
100	0x3bc33a86	0.0059579043
101	0x3e0a6841	0.13516332
102	0xbe40628a	-0.1878759
103	0x3e0f556c	0.1399743
104	0x3e339f4d	0.17541237
105	0x3e7f071b	0.24905054
106	0x3d98c2ca	0.07459028
107	0x3d478fb3	0.048721027
108	0xbdf1f77a	-0.118147805
109	0xbe44b55d	-0.1920981
110	0xbb8f45e9	-0.0043723476
111	0x3dd82146	0.105532214
112	0x3dc1a8b6	0.09456007
113	0xbe5ef7bc	-0.2177419
114	0x3d3e0174	0.046388105
115	0xbdaead63	-0.08529165
116	0xbd4f90e7	-0.0506753
117	0x3e5abadc	0.21360344
118	0xbe2ef61f	-0.17086075
119	0xbe403483	-0.18770032
120	0xbd8f64e7	-0.070016675
121	0x3d12e23e	0.035860293
122	0xbe2b13b2	-0.16706732
123	0xbe319e28	-0.17345488
124	0xbe191dee	-0.14952824
125	0xbdfdd879	-0.123948045
126	0xbc9b318c	-0.018944524
127	0x3d353d1a	0.044247724
128	0x3d20012d	0.03906362
129	0xbe7047a1	-0.23464824
130	0xbd859717	-0.06522959
131	0xbe271b43	-0.16318993
132	0x3d00408f	0.031311568
133	0xbdfbc4b0	-0.122933745
134	0x3dc86c41	0.09786273
135	0xbc760f8b	-0.015018354
136	0xbd6f72da	-0.05845914
137	0xbcbecf0a	-0.023292083
138	0x3dbc63f7	0.09198754
139	0xbd93f26f	-0.07223975
140	0x3e5422e5	0.20716436
141	0x3d262d11	0.040570322
142	0xbc569820	-0.013097793
143	0xbe0a4637	-0.13503347
144	0x3bb5666a	0.0055358903
145	0xbe22b977	-0.15891062
146	0x3d0722d5	0.032992203
147	0x3e2ce5c5	0.16884525
148	0x3d8f0fd6	0.06985442
149	0xbcf30f86	-0.029670488
150	0x3def2c48	0.11678368
151	0x3d6d7c84	0.057980075
152	0xbcfc877e	-0.030826326
153	0xbd18301d	-0.03715526
154	0x3d85027a	0.06494613
155	0xbcb56dad	-0.022147024
156	0xbb4f59d0	-0.0031639226
157	0x3d23cb4b	0.039988797
158	0x3ce404fe	0.027834412
159	0x3e05b58d	0.13057537
160	0x3e24f5a2	0.16109326
161	0x3e362481	0.17787363
162	0x3e442dca	0.19158092
163	0x3c0e1b18	0.008673452
164	0xbe541c6d	-0.20713969
165	0x3e077c08	0.13230908
166	0xbc9f1775	-0.019420365
167	0xbd434ab9	-0.047678683
168	0x3d182cf3	0.037152242
169	0xbd7cb408	-0.06169513
170	0x3c91c71b	0.017795136
171	0x3dec4d9a	0.11538239
172	0xbdeb4fcb	-0.11489829
173	0x3bfbcd68	0.0076843984
174	0xbc7e5104	-0.015522245
175	0x3ddceb92	0.10787119
176	0x3dd2807f	0.10278415
177	0xbca7ecae	-0.0204986
178	0x3e0bf152	0.13666275
179	0xbdae0cad	-0.084985115
180	0x3b93f804	0.0045156498
181	0x3db9ceed	0.09072671
182	0xbe24c099	-0.16089095
183	0xbd23b3e0	-0.039966464
184	0xbb9995a3	-0.0046870275
185	0xbd0d98bc	-0.034569487
186	0xbd8df090	-0.06930649
187	0xbdd17b09	-0.10228545
188	0xbc3d11c1	-0.011539877
189	0xbda2b0ed	-0.07943902
190	0xbc2116b0	-0.009832069
191	0x3d361bf3	0.04446025
192	0x3dc3df7b	0.0956411
193	0xbe189139	-0.14899148
194	0x3d25ec88	0.040508777
195	0x3d81b378	0.06333059
196	0x3d083cf3	0.03326125
197	0xbb1405a5	-0.0022586372
198	0x3daeb617	0.08530825
199	0xbd4cd6f0	-0.050009668
200	0x3d27d337	0.040972915
201	0x3e1208d5	0.14261182
202	0xbc6c8b30	-0.014437482
203	0xbe074cb1	-0.13212849
204	0x3d558bb2	0.052135177
205	0xbe0c9ecb	-0.1373245
206	0x3dbeb2f2	0.09311475
207	0x3bd4b467	0.006491232
208	0xbd74af22	-0.059737332
209	0xbdf417ba	-0.11918588
210	0xbd54ed72	-0.051984258
211	0x3dc46114	0.09588829
212	0x3c692e51	0.014232234
213	0xbbf48352	-0.0074619437
214	0x3d32b88e	0.043633036
215	0xbda01f14	-0.07818428
216	0xbdd2c8ec	-0.10292229
217	0x3a51d632	0.0008004635
218	0x3dee0b2d	0.11623225
219	0x3c513316	0.0127685275
220	0x3e01f2b1	0.12690236
221	0x3d3ffd46	0.0468724
222	0x3e147d96	0.14501032
223	0x3d38d3df	0.04512393
224	0x3df861a0	0.121279955
225	0x3ce5306f	0.027977196
226	0x3da1f101	0.07907296
227	0x3c32a4c9	0.010903546
228	0xbd1520e0	-0.036408305
229	0x3c469943	0.012121501
230	0x3db117ad	0.08647094
231	0x3d6dc990	0.058053553
232	0x3e0102a9	0.12598671
233	0xbd23077b	-0.039802056
234	0x3d0be7d5	0.03415664
235	0x3da51ef7	0.08062547
236	0x3de836a9	0.113385506
237	0xbd71f89d	-0.059074987
238	0xbcb258df	-0.021770893
239	0x3de99f25	0.114073075
240	0x3d2f4f05	0.04279997
241	0xbd05e21c	-0.032686338
242	0x3e2869a5	0.1644655
243	0xbda26be6	-0.07930736
244	0xbd98a9bc	-0.07454249
245	0x3d970fce	0.073760614
246	0xbd491cc2	-0.04909969
247	0xbde7b395	-0.113135494
248	0xbdba2645	-0.090893306
249	0xbdbab635	-0.091167845
250	0x3d8ac7ad	0.067763664
251	0xbcf1bd3c	-0.02950918
252	0xbd4c2181	-0.04983664
253	0xbdad343f	-0.08457231
254	0xbd0f1381	-0.03493071
255	0x3d54c299	0.051943395

rnn.bias_ih_l1 f4 [256]
0	0x3df1ffdf	0.11816382
1	0x3dd02f40	0.10165262
2	0x3e0b2da9	0.13591637
3	0x3df9cd9d	0.12197421
4	0x3d99675a	0.07490416
5	0xbd3bebfb	-0.045879345
6	0x3de0b072	0.10971154
7	0xbda76ac6	-0.08174662
8	0x3d72dbe8	0.05929175
9	0xbd3f90bf	-0.0467689
10	0xbd2c5890	-0.042076647
11	0xbd853c7c	-0.06505677
12	0x3d65b0f7	0.05607697
13	0x3dd09792	0.1018516
14	0xbdbbf228	-0.09177047
15	0x3d96dcf7	0.073663644
16	0xbc4110ec	-0.01178382
17	0x3c7404bd	0.014893708
18	0x3c474f9f	0.012164979
19	0xbd740490	-0.059574664
20	0xbd2fd773	-0.042930078
21	0x3cb2cea8	0.021827057
22	0x3dbda51f	0.0926001
23	0xbd98e76a	-0.07466014
24	0x3c783139	0.015148454
25	0x3d936832	0.07197608
26	0xbdd1f783	-0.10252287
27	0x3dd72416	0.1050493
28	0xbc68a2ac	-0.01419894
29	0x3d8ab2f6	0.06772415
30	0x3d8bf1cd	0.06833229
31	0x3d0e05b8	0.034673423
32	0xba6381c6	-0.00086787005
33	0x3dff9e02	0.124813095
34	0x3d5a355e	0.05327355
35	0x3de04e2b	0.10952409
36	0xbc66d75f	-0.014089434
37	0xbcbfd5d3	-0.023417389
38	0xbdd4ae16	-0.10384767
39	0x3c821caf	0.015882818
40	0x3d9e9cdf	0.077447645
41	0x3db2ccd9	0.08730478
42	0xbd22237c	-0.03958462
43	0x3dc3140a	0.095253065
44	0xbdbda032	-0.092590705
45	0x3c942ae7	0.018086864
46	0x3dd625c8	0.10456425
47	0xbdb33c8d	-0.087517835
48	0xbdb63fc5	-0.08898882
49	0xbd86eaf7	-0.06587785
50	0x3e0639e1	0.13108017
51	0x3de4527b	0.111485444
52	0x3d628d71	0.05531067
53	0xbd6033c0	-0.054736853
54	0x3d69d5f4	0.057088807
55	0xbc89eea1	-0.01683742
56	0x3d5545fb	0.05206869
57	0x3cacd903	0.021099573
58	0x3bdc5de7	0.006725061
59	0x3deff80b	0.11717232
60	0x3d02ce0d	0.031934787
61	0xbd44b7bd	-0.04802679
62	0xbda24496	-0.07923238
63	0x3b8242c8	0.003975246
64	0x3da29715	0.07938973
65	0xbd06fa50	-0.03295356
66	0xbda99390	-0.082800984
67	0xbd92756a	-0.07151301
68	0xbdb480a7	-0.08813601
69	0xbd42503f	-0.04743981
70	0xbdd98453	-0.10620942
71	0x3d77124b	0.06032018
72	0x3bdeb460	0.0067964047
73	0xbdf8115c	-0.12112686
74	0xba8581ce	-0.001018578
75	0x3da4ffe1	0.080566175
76	0xbc3652d2	-0.011128144
77	0xbc875151	-0.016518267
78	0x3c9827c0	0.018573642
79	0xbdc8b452	-0.09800018
80	0x3d8ee968	0.069781125
81	0xbdc7660f	-0.09736263
82	0x3de078f0	0.10960567
83	0x3dca6de6	0.09884243
84	0x3dc64e18	0.09682864
85	0x3dc8d591	0.098063596
86	0x3d32c8c4	0.043648496
87	0xbd03b452	-0.03215439
88	0xbb959034	-0.0045643095
89	0xbd83c021	-0.0643313
90	0x3d1b0dca	0.037854947
91	0x3dcd4406	0.1002274
92	0x3d228ba7	0.039683964
93	0xbe044362	-0.1291633
94	0xbb232413	-0.0024893328
95	0x3dd14efa	0.10220142
96	0x3c8b9cf6	0.017042618
97	0xbd8c2a52	-0.068440095
98	0xbdd22ad6	-0.102620766
99	0xbcea0263	-0.028565591
100	0xbd645d9e	-0.055753343
101	0x3d0153e9	0.031574164
102	0xbbf30540	-0.0074163973
103	0x3da76aa6	0.081746385
104	0x3d9795d9	0.07401628
105	0x3d0319ef	0.032007154
106	0x3df9f35b	0.122046195
107	0xbc21a627	-0.009866274
108	0x3d1c5cd1	0.038174454
109	0x3d908fdf	0.07058691
110	0x3d3a7122	0.045518048
111	0x3d1e8f2d	0.03871076
112	0x3d644bee	0.055736475
113	0x3d94e85b	0.07270881
114	0xbcb6e865	-0.022327611
115	0xbdc3b469	-0.09555895
116	0x3da3da18	0.080005825
117	0x3de16ed6	0.110074684
118	0xbde832f5	-0.11337844
119	0xbdaa9f8b	-0.08331212
120	0x3d2fe85c	0.042946205
121	0x3cdd6cd0	0.027029425
122	0xbd609dde	-0.054838054
123	0xbdc06e10	-0.09395993
124	0x3d878048	0.066162646
125	0x3d82203d	0.06353805
126	0x3de742b7	0.11292022
127	0x3d596e66	0.0530838
128	0x3c25daad	0.010122937
129	0x3cec7deb	0.028868636
130	0x3e0697d0	0.1314385
131	0xbdaeb774	-0.08531085
132	0xbd8e748c	-0.06955823
133	0xbdf445c7	-0.119273715
134	0x3d14544d	0.036213208
135	0xbd399d18	-0.045315832
136	0x3d6e2873	0.058144044
137	0xbca3b9e4	-0.0199861
138	0x3d7b5a95	0.061365683
139	0x3d9a91a3	0.07547309
140	0x3dae1312	0.08499731
141	0xbd40b331	-0.04704589
142	0x3c8b6873	0.017017579
143	0x3db449d7	0.08803146
144	0x3d557fd5	0.052123863
145	0x3d223f91	0.039611403
146	0x3e191e28	0.1495291
147	0x3bff73a5	0.0077957683
148	0x3dbf64bd	0.09345386
149	0x3d153c5d	0.03643452
150	0xbe001289	-0.1250707
151	0x3d47f61b	0.04881869
152	0x3c19d275	0.009388556
153	0xbda8f10f	-0.08249103
154	0x3dc48725	0.09596089
155	0x3dda5a7e	0.10661791
156	0xbd19136b	-0.037372034
157	0xbb9fff46	-0.004882726
158	0x3dfb8ccb	0.122827135
159	0x3dc12f77	0.09432881
160	0x3d13eb01	0.03611279
161	0xbde4faa5	-0.11180619
162	0xbd1db247	-0.038500097
163	0xbc738a28	-0.014864482
164	0x3d8f448d	0.06995497
165	0xbdddfb1e	-0.108389124
166	0xbdf14872	-0.11781396
167	0xbd181d25	-0.03713717
168	0xbda11260	-0.07864833
169	0xbd252f56	-0.040328346
170	0xbd459dc5	-0.048246164
171	0xbc78cfab	-0.015186231
172	0xbd8d7240	-0.06906557
173	0x3dc4319a	0.09579773
174	0x3da962e7	0.08270817
175	0xbd1772bb	-0.03697465
176	0x3dc8d423	0.09806087
177	0xbca03559	-0.019556688
178	0x3b64a1f5	0.0034886573
179	0x3cceb641	0.02523339
180	0xbd1cfafa	-0.038325287
181	0xbd24b6b2	-0.040213294
182	0xbdb1ec61	-0.08687664
183	0x3b329944	0.0027251998
184	0x3d95bd8b	0.07311543
185	0x3d5692ed	0.052386213
186	0xbbfd65b3	-0.0077330708
187	0x3c049fe8	0.008094765
188	0xbc8fed7c	-0.017569296
189	0xbd741091	-0.05958611
190	0xbd85991b	-0.06523343
191	0x3de356f7	0.111005716
192	0xbd8dd2a2	-0.06924941
193	0xbdd75f69	-0.10516245
194	0x3e0a8ae7	0.1352955
195	0x3d41ba29	0.047296677
196	0xbd597b47	-0.053096082
197	0x3e20fee7	0.15722238
198	0x3de4c2c2	0.111699596
199	0x3d8e95b9	0.06962151
200	0xbc803e2f	-0.015654651
201	0xbd32c33b	-0.043643218
202	0x3b2946a7	0.0025829466
203	0x3e0199b8	0.12656295
204	0xbd8dca18	-0.06923312
205	0xbda1668f	-0.078808896
206	0x3d875c7a	0.066094354
207	0x3dd20a5e	0.10255884
208	0x3e1f818c	0.15576762
209	0x3dc30b6e	0.095236644
210	0x3d7e09c5	0.062021036
211	0xbba30ff0	-0.004976265
212	0xbde4f852	-0.11180176
213	0x3d074688	0.03302625
214	0x3d3a0478	0.045414418
215	0x3e1bd5ee	0.15218326
216	0x3e220099	0.1582054
217	0x3d8c81e1	0.0686071
218	0xbc88c3ef	-0.01669499
219	0xbdbe7d41	-0.09301234
220	0x3d4b829e	0.049685113
221	0x3d450728	0.048102528
222	0x3df59ac1	0.119924076
223	0x3df4e921	0.11958528
224	0x3e08ad54	0.1334737
225	0xbd295614	-0.041341856
226	0xbcefe06e	-0.029281821
227	0x3de9954c	0.11405429
228	0xbd04ea96	-0.03245028
229	0x3ddc6ef7	0.10763352
230	0xbd297e45	-0.041380186
231	0xbd00e923	-0.031472337
232	0x3df31d8f	0.11870872
233	0xbde30a23	-0.11085918
234	0x3df3f7c8	0.11912495
235	0x3e2d2bc2	0.16911224
236	0xbd4b5597	-0.04964217
237	0xbd72e1b7	-0.05929729
238	0x3d4c2799	0.04984245
239	0x3e1871df	0.14887188
240	0x3e01fb0b	0.12693422
241	0x3e197243	0.14984994
242	0xbd7cf03b	-0.06175254
243	0x3e030461	0.12794639
244	0x3cc154a9	0.02359994
245	0x3de428be	0.111405835
246	0x3d8e663a	0.06953092
247	0x3dbe1808	0.09281927
248	0x3c513daa	0.0127710495
249	0x3e15cbd4	0.14628536
250	0x3d2c10be	0.042008154
251	0x3cf7301e	0.030174311
252	0x3d932e03	0.071865104
253	0xbc4b1749	-0.012395688
254	0xbc3aed0e	-0.011409057
255	0xbcd8c5af	-0.02646145
