notebooks/checkpoints/LSTM_optuna/trial_001/LSTM_trial_1/checkpoints/best-epoch=8-val_loss=11.19.ckpt (torch, 217786 bytes, 30 tensors)

rnn.weight_ih_l0 f4 [128, 30]
00000000: d530 67bd 91bb e3bd b74b 0c3e f941 08be
00000010: 0e72 2a3e f0c9 2cbd 2865 0b3e 7c16 a13d
00000020: 8226 f9bd aa7a 7bbe 199d 483e a9af 12bd
00000030: 7edd ad3c d9ba 513d 6b02 f83d 3ebf adbd
00000040: 3e57 50bd fda3 613d 42d8 e7bd 0639 95bd
00000050: e896 9d3d 0a9e 9f3e 0d56 273c cabf e5bd
00000060: dbde d9bd 1acf 86bd f129 b1bd ff8f a9bd
00000070: a812 a83d 5828 a33d 211f 68bc 3473 05bd
00000080: 4ba3 6d3e 4fb7 92bd 8cb4 733e b1f0 b63d
00000090: 8722 9dbd 5df2 253e f614 a8bd 239f 383e
000000a0: ab81 1cbe a7de 163e c514 43bc d2e2 853c
000000b0: 0749 a13c f986 3d3d b5ad 2dbd d6bd aebd
000000c0: 3e91 85bd d808 7a3c 1697 4e3d d206 073e
000000d0: 1f39 073e db37 8dbc 64b0 dbbc 158b 1c3e
000000e0: 103e ca3c 3417 353e 78c5 a4bd 9bb1 353e
000000f0: 8fae e83d da78 58bd 21f3 fa3d 4bed 73bd
00000100: 9314 b93e 6ba4 a9bd 2a6a a8bd 1475 a6bc
00000110: 7015 67bc 36fb 1abd dd9e 20be 28b5 9e3c
00000120: 7587 653d 9027 0ebc bba5 2e3c 80c4 123e
00000130: 4416 5d3e 14e9 5cbe 4faf 043e 0554 663d
00000140: 48cb a2bd 1f75 d63d 0c99 10bd 8e5e 013e
00000150: 3557 bd3d b9e8 bebd c750 ce3d 0ece 083e
00000160: f57a a93c 2333 143e 78aa 023e cfc6 0bbe
00000170: d129 ac3d 5b75 893e 0879 1d3e 5bb7 0f3f
00000180: 32ed 26be 46ac c23d 1e59 3b3f 8db7 08be
00000190: d86d 6e3d d3cf 7abe 0ccf 0f3d 4dcf 383e
000001a0: 103a 7e3d ebd0 253e ef2f 3539 2b92 1abe
000001b0: de04 a8bc f585 b93d 9c3d aa3d f8b8 6c3e
000001c0: 20ee 023e e909 acbd f1ca 33be 5b96 ef3d
000001d0: 6430 bc3c ffa7 373e f5ea 0abe 775b a1bd
000001e0: 37f3 46be 6e01 c4bd 3344 2dbe c718 3e3e
000001f0: 8ee4 8d3d 96fc 4f3e ab8e b73a 4537 01bd
00000200: 0772 f6bd 3615 92be ee85 00bc 7374 a83d
00000210: 4e62 6cbe 88b3 6ebd de59 95bc b9ba 66be
00000220: 37d1 80bd 18a5 d6bd 46bf f2bd e312 99bd
00000230: 3ec5 103d 7f15 02be 7ef3 01be 44be bebb
00000240: b96c c63c 470e f63c eeda 3fbe bd91 1bbe
00000250: c79d 92bd 54f3 69be 5daf 0a3e c6c3 febd
00000260: 8ea2 ef3d 4eae 9cbe ec6a 713e 7cf3 a53d
00000270: a0e5 2e3e d520 fdbd ce50 c33d 6082 893e
00000280: 6e03 02bc d4a6 54be a12f 17bc 4b5c 28be
00000290: e949 1f3e 7cbb 07bd de1f bdbd f2ce cebc
000002a0: ff37 79be 0567 3d3e e7ea 403c a59a 8b3e
000002b0: 0cb6 6fbc 3879 7b3d 0a0f 793e 9d7c 1fbd
000002c0: 531f 743e f6ff 943d 005b 07be e52b 323e
000002d0: 9a0f 0c3c 34eb 683d 67d7 c83d a675 2c3e
000002e0: 6695 60be 8282 86bd 8784 623d 74a0 bd3d
000002f0: 6619 6f3c 617d 063e 33b5 613b f6cd 3fbe
00000300: 801a 39be 5167 06be 7e0d 093d be23 c9bd
00000310: 514b 65bd 8777 a93d c4b7 ecbd 849c 013e
00000320: 84a4 5b3e 21c0 1d3e 0021 73be 9965 a73d
00000330: e645 e63c 2b03 2ebe de61 c33d fc9b cb3d
00000340: 5dd8 453e b5ec 163e be8c c83d e827 e63d
00000350: c7b7 0c3e 7e19 66bd b50d 1f3e 37bf b93d
00000360: 0bc4 a0bd 0133 b33c 0bdc 4a3f f258 bfbd
00000370: cfea 8f3e 066c a9bd de1a 12be 7c15 323d
00000380: f705 70bc dc3b f83c f03b b0bd e024 c2bd
00000390: b72f 2bbe 89c4 193d b86d 073e 4c06 053b
000003a0: a7b4 803e d8ff ce3d e561 1cbd 6a56 7ebc
000003b0: 9536 233e 8a96 d43d f527 2cbe 8002 133e
000003c0: 841d 163e 6b07 1d3e 3dea 403e 4c4a 6c3d
000003d0: 6cfe af3d 6fa0 443e 52c1 433d ef38 113e
000003e0: 2007 2a3e 7b4b 4a3e 8f8d ebbd 1541 a73d
000003f0: 72f0 413e 5ce6 203e eef8 dc3d 2c86 f43d
-0.056443054 -0.1111976 0.13700758 -0.13306417 0.16645071 -0.04218477 0.13612807 0.07865617
-0.12165548 -0.24558511 0.19591178 -0.035812054 0.02122378 0.051203582 0.12109836 -0.08483742
-0.05086445 0.055088032 -0.11320545 -0.07286267 0.07694799 0.31175262 0.010213387 -0.112182215
-0.106382094 -0.0658247 -0.08650578 -0.08279418 0.082066834 0.07966679 -0.014167578 -0.03258057
0.23206823 -0.071638696 0.23799342 0.08932627 -0.07672601 0.16205736 -0.08207123 0.18029456
-0.1528384 0.14733373 -0.011906807 0.016343508 0.019688142 0.046271298 -0.042401988 -0.08532302
-0.065218434 0.015260898 0.050437056 0.13186195 0.13205384 -0.017238548 -0.026817508 0.1528743
0.024687797 0.17684633 -0.08045477 0.17743532 0.113614194 -0.052849628 0.122534044 -0.059552472
0.3614851 -0.08283313 -0.08223374 -0.0203195 -0.014104232 -0.03783723 -0.15685602 0.019373491
0.056037385 -0.008676425 0.01065963 0.14332771 0.21590525 -0.21573287 0.129575 0.05623247
-0.07948929 0.10471558 -0.035302207 0.12633726 0.09245149 -0.09321732 0.10074001 0.13359854
0.020688513 0.14472632 0.12760341 -0.13650058 0.08406413 0.26847348 0.15378201 0.56139153
-0.1630142 0.09505515 0.7318286 -0.13351269 0.058210224 -0.24493341 0.035109565 0.18047829
0.06206709 0.16192977 0.00017279362 -0.15094821 -0.020510133 0.090587534 0.08312532 0.23117435
0.1278615 -0.08400328 -0.17557885 0.116986 0.022972293 0.17935179 -0.13566191 -0.07878774
-0.19428717 -0.09570585 -0.16920547 0.1856414 0.06928359 0.20311198 0.001400431 -0.03154685
-0.12033468 -0.28531808 -0.007844431 0.08225336 -0.23084375 -0.058276683 -0.018231329 -0.22532167
-0.062899046 -0.10480708 -0.11852889 -0.074743055 0.035344355 -0.12703513 -0.12690541 -0.0058210213
0.024221765 0.030036105 -0.18735859 -0.15192313 -0.07159 -0.22846729 0.13543458 -0.124396846
0.11700927 -0.30601734 0.23575944 0.081030816 0.17079782 -0.12359778 0.09536897 0.2685728
-0.007935388 -0.20766765 -0.009227664 -0.16441457 0.15555538 -0.033137783 -0.09234594 -0.025245164
-0.24337767 0.1849633 0.011774755 0.27266422 -0.014630806 0.0613949 0.24322143 -0.0389372
0.23840074 0.07275383 -0.13218307 0.17399557 0.008548642 0.056864932 0.0980671 0.16841754
-0.21931991 -0.06567861 0.05530217 0.0925912 0.014593458 0.13133766 0.0034440279 -0.18730912
-0.18076515 -0.1312535 0.033460133 -0.098212704 -0.05598003 0.08274751 -0.11558488 0.12657362
0.21449476 0.15405323 -0.23743057 0.08173675 0.028109502 -0.16993396 0.09540151 0.09941861
0.19320817 0.14738734 0.097924694 0.1123808 0.1374198 -0.056176655 0.15532573 0.090696745
-0.07849892 0.021874906 0.7924201 -0.09343137 0.28108832 -0.08272557 -0.14268062 0.04347752
-0.01464986 0.03030198 -0.08605182 -0.094796896 -0.1671742 0.037540946 0.13225448 0.0020297943
0.25137827 0.10107392 -0.038179297 -0.015523532 0.1593879 0.103802755 -0.16812117 0.14356422
0.14659697 0.15334861 0.18839355 0.057688043 0.08593449 0.19201826 0.047791786 0.14181875
0.1660428 0.19755356 -0.115016095 0.0816671 0.18939379 0.15712875 0.10789667 0.11939654

rnn.weight_hh_l0 f4 [128, 32]
00000000: 41d9 9a3c b995 d0be 4e13 cdbe 4f31 a23e
00000010: 05ac a53d b2a9 983d c875 f03d 50e6 03bc
00000020: c040 d23e bb17 3d3e 5ed5 7fbd d1ef e738
00000030: 3ad7 5abe f27d adbe b515 9bbd 350f 0bbe
00000040: 2a05 a73d c5d1 813e 1191 a1bd ba7f b33d
00000050: 3bd1 05bf b55e 743e 0649 273e 39ad a83e
00000060: b746 9fbd ef96 a2be fe6d 0c3e c229 74be
00000070: 42cb 7bbe 38fd ac3e da0f aabb 2b64 f6be
00000080: 83b3 6a3e 788e 403e e7af 80be 7afe 9cbe
00000090: 50da 373e 72e8 45be ee57 1a3d ceb9 80be
000000a0: 05fc 56ba 60a6 893e a81c 863d b321 f33d
000000b0: 928c a0bc a4e2 74be c066 8abd d8d1 a63c
000000c0: 74d2 803e e21f 95bd 4c09 763e 9c58 3b3e
000000d0: 6837 edbd 7aaa 983e 102f c13d b26b c93d
000000e0: 4169 1cbe d181 68bd 1208 3dbe 41b8 32be
000000f0: 7a50 9bbe f006 3dbd 1a29 adbe 3596 d13d
00000100: e680 db3e 3f70 6c3c e2bc dabd 6fb6 edbe
00000110: 1ad6 b03f d255 eabc a7c3 adbd 44ac 8abe
00000120: c887 1fbd 6d3d 3e3f e803 1f3d 75bf 96bd
00000130: 34ca 6abe 43fc 2abe 57ae 0dbf 663e f6bd
00000140: a63f 053e 7fc1 4fbe c718 1cbf 67fc 243d
00000150: 745b adbe 61c1 9cbd 7d47 973d d2ff 9bbe
00000160: dda5 0bbe 0fec 3abd 0ca7 233d 65bc 92be
00000170: 64db b03d 7f2f 553d 164c d6bc c0d9 49bf
00000180: fe0f cc3e 2df3 c13e d715 d7bd 8b85 a6be
00000190: 4fae ae3e 1672 e63b a9b1 47be 718c dd3d
000001a0: afe9 e3be 1eb3 9c3e 946c 4f3e b3b7 2cbf
000001b0: c8e7 adbd 45d9 82be 9633 19be 48a0 e73d
000001c0: fd0f 8e3e 68c7 67be f12f 533e eeb5 633e
000001d0: e2bd 02be fb89 ce3e c4e9 933e f7b8 f63d
000001e0: f485 71bb 5c3c 053f af55 e0be f4dd 8a3e
000001f0: 3d2d 9fbe 7607 c7be 5d92 a7be b967 36be
00000200: dcc3 103e dced 653f 46b7 0bbe aa17 0abf
00000210: a952 183f fc31 c2bd e982 d0be 1720 51be
00000220: 5bd8 7fbf ae22 0e3f 1f5c 2c3e 73ea c8bd
00000230: 7198 8fbe 2d0e 59bd 79b8 6cbc ca8a 273f
00000240: 486b 9f3d bf36 5fbf 69a3 cc3e f2d7 86bd
00000250: 20b0 5ebd 2099 543f b4fc 01be 1a21 19bf
00000260: f412 82bf ed1c 4c3f f03c 87bf 339c 9a3e
00000270: ac30 b7bd 77de 0cbf 3ca8 b23d 53ad 9bbe
00000280: 25e5 b13d 5674 f93c 402a eebd 5083 67be
00000290: 80c0 9c3d 7d0a d2be 9a9d 9fbe adb7 a83e
000002a0: c429 9fbe de7c f93d b435 73be 6d4b d5bd
000002b0: 9111 0d3d c3f2 803c d04e f9be 6c1e 24bd
000002c0: 0d0b 3f3e 84cc a0bd c43e 8c3e 30af 713e
000002d0: f6ee 773c e7a8 a43d 3adc 813e bb8b 673e
000002e0: 0d3f 373d 65d0 3b3e cb4a 6abe 62d2 3bbd
000002f0: ae90 82be 629d a63c d033 f3bd f24e 68bd
00000300: 3ee0 1abe 969c 6ebe 0671 bbbe a439 923d
00000310: ac78 77be 154b d83d da28 443e 7c65 a33d
00000320: a800 3d3e fffa 70be d586 ec3d 308c 263d
00000330: 480b b8bd f043 debe 5abf 793e 30a6 8b3e
00000340: 59e0 96bd 433c 9f3e c6e2 b8bd 18a6 fcbb
00000350: 3a9c aebc 85e0 89be c2d4 a33e 8a38 e53e
00000360: 9856 693e 5cfd 53bd b32d 553d 726e 15be
00000370: 6025 1a3e bfa3 0e3e 4b8e 993b 7af8 983e
00000380: 858f 92bc ce3f 2c3e 7140 913c bfa6 80be
00000390: 4a88 d93d d615 0cbe 804d 5fbe 4537 e6bd
000003a0: f71f c0be 5b96 d33e 8862 683e 4cc3 cbbd
000003b0: a65c 423e 4a85 f8bd 7256 6abe 0d97 c93e
000003c0: 3364 7b3e 958b 01bf 10da b2bd c365 18be
000003d0: 761d 063e 2acb fb3e f8d7 5bbe 9307 47be
000003e0: 8e42 28bf cd6e ca3e 3528 0abf f856 443e
000003f0: 232f ec3d 87b5 89be 12c5 b03d 5491 c1be
0.018902423 -0.4073923 -0.4005379 0.31678244 0.08089451 0.07454242 0.11741215 -0.008050516
0.41065025 0.18466084 -0.062459342 0.00011059608 -0.21371165 -0.3388515 -0.075725 -0.1358002
0.08155282 0.25355354 -0.07888997 0.08764596 -0.52272385 0.23864253 0.1633645 0.32944658
-0.0777716 -0.31755778 0.13713834 -0.23844054 -0.24589255 0.3378694 -0.005189878 -0.48123297
0.22920041 0.18804348 -0.25134203 -0.306629 0.17954373 -0.19326952 0.037681513 -0.25141758
-0.0008201006 0.26884747 0.065484345 0.11871662 -0.01959828 -0.23914582 -0.06757879 0.020363733
0.25160563 -0.07281472 0.24026984 0.1829552 -0.115828335 0.29817563 0.094328046 0.098349944
-0.15274526 -0.056764428 -0.1846011 -0.174531 -0.30334836 -0.046149194 -0.3382042 0.10233728
0.4287178 0.014431058 -0.10680558 -0.46428248 1.3815339 -0.028605375 -0.08484583 -0.27084553
-0.03894785 0.7431248 0.038822085 -0.07360736 -0.22928697 -0.16697793 -0.55344146 -0.1202362
0.13012561 -0.20288657 -0.6097531 0.040279772 -0.33858836 -0.076540716 0.07386682 -0.30468613
-0.1363749 -0.04563528 0.03995423 -0.2865936 0.086355954 0.05204725 -0.026159327 -0.78847885
0.3985595 0.3788084 -0.105022125 -0.3252376 0.34117362 0.007032643 -0.19501366 0.10817803
-0.44514224 0.30605406 0.20256263 -0.674678 -0.084914744 -0.25556388 -0.14961085 0.11309868
0.27746573 -0.22634661 0.20623757 0.2223737 -0.12767747 0.40339646 0.28889287 0.12046998
-0.0036853524 0.52045226 -0.4381537 0.27122462 -0.31089202 -0.3887288 -0.32728854 -0.17813005
0.14137214 0.8981607 -0.13644132 -0.5394236 0.5950113 -0.0948219 -0.40724877 -0.20422398
-0.9993951 0.55521667 0.16832016 -0.09810343 -0.2804599 -0.052992035 -0.014448279 0.6544615
0.07784134 -0.8719291 0.39968422 -0.06584157 -0.054367185 0.8304615 -0.12694055 -0.59816134
-1.0162034 0.7973164 -1.0565472 0.30197296 -0.0894483 -0.55026954 0.087234944 -0.30405673
0.08686284 0.030450981 -0.11629152 -0.22608685 0.07653904 -0.41023627 -0.31174928 0.32952634
-0.31086552 0.1218202 -0.23750955 -0.10414777 0.03444058 0.015740758 -0.48692942 -0.040068075
0.1865656 -0.07851508 0.27391636 0.23601985 0.015132656 0.08040028 0.25363332 0.22611897
0.044737864 0.18341215 -0.22880094 -0.045854934 -0.25501007 0.020338718 -0.11875117 -0.056715913
-0.15124604 -0.2330192 -0.36609668 0.071399 -0.24167126 0.10561196 0.19156209 0.07978341
0.18457282 -0.23533247 0.11549155 0.040661037 -0.08986527 -0.43411207 0.24389401 0.27275229
-0.0736701 0.31100664 -0.090276286 -0.0077102296 -0.021314729 -0.26929107 0.3199826 0.44769698
0.22786939 -0.051755294 0.052045535 -0.14592913 0.1505332 0.13929652 0.004686152 0.29877073
-0.017890701 0.16821215 0.017730923 -0.25127217 0.10621698 -0.13680205 -0.21806908 -0.112410106
-0.37524387 0.4132565 0.22693837 -0.09949359 0.18980655 -0.12134798 -0.22884539 0.39373055
0.24549942 -0.5060361 -0.08732998 -0.14882569 0.13097176 0.4917844 -0.21469104 -0.19436483
-0.65726554 0.3953766 -0.539676 0.19173801 0.11532428 -0.26896307 0.08631338 -0.3780619

rnn.bias_ih_l0 f4 [128]
00000000: 3585 b63d 9daf ed3d b6fa 003e ca05 e23e
00000010: ad6d 00bc 1779 013e 5d0f 37bd 53fa b5bd
00000020: ea99 623d 5d9e 923d 0fcb b03e 97f1 31bd
00000030: 9c3e cebd 28d5 f2bd d8e8 ae3e b646 b3bd
00000040: 6c6a d5bc c809 10bd e670 6e3e 0777 763c
00000050: 3992 8d3e 2d8f cbbc 5fb4 2bbd 6263 cbbc
00000060: b836 3ebd 2ab1 8d3d 00e3 023e 982c 873e
00000070: 0df2 d5bd b3ad 593e 4534 96be 6581 143e
00000080: 595c 2d3e 9aea 413c c6d2 32bd 4feb 903e
00000090: 87dd dc3b c793 ba3c 250a 3cbd cb59 1dbe
000000a0: 6166 5e3e c933 333d 71f3 593d db80 f4bd
000000b0: ad99 143e ec33 95be 2b12 1b3c f9f2 9dbd
000000c0: 846c 56be 085c 01be 8580 183c c1ad 583d
000000d0: d438 5e3c fd3e 1cbe 8e32 75be 6db1 ff3d
000000e0: 7b40 143e df52 57bb bea4 58bc 0838 0c3c
000000f0: 0198 c8be a662 da3b 84a0 b1be e573 7cbd
00000100: 16fd 833d 8a69 87bd 0ffa ebbd d13e 14be
00000110: 6a34 c93d 018b 853c 88db 78bd 0645 43be
00000120: 4ae2 153d d8e9 193e 547d d93d 5d07 f6bc
00000130: b389 5cbd 01f1 37be 050a 28be df66 1bbe
00000140: c04d e93c 021a 12be ce74 f4bd a29d c83d
00000150: da10 913d 1a4c a7bc dd4e ac3d 09b2 02be
00000160: fd87 d1bd 64ab 9abd 35fd cc3c bea2 bdbc
00000170: e1bc 9ebe b306 19be 19cc b1bd 305b 703b
00000180: 5b6b 4b3d 250f 34be 7e06 5cbe 8965 5e3f
00000190: 6604 0d3d 52d4 2e3e ab60 a33c 778c d83e
000001a0: 38da 17bd 1ce3 273f 9b8e 6a3e 9b4f e13e
000001b0: 15b3 8e3e bc55 67be 0cd1 ef3e 5312 babe
000001c0: fdd9 9d3c cf01 32bf a41b 17bf 28d6 763d
000001d0: 86af 133e 12a9 17bf 3c34 d23d ed5a 683b
000001e0: feb4 6fbf a51d f13d 30f9 eabe 74e5 ab3d
000001f0: 7ba3 f23d 2eb8 17be 905b 03be a482 423e
0.08912126 0.11605761 0.12595639 0.44145042 -0.007838649 0.12643848 -0.044692386 -0.08885636
0.055322565 0.07159112 0.3452992 -0.04344329 -0.100705355 -0.118570626 0.3416202 -0.087537214
-0.026051722 -0.035165578 0.23285255 0.015043027 0.27650622 -0.024848545 -0.041920062 -0.024827663
-0.046438903 0.06918557 0.12781906 0.2640121 -0.10446558 0.21257667 -0.29336753 0.14502485
0.16929759 0.0118357185 -0.04365804 0.28304526 0.0067402753 0.022775544 -0.045908112 -0.15366285
0.21718742 0.043750558 0.05321068 -0.1193864 0.14511748 -0.29141176 0.009464781 -0.07712359
-0.20939833 -0.12632763 0.009307985 0.05290008 0.013563354 -0.15258403 -0.23945066 0.12485013
0.14477722 -0.0032855792 -0.013222871 0.008558281 -0.3917847 0.006664592 -0.34692776 -0.061633963
0.06444757 -0.06611927 -0.11522304 -0.14477088 0.0982445 0.016301634 -0.060756236 -0.19069299
0.03659276 0.1503061 0.106196076 -0.030032808 -0.053842258 -0.1796303 -0.16410072 -0.15175961
0.028479457 -0.14267734 -0.11936341 0.09795691 0.07083292 -0.02042203 0.084134795 -0.12763228
-0.10231016 -0.075522214 0.025023082 -0.02314889 -0.31003478 -0.14943962 -0.08681507 0.0036675446
0.04966293 -0.17583902 -0.21486852 0.8687368 0.034428023 0.17073181 0.019943556 0.42294666
-0.037073344 0.65580916 0.22905962 0.44006047 0.27871004 -0.22591299 0.46839178 -0.36342105
0.019268984 -0.6953401 -0.5902655 0.06026283 0.14422426 -0.59242356 0.10263869 0.0035454587
-0.9363555 0.11773232 -0.4589324 0.08393374 0.11847588 -0.14816353 -0.12827897 0.18995148

rnn.bias_hh_l0 f4 [128]
00000000: a05d 553e b860 bc3d 1bda 043e 3ec1 ca3e
00000010: bd85 c9bc a2cb 8e3e e3ca 94bd b4ef d9bd
00000020: 706c 383e f00d 893e c300 b93e e998 81bb
00000030: 3e56 b13d 23df 0abe adae 783e 3102 a0bd
00000040: 8f83 f1bc a54f 1ebd 54ac b73d f387 6f3d
00000050: 461d f0bb c4d1 473d 023d d93d e9db af3d
00000060: ffa8 24be d566 363e f61c 653e fc3b 833e
00000070: 4f0a c93d d7a0 933e 4c51 ebbd 3710 3e3d
00000080: 7730 dfbd 8e97 afbd 45aa 08be 85ea 113f
00000090: baac a43c 1e18 a2bd 566c 073e f348 a7bc
000000a0: 0ec5 8bbd c2cb c83c 346a 1abe b32a 65be
000000b0: 84b2 3b3e 8b32 01be 6870 163c dbcb 9d3c
000000c0: c1b1 03bd f584 373d e50b 2fbe 43d9 7fbd
000000d0: fd1a 1e3e 80a3 b63d 5846 c9bd 272e 2f3d
000000e0: 215c e03d ab9b 2e3e d8b0 84be e902 8cbd
000000f0: eaa6 6abe 24ae 1f3e 7179 58be d093 e63d
00000100: 017a d7bd de00 4b3e 839c 9abe 17a9 2abd
00000110: b014 693e 4f0b 17bd a150 9fbd c37c f1bd
00000120: 88cf 5abe 6b58 bf3d 23d9 f8bd 5030 833d
00000130: 1c39 d33c c0d1 52be 3273 adbd 3b33 f83c
00000140: cb41 0f3e c8dc c5bd e6ba 1bbe 0db8 29be
00000150: 4c07 31bb 6c32 7f3e 10ab 98bd aabb e93d
00000160: b975 5abb 9b7d a43d 0335 c63d e43b bcbb
00000170: 0cad 63bd 310a e1bd 3011 7dbd 7492 05be
00000180: 8a05 653d 27e6 6dbe 72b8 c1be b3c7 533f
00000190: e593 91bc 9853 b63d 241b e93d fc73 c83e
000001a0: 64f8 80bd e69a 583f 3d08 4e3b b775 e63e
000001b0: a51c 183e 9bf1 d7bd e422 a63e 5081 82be
000001c0: 0e6a 163d 72a2 f3be 1ac5 3ebf 99cd 2e3d
000001d0: 9abe 573e cb5a 38bf 255d 243e 7680 48bd
000001e0: 26b5 6bbf 7f56 ca3d 5e90 2abf 110f 203c
000001f0: 5375 e63d 6ac9 153e 7876 debc bb43 1b3e
0.20836496 0.09198135 0.12973826 0.39600557 -0.024599904 0.27889735 -0.0726526 -0.10641423
0.18010116 0.26768446 0.36133394 -0.003954996 0.086590275 -0.13561682 0.24285384 -0.07812918
-0.029481677 -0.038650174 0.08968416 0.05847926 -0.0073277084 0.048784032 0.106073394 0.085868664
-0.16080092 0.17812665 0.22374329 0.25631702 0.09816419 0.2883365 -0.114901155 0.046402182
-0.10897916 -0.08573829 -0.13346203 0.56998473 0.020101894 -0.07914756 0.1322492 -0.020420527
-0.068246946 0.024511222 -0.15079576 -0.2237957 0.18329817 -0.12616937 0.009182073 0.019262245
-0.03215194 0.044804532 -0.17094381 -0.062463056 0.15439983 0.08917904 -0.0982787 0.042768624
0.10955072 0.1705157 -0.2591617 -0.068364926 -0.22915235 0.15593773 -0.21140076 0.11258662
-0.10521317 0.1982455 -0.30197534 -0.041665163 0.22761798 -0.03687602 -0.077790506 -0.117913745
-0.2136823 0.09343036 -0.121507905 0.06405699 0.025784068 -0.20587826 -0.084692374 0.030297866
0.13989942 -0.09661251 -0.15208015 -0.16574116 -0.0027012406 0.24921578 -0.074545026 0.11412747
-0.0033334328 0.0803177 0.0967808 -0.005744444 -0.055584952 -0.10988272 -0.06178397 -0.13044149
0.055913486 -0.23232327 -0.37836033 0.8272659 -0.017770717 0.08902663 0.1138213 0.3915099
-0.06297377 0.84611356 0.0031438016 0.45011684 0.14854677 -0.105441295 0.32448494 -0.25489283
0.036722235 -0.47584873 -0.74519503 0.042676542 0.21068802 -0.7201354 0.16051157 -0.048950635
-0.92073286 0.09879779 -0.66626537 0.009769217 0.112528466 0.14627615 -0.0271561 0.15162556

rnn.weight_ih_l1 f4 [128, 32]
00000000: d67f 493d 3601 203f 9705 53be 2632 963c
00000010: 5396 91be fe6c 4c3e 8497 2cbe 07c9 e33e
00000020: 8fd4 ffbe 2ebf 713d ccb5 36bd 1039 003e
00000030: dc6f 4d3e 26a3 0dbb c8bf d73e 60b1 e23e
00000040: 7a26 893e d919 45bf 8501 113f 6195 db3d
00000050: 8113 f23e a168 ae3e c57a 333c 6999 9b3b
00000060: 8e85 34bf 183a 113f d780 03bf 464f 9d3d
00000070: ec25 923d 3068 b7be d724 e83d 257a 293c
00000080: 8907 a6ba ecea 123d 52cb 8c3c 1309 88bc
00000090: c314 15bf 2be6 1a3e c0d2 ebbd d34f 65be
000000a0: f354 94bc 4a97 6e3d 07c6 d83d bb71 e4bd
000000b0: bb23 453d 6ec3 0cbe 6b5f 44be b916 b73d
000000c0: 96bd 213e 195e a0bc d611 bb3e 06ab 07bd
000000d0: 1ca1 bb3e 31bf 4b3e 0080 933d 3ac2 523f
000000e0: 2c5c 6fbe 748e c03c ed6e b13d e90f 7a3e
000000f0: 820b 0dbd 760b 85bd 5b85 7a3c 1860 c63e
00000100: a1ec 9cbd a367 d7bd 6595 d8be 26a1 be3e
00000110: 4209 f5bc 42d8 3d3f 7794 6f3a 447a 403f
00000120: 1641 96bb 9843 74bf bff6 ea3d 8be0 bbbe
00000130: e7a5 113f d6ae b5be b652 5a3f 30f7 0c3d
00000140: 93d0 e6bd 33a7 73bd cdfb a3bd aeb3 cfbc
00000150: 8504 0b3e fc85 ea3c 225f 51be 6aff e33e
00000160: c80b 0ebf fcfb 92bd fec1 42ba 0738 3fbe
00000170: 9c64 9bbd 9b70 0f3e b022 02be 59a8 17be
00000180: 6aa9 413e 3fbd a53d 823d e2be ad73 f33d
00000190: 9470 a3be 54b6 0b3e 1884 113e ae33 0cbe
000001a0: 36ad bbbd befd 8bbe d784 033d c03f 0cbc
000001b0: 511d 51bd b173 55be 07e3 99bd e737 6c3e
000001c0: 6b98 193e 2381 8fbd 23a8 183f 15c0 8b3d
000001d0: c56f 4e3c fb5a f53e 4d15 4b3e f6ca f53e
000001e0: 209b e2be bd78 4fbd 5afe f4bd 2daf aebc
000001f0: 930d 69bd 8bd5 89bd c3b1 903d 3540 503e
00000200: 9401 223e 4156 8a3d 9b71 2dbe 29df 60bd
00000210: d8be 1cbe 5083 90bd 52c6 e0bd f682 0bbd
00000220: d339 8fbe 1c90 603d f57c 283e 088e 3e3d
00000230: 6772 fd3d f1bb 973d ba07 48be 130f 233e
00000240: 939f 733c af29 cabd 50e9 653d a9c0 debd
00000250: fd3e b83c d9b5 353d a5c9 e6bd e863 533d
00000260: ab79 30bf 040a cb3d 48d9 c7be 0f32 8abc
00000270: f66e 93bd 19cc abbe 4cd3 60be 9e16 f0bc
00000280: 16ff 8a3d e1c1 ac3e 03e3 bc3d 2cb8 a8be
00000290: 4828 793e 2e7b fe3d b85f 84bd 6923 d33d
000002a0: 5968 0cbf 2b3b 773e 9c15 2a3e 825f cbbd
000002b0: 5bb1 40be 1e11 44be c7aa ff3d c10f bf3e
000002c0: ac68 65be d890 21bf da4a b5be 1d40 acbd
000002d0: 625f 6b3d efe3 0e3e 2360 85bd 656b c03d
000002e0: 377b 80bf c963 853e 1e2f 41be 5cff fd3d
000002f0: 2881 0cbd edd2 c8be a454 7fbd e65b 8ebe
00000300: 3bb6 943e 8d00 863e 06e9 abbe 3bb0 30bd
00000310: b885 0ebf b648 8f3e 939a 41be acb7 6abd
00000320: d785 babe 594c 0a3e 980a 3a3d 4faf f0bd
00000330: ac44 243e afed f5be 370a 663e 5186 c23e
00000340: cdc4 c93e a784 bebe 5ec1 3f3f 8fa6 d03e
00000350: ea74 463e 9660 2b3d 38dc 263f 92f7 f53e
00000360: b10a 2fbf 3f34 ca3e d6ab b2be 82b0 23bc
00000370: 4362 0ebf bd00 1bbf 119d 62be e1f1 7b3e
00000380: 24df 593e 08e3 d93a 4829 41be 427d 3d3e
00000390: 35af a5be 9940 4d3e 6962 abbd 7ca4 02bd
000003a0: 3cbd 21be 50d6 8e3d 5486 a93d 7281 2b3e
000003b0: 0b90 383d c379 8f3d 0d10 98be d909 513e
000003c0: 6130 923e 1ccb 3bbe d0e7 8dbd 9610 8c3d
000003d0: c6c8 b0bd 5561 0e3d 6679 d53d f946 243f
000003e0: 7b69 a0be d7f2 5a3c c79d a4be e497 ce3d
000003f0: 8efb 493e c367 c7bb 5ead 913d a584 c23e
0.04919418 0.6250185 -0.20607601 0.01833446 -0.28435 0.19963452 -0.16854674 0.4448931
-0.49966857 0.059020214 -0.04460697 0.12521768 0.20062202 -0.0021612137 0.42138505 0.4427595
0.26787168 -0.76992565 0.56642944 0.10721851 0.47280505 0.340642 0.0109545635 0.0047485125
-0.7051629 0.5672927 -0.5136847 0.07681136 0.07136139 -0.35821676 0.11335152 0.010344063
-0.001266704 0.03586857 0.017186794 -0.01660589 -0.58234805 0.15126865 -0.11514807 -0.22393732
-0.018106913 0.05824975 0.10584646 -0.11154505 0.04812978 -0.13746426 -0.19177024 0.08939881
0.15794978 -0.01957612 0.36537045 -0.033122085 0.36646354 0.19897152 0.072021484 0.82327616
-0.23375005 0.023505427 0.086637355 0.24420132 -0.034434803 -0.064963266 0.0152905835 0.3874519
-0.07662321 -0.10517814 -0.4230148 0.37232322 -0.029911641 0.7415811 0.00091392495 0.7518656
-0.0045853956 -0.9541564 0.11472844 -0.3669475 0.5689377 -0.35484952 0.85282457 0.034415424
-0.11270251 -0.059485625 -0.080070116 -0.025354233 0.13575943 0.028628342 -0.20446447 0.44530803
-0.55486727 -0.071769685 -0.000742942 -0.18673716 -0.07587549 0.140078 -0.12708545 -0.14810313
0.18912283 0.080927365 -0.44187552 0.11887298 -0.31921828 0.13643771 0.14210546 -0.13691589
-0.09163897 -0.27342027 0.032109108 -0.008560121 -0.05105335 -0.20844914 -0.07514005 0.230682
0.14999549 -0.07007053 0.59631556 0.06823746 0.01259989 0.47920975 0.19832344 0.4800641
-0.44258976 -0.050652254 -0.11962576 -0.021323765 -0.05689771 -0.06730183 0.07065155 0.20336993
0.15820915 0.06754733 -0.16937868 -0.054900322 -0.15307176 -0.07056296 -0.109753266 -0.03406044
-0.27973804 0.054824933 0.16453917 0.04652217 0.12375336 0.07408894 -0.19534197 0.15923719
0.014869588 -0.09871232 0.056130707 -0.10876591 0.022490973 0.044362877 -0.112689294 0.05160895
-0.6893565 0.0991402 -0.3903296 -0.016869573 -0.071988985 -0.33554152 -0.21955603 -0.02930766
0.06786935 0.33741668 0.092229865 -0.32953012 0.24331772 0.124258384 -0.064635694 0.10309488
-0.5484672 0.24143665 0.16609806 -0.09930326 -0.18817656 -0.19147155 0.12483745 0.37316707
-0.2240321 -0.6311164 -0.3540867 -0.08410666 0.05746401 0.13954137 -0.06512477 0.09395484
-1.0037602 0.26052693 -0.1886563 0.124022216 -0.03430286 -0.39223424 -0.06233658 -0.27804488
0.2904528 0.26172295 -0.3357622 -0.043136816 -0.5567279 0.27985162 -0.18906622 -0.05730407
-0.36430237 0.13505687 0.04542026 -0.117521875 0.16041821 -0.480329 0.22464834 0.379931
0.3940796 -0.3721058 0.7490443 0.40752074 0.19380537 0.04184016 0.6517978 0.48040444
-0.6837569 0.39492986 -0.34896725 -0.009990813 -0.55618685 -0.60548 -0.22130229 0.24603988
0.21276528 0.0016623447 -0.18863404 0.18504813 -0.32360235 0.20044173 -0.083683796 -0.031895146
-0.15794843 0.069744706 0.08277574 0.16748598 0.045059245 0.07005646 -0.29699746 0.20413913
0.28552535 -0.18339199 -0.0692898 0.06839101 -0.086320445 0.03476079 0.104235455 0.64170796
-0.31330475 0.013363562 -0.32151625 0.100875646 0.19724867 -0.0060853674 0.07113145 0.37991825

rnn.weight_hh_l1 f4 [128, 32]
00000000: 4da1 243d 36f7 503c c521 f9bc bfa2 003e
00000010: c5e3 42be 6337 2dbe 2fe1 473e 2a8e 1abd
00000020: b31a a13d 13f8 33be 1578 4a3e c0a1 c7bd
00000030: d8f0 1fbc 6474 ce3c d967 673d 089f 5abe
00000040: 4f52 3e3e b1c7 ed3d be51 73be b3ad 54bd
00000050: bd6d 5a3d aa5f 023e 64be 3a3d bbec 893c
00000060: 2bd8 1abf 1f7b bd3d 2a81 f4bd d558 58be
00000070: c2fe cd3d aa38 193e cbd8 7dbe 8b93 ff3d
00000080: 2b63 c4be efc4 a53e e1de 98bc 3321 3dbe
00000090: 9b6e 1e3e 6ea1 bebe 4d41 5d3e 0793 cc3b
000000a0: 43c1 123e c493 223d e75c e1bc dfdd 5a3b
000000b0: bc5a 2f3e 91e5 743e aa31 50bb e7e3 993e
000000c0: 29a2 9dbe 2859 b43e 1b66 2d3e 0769 773e
000000d0: 8207 bebd 2e99 f2bd 7899 f93d 920a be3d
000000e0: 1774 dc3e 9ec1 4abe 5283 f1be 8897 d9bd
000000f0: d368 b0bc fb2f 94be c33b b23e b882 d8bd
00000100: b550 6fbf ab34 80be 77a6 3bbc e7d3 06be
00000110: dd8e b03e 4f6c 1ebf 0ea7 ad3e 010f 42be
00000120: 759f c2bd 5544 cf3c 0a8e a3be 4e2d 6cbe
00000130: 82b7 633e 0b6d 16be c6bd 6fbe 77ca 413e
00000140: 17e0 83be b3c4 df3d 7211 043e 68bd 5f3e
00000150: b52a c63d 213f f0bd ee75 2fbe be1c 2f3e
00000160: 4161 7f3d 7a99 f43c 88ad 24bf 0e2b 0dbe
00000170: 67fd 20be 50e6 0dbe 8cb0 8b3e a7c0 4cbe
00000180: 819a 09bd 22dd 18bf ffe2 aa3e 408b 8ebe
00000190: 67b4 93bd 2db6 e7be 22c2 ce3c 3cba 2ebe
000001a0: da05 9a3d 0541 c1bd 31e0 a7bc d438 333e
000001b0: ce56 213e d803 023e dca1 b2be f07e 04be
000001c0: 3233 973c cf87 593e 188e 1dbe 57c8 2cbc
000001d0: 3d93 9bbd 5f8c 753e 47d0 85be ac15 503e
000001e0: c136 d9be e53f b8be a439 53be a25b 3bbe
000001f0: fa2e 19bd cb6f 263d a5ad 183e 624a 1e3a
00000200: 065a b03d b33b 99be 761c b33e e5e2 1fbc
00000210: 16db 91bd 2bd9 debc da0a 01bf 80bf 3abd
00000220: ac0b 5b3e a6a0 37be 91f6 65be faa7 0f3d
00000230: fcaf 253c 1bd4 123c 03c2 e1bb c25c eebd
00000240: 89fc 783d c995 723d 7ec6 30bd e32d 203e
00000250: 462f 0a3e 9b2d 563d 295a 6cbe f113 8c3e
00000260: e9ba 8a3e 425a 03bf ce8d 49be babd 8f3d
00000270: d22b 9cbc 5026 f53b de13 803d 8e3a 17bd
00000280: 1f4d d0bc a5f5 48bd 75bc 1abe e5b1 e23c
00000290: ba38 a93d 352b 1dbd a269 743e c3e2 583d
000002a0: d010 51bd f98f b3bd c564 3e3c e607 5bbe
000002b0: c92d cd3d 0ccf 25be 23ee 2ebd 7c11 4d3e
000002c0: 9a10 8cbe 80f5 c6bd 5d01 a63b 5e04 d5bc
000002d0: e92b 2ebd 1eec 40be d4d6 843d c3df 8c3e
000002e0: 2bd4 873d 2527 97bd 7c2c 1bbe 7055 113e
000002f0: 2494 1fbd ecd0 1a3e 7617 f93d 5d90 08be
00000300: d963 cabe 2542 dcbe 5196 8e3e 1b43 6abe
00000310: 7578 95bd 7279 d7be 593c 63bf d321 c7be
00000320: c5f5 2f3f bc49 6dbe 2d6e eb3d 2f07 4c3f
00000330: 61f7 8f3e 298d cd3e fec4 4cbe 5ed5 b23d
00000340: 3609 0e3f 1720 0c3f e21b e3bd 120b d6be
00000350: 6f97 253f 3304 093f b820 59be bd97 d43e
00000360: e524 d4be aadf fcbe 2a54 03bd fa9d 74be
00000370: 6ca7 393f fb36 5c3d 35a2 883c 2bc7 163e
00000380: 0e1c 9abe d199 dabe 0a3a 563c 6ed9 9ebd
00000390: 8ebd dfbd 31d9 a8bd 8f39 993c d05f 043c
000003a0: 69d5 2cbe 73d3 2d3e ac0d 813c f479 26bd
000003b0: e28b 583d 69e9 3f3d e40d 83bd 486a a63c
000003c0: 2bdb 143e 90b8 223c c28b 263d eea6 3abe
000003d0: ca4d 90bd 3896 97bd c78a a4be 9f41 923e
000003e0: 189a adbe c139 d8bb c07d 90be 875e f6bd
000003f0: 9438 06be 1042 9b3d a6c2 2f3d 6995 f3bc
0.04019289 0.012754252 -0.03041161 0.12562083 -0.190322 -0.1691566 0.19519494 -0.037733234
0.078664206 -0.17575102 0.1977237 -0.09747648 -0.0097620115 0.025201984 0.05649552 -0.21349728
0.18586086 0.11610354 -0.23761651 -0.051923465 0.05332731 0.12731805 0.045591727 0.016836515
-0.60486096 0.09251999 -0.119386986 -0.21127637 0.10058357 0.14963022 -0.24789731 0.124793135
-0.3835691 0.3237681 -0.018660964 -0.18469696 0.1547188 -0.37232536 0.21606942 0.006243113
0.14331536 0.0396917 -0.02751012 0.0033396406 0.17124456 0.23915698 -0.0031767883 0.30056688
-0.3078778 0.3522427 0.16933481 0.24161159 -0.09278776 -0.11845623 0.12187475 0.0927936
0.4305732 -0.19800422 -0.47170502 -0.106246054 -0.02153436 -0.28942856 0.3481122 -0.105718076
-0.93482524 -0.25040182 -0.0114532625 -0.13166772 0.34483996 -0.61884016 0.33916515 -0.18951036
-0.0950307 0.025301138 -0.31944305 -0.23064157 0.22237971 -0.14690034 -0.23412237 0.1892489
-0.25756904 0.10926189 0.1289728 0.21849597 0.096761145 -0.11730791 -0.1713483 0.17100808
0.062348608 0.02985834 -0.6432729 -0.13785955 -0.15721665 -0.13857388 0.27283132 -0.19995366
-0.033594612 -0.5971242 0.3337631 -0.27840614 -0.072121434 -0.45256177 0.025239054 -0.1706323
0.07520647 -0.094362296 -0.020492645 0.17502147 0.1575577 0.12696779 -0.34889114 -0.12939048
0.018457029 0.21243213 -0.15386236 -0.010545812 -0.07596443 0.23979329 -0.26135466 0.20320767
-0.42424586 -0.35986248 -0.20627457 -0.18296674 -0.037398316 0.040633958 0.1490999 0.00060383056
0.086109206 -0.2992836 0.3498265 -0.009758686 -0.071218655 -0.027203163 -0.50407183 -0.045592785
0.21391171 -0.17932376 -0.22457339 0.035072304 0.010112759 0.008961703 -0.006889583 -0.11638786
0.06078771 0.059224878 -0.043158047 0.15642504 0.13494596 0.052289587 -0.23081268 0.27358964
0.27095726 -0.513096 -0.19683 0.07018609 -0.019063864 0.007481374 0.06253789 -0.036921076
-0.0254274 -0.04906239 -0.15110953 0.027672717 0.08262773 -0.038371284 0.2386842 0.05295063
-0.051041424 -0.08767695 0.011620705 -0.21389732 0.100184985 -0.16192263 -0.042707574 0.20026201
-0.27356416 -0.09714794 0.0050660805 -0.026003059 -0.042522345 -0.18840072 0.06486288 0.27514467
0.06632265 -0.07380513 -0.15153688 0.14192748 -0.038959637 0.1511876 0.12162678 -0.1333632
-0.39529303 -0.43019214 0.27849057 -0.22877161 -0.07298366 -0.42084843 -0.8876396 -0.38892993
0.6873439 -0.23172659 0.11495624 0.7969846 0.28118423 0.4014676 -0.19997022 0.08732103
0.55482805 0.54736465 -0.110893026 -0.4180532 0.64684194 0.5352203 -0.21203887 0.41522017
-0.41434398 -0.49389392 -0.032062687 -0.23888388 0.7252109 0.05376337 0.016678909 0.14724414
-0.3009953 -0.42695478 0.013075361 -0.07756315 -0.109248266 -0.08244551 0.018704204 0.008079484
-0.16878285 0.16975193 0.01575359 -0.040643647 0.052867778 0.046853457 -0.06399134 0.02031435
0.14536731 0.009931698 0.040660627 -0.18227741 -0.07046087 -0.07401699 -0.3213713 0.2856569
-0.33906627 -0.0065986817 -0.2822094 -0.120297484 -0.1310752 0.0758096 0.04291024 -0.02973433

rnn.bias_ih_l1 f4 [128]
00000000: e8cf 8eba 45b4 33be 404a c8bd 5628 37be
00000010: bf81 dcbd 7c44 463d 1e63 a6bd 3f79 a7bc
00000020: ad3e 04be 7ba2 01be e7b1 ca3d 836a a9be
00000030: fe9b e5bd 8481 ffbd 5cb2 233d c49a b93d
00000040: aa25 46be cce5 85bd 99e1 23bd 0972 bebd
00000050: ed55 063e 6ba4 0c3d 01b1 953d 5f05 7d3d
00000060: ade3 78be 853b 6ebd 755d 55bd f744 e13d
00000070: 2eb2 2f3d 882c 16bc 4c75 873d 6c22 22be
00000080: 4cfd 7f3d 7263 8a3d bd97 78bd a454 07be
00000090: aa76 5dbe 86e9 a2bd e1d4 643d 8ef7 30be
000000a0: 229c ae3c 4610 92bc 2520 a23d e4a2 b23d
000000b0: 8ec4 433e 2b2b 21be 1d59 1abe e5f8 0ebe
000000c0: 18c3 98be f341 dcbd 71e9 3d3d 95d9 e43d
000000d0: 2caa b9bc 4720 96bd 2b2f 08be b0ea adbd
000000e0: a177 58bb a0cc 4ebd b062 62bd 082f efbc
000000f0: 91b4 16bd 483e 3b3c 369c a23d 67bb 6e3b
00000100: 13e8 2f3e cb91 83bd 3e2c 123e 668d 0ebe
00000110: 3a2b d23c 0325 3ebc 08bc dc3c e670 3a3e
00000120: 0d43 15be c604 0d3e 02c0 d93d fbfe 46bd
00000130: 50fd d1bd 22c7 cbbd 9327 b3bd f79c afbd
00000140: fd6c 6a3d d114 71bd 186a d9bd 526b 143e
00000150: cb2b b73d 9337 e2bd 7c4b 8ebc 7d27 d7bd
00000160: 6e5a 17bc b444 12bc f65c 403d 2f80 59bc
00000170: 0bf1 30bd abcd 943d 164c 8ebd 38ee 463e
00000180: 8531 c33d 0755 02bd a111 4c3c ef7e afbd
00000190: 55e6 383e ad36 5c3e df64 b6bd fd23 943c
000001a0: cf45 4e3d add9 963d c89d a33d a1ae 78bd
000001b0: f402 0d3e 8ecb 5bbd 781a b8bd 6f03 753d
000001c0: 4ea2 a9bd b327 dfbc e23c 8c3e 3534 c33c
000001d0: e2f7 9f3d 4ccf f6bd d24b 133e 31e1 82be
000001e0: 2ed8 68be efb4 8bbe 8756 f5bd 9a96 0d3e
000001f0: bb48 e73d f8d9 acbd f31d babc a76c 0e3e
-0.0010895701 -0.17549236 -0.09779787 -0.1788648 -0.107669346 0.048405156 -0.08124374 -0.020443557
-0.12914534 -0.12659638 0.098972134 -0.33089074 -0.11211394 -0.12475875 0.03996502 0.09062722
-0.19350305 -0.06537971 -0.04001007 -0.09299094 0.13118716 0.03433649 0.073091514 0.0617727
-0.24305601 -0.05816223 -0.05209108 0.10999482 0.042894535 -0.0091658905 0.066141695 -0.15833443
0.062497422 0.06757249 -0.060691584 -0.13215882 -0.21627298 -0.07954697 0.05586708 -0.17281935
0.021314684 -0.017830025 0.07916287 0.08722475 0.19117948 -0.15739124 -0.15073057 -0.13962133
-0.29836345 -0.10754766 0.046365205 0.11174313 -0.022664152 -0.07330375 -0.13299243 -0.08492029
-0.0033030289 -0.050488114 -0.055269897 -0.029197231 -0.036793295 0.011428423 0.07939951 0.0036427618
0.17178373 -0.06424292 0.1427469 -0.13921127 0.025655378 -0.011605504 0.026945129 0.1820713
-0.14576359 0.13771352 0.10632326 -0.048583012 -0.10253394 -0.09950091 -0.087477826 -0.085748605
0.057232846 -0.058857743 -0.10615939 0.14494064 0.089439 -0.11045756 -0.017369978 -0.10505579
-0.009237869 -0.008927513 0.046963654 -0.01327519 -0.043198626 0.072657906 -0.06948106 0.1942681
0.095309295 -0.03181937 0.012455375 -0.085691325 0.18056615 0.21505232 -0.089059584 0.018083567
0.050359543 0.07365737 0.07989079 -0.060713414 0.13770658 -0.05366092 -0.089894235 0.059817728
-0.0828291 -0.02724061 0.273902 0.023828605 0.07810952 -0.120512575 0.14384392 -0.25562432
-0.22738716 -0.2728648 -0.119793944 0.13826981 0.11293169 -0.08440012 -0.022719359 0.13908635

rnn.bias_hh_l1 f4 [128]
00000000: f906 4d3d ebe1 10be f327 85be de37 31be
00000010: ef3d f33d bbcb 183c 5c18 7abe a367 ce3c
00000020: 2908 0cbe a8c7 303d eed2 6e3c 08c0 7bbe
00000030: 184c 2b3e f965 e4bd 8318 5e3d 3b2b b6bd
00000040: af09 9dbd 24d3 1b3e ee31 043e ff2a 543d
00000050: 7e66 323d 9c87 efbd d1b3 a7ba 0a19 2a3c
00000060: c59f b6bd 6ed9 9bbe 18d2 4cbe 7b98 0a3e
00000070: fd78 0b3d d3c0 643e 2d3f 07be 46c7 7d3d
00000080: fb3d f3bd b55f 7cbd 41cb 463e a451 b23c
00000090: 4d40 703d f7fd 55bb 42bf 33bd ec16 25be
000000a0: 729b 0fbd 3921 1fbe 54a1 833d bce8 c2bd
000000b0: 68f7 a7bb 39bf d1bd 597b 11be ccf7 b5bd
000000c0: 6ff2 06be 5a95 b73d dace f63d 89f9 c3bd
000000d0: 0cac 9e3d f84d a3bd 3ad8 eb3d 34d9 68be
000000e0: 82c2 e3bd 0114 19be 2713 b8bd f187 44be
000000f0: 6dc0 6cbe 57f0 0c3e f4c0 d33d be8d 5e3d
00000100: c545 b83d 48e6 37bd 765e a1bd 2971 1f3e
00000110: c81d 4cbe 3563 283e faac e3bd 0135 db3d
00000120: 6572 5c3d 8eb6 5b3d 398a 183e 4d9a ebbb
00000130: ead4 80be 64e1 303c 401b 7b3c 34b4 9dbd
00000140: 64bc 073e 3d45 c3bd 0b5d 9abd 2ef1 cebd
00000150: d140 793d f406 e6bd 273d 0d3e 55d9 79bd
00000160: 06b2 ba3c 9c7a 42bd 365d c6bd 199e 1b3e
00000170: a43b 143d 76a9 313e 8b3f 3bbe 6649 123d
00000180: 8af6 b4bc b1cf 4abd 0f85 e73d 90c6 0fbe
00000190: 3859 433d 6b53 323e f185 7abe 5ce5 98bd
000001a0: 2ce2 e3bd b4c3 263d 5d88 2c3e 45f9 c43d
000001b0: 241a 643e a2bf 1f3e 31db a2bd 57e1 063e
000001c0: e4b8 ff3c d7ef 963c e050 a438 6b89 a23d
000001d0: 6295 88bd 6fdf b8bd 7ffd 13be c11d 673d
000001e0: 9301 8ebd 977a 5bbd c819 4c3d 447d ccbd
000001f0: 4bc0 8d3d 9b6a 813e 2acb dd3d 9abf 633d
0.050055478 -0.14148681 -0.2600704 -0.17306468 0.11877047 0.009325917 -0.24423355 0.025195902
-0.13674988 0.043159157 0.014576657 -0.24584973 0.16728246 -0.11152262 0.054222595 -0.08894964
-0.076678626 0.15217263 0.12909672 0.051798817 0.043554775 -0.11695787 -0.0012794678 0.010381946
-0.08917192 -0.30439323 -0.2000202 0.13534729 0.03405093 0.22339182 -0.13207693 0.06195762
-0.11877056 -0.06161471 0.19413473 0.021767445 0.058655072 -0.0032652596 -0.04388357 -0.16122025
-0.035060354 -0.15540017 0.06427255 -0.09517047 -0.0051259287 -0.10241551 -0.1420721 -0.08885154
-0.13178419 0.089640334 0.120511726 -0.095690794 0.07747659 -0.07973856 0.11515851 -0.22739106
-0.11121084 -0.14949037 -0.08988028 -0.19192483 -0.2312028 0.13763557 0.10339537 0.054334395
0.089976825 -0.044897348 -0.07879345 0.15570511 -0.19933236 0.16444094 -0.11116977 0.10703469
0.053820033 0.053640895 0.14896478 -0.007190025 -0.2516244 0.010795925 0.015326321 -0.07700387
0.13255459 -0.095346905 -0.07537278 -0.10104595 0.06085283 -0.11231795 0.13792859 -0.06099828
0.022789966 -0.04748021 -0.09685747 0.15197028 0.03618969 0.173498 -0.18285958 0.03571453
-0.022090215 -0.049514476 0.11304676 -0.1404059 0.047692508 0.17414634 -0.24465157 -0.07465622
-0.11127123 0.04071398 0.16848893 0.09617857 0.22275597 0.15600446 -0.07951964 0.13171898
0.031216092 0.018424911 7.8351935e-05 0.07936367 -0.066691175 -0.090269916 -0.1445217 0.05642486
-0.06933894 -0.053583708 0.049829274 -0.0998483 0.069214426 0.25276646 0.10829766 0.055602647

fc.0.weight f4 [4, 32]
00000000: 6460 f4c0 7699 2cc1 7855 3341 8660 24c1
00000010: 7077 19c1 84b0 1ac1 8223 20c1 f366 edc0
00000020: e8da 1b41 c1d0 05c1 1452 1b41 b62f 2241
00000030: 09ef c6c0 f9eb 0a41 6557 1ec1 9a8d 0fc1
00000040: e98a 2541 bee0 de40 283a f9c0 b7d9 1fc1
00000050: 7271 1541 cfd1 1141 605f 22c1 3c84 3041
00000060: d9ff 2cc1 b5f0 30c1 45a9 1ec1 3454 ffc0
00000070: ae3b 1b41 f3cc be40 1622 02c1 d9c8 2041
00000080: f243 f6c0 b4dc 25c1 2101 3341 d220 20c1
00000090: c777 18c1 ebcd 18c1 ae0e 1bc1 21af e6c0
000000a0: 8c1b 1741 f602 03c1 5aa4 1841 bc6a 1f41
000000b0: 7e60 bbc0 0111 0741 decd 1cc1 e729 0bc1
000000c0: c610 2341 84f8 dd40 f343 f4c0 ff97 1cc1
000000d0: 906e 1341 b570 1041 f641 1ec1 8ef9 2c41
000000e0: 6b55 28c1 186c 2ec1 a104 20c1 2d48 fdc0
000000f0: 93c6 1741 2942 b640 85d0 00c1 abee 1a41
00000100: 452f f9c0 1c6b 29c1 a003 3341 e2d6 1ec1
00000110: 582a 17c1 ccdf 1ac1 6b64 21c1 460a f0c0
00000120: 5227 1a41 5e01 08c1 1afe 1741 79db 1d41
00000130: d130 c6c0 ff73 0841 0157 1bc1 b659 0cc1
00000140: aed5 2441 4073 e640 e4df eec0 a594 1dc1
00000150: d300 1541 3d02 1041 b029 1ec1 83b1 2c41
00000160: 5419 2bc1 bf5f 2cc1 e468 22c1 7f78 fec0
00000170: 9c90 1941 d138 ba40 3620 03c1 c591 1f41
00000180: ef07 9ebb df1c 963b afe4 0cbb ae08 9b38
00000190: f019 bfbb 0e7f d03a e23d e03b 6036 513b
000001a0: 18e2 363c cace 3038 cbe9 cb3a b039 343b
000001b0: 552a 5eba f64e 96ba 5276 b63a e134 60ba
000001c0: f917 1f3b 1517 63b9 b3e6 cdba 6fde dfbb
000001d0: 4bd0 6cbb dc9b 183b 06cb c8bb 3439 9abb
000001e0: e482 843b 3e8d 93bb 7235 8fba 9a15 c2ba
000001f0: 16fa 03bc 1ec1 ecba f634 133a 091d efb9
-7.6367664 -10.787466 11.208366 -10.273565 -9.59166 -9.668095 -10.008669 -7.418817
9.740944 -8.363465 9.707539 10.136648 -6.216679 8.6826105 -9.896337 -8.972071
10.346414 6.9649343 -7.788349 -9.990653 9.340197 9.113723 -10.148285 11.032284
-10.812463 -11.058766 -9.916326 -7.9790287 9.70207 5.962518 -8.133322 10.049035
-7.695794 -10.366383 11.187776 -10.008013 -9.5292425 -9.550273 -9.691084 -7.208878
9.444225 -8.188223 9.540125 9.963558 -5.855529 8.441651 -9.800261 -8.69773
10.191595 6.9365864 -7.6332946 -9.787108 9.214493 9.027516 -9.891104 10.810926
-10.520854 -10.90139 -10.00113 -7.9150605 9.48598 5.695576 -8.050908 9.683269
-7.78702 -10.58865 11.188385 -9.927462 -9.447838 -9.679638 -10.087016 -7.501254
9.6346 -8.500334 9.4995365 9.866082 -6.193459 8.528319 -9.708741 -8.771902
10.302168 7.2015686 -7.4648304 -9.84879 9.312701 9.000546 -9.885178 10.793338
-10.693684 -10.7733755 -10.150608 -7.952209 9.597805 5.8194356 -8.195364 9.973088
-0.004822723 0.0045810784 -0.002149861 7.392593e-05 -0.0058319494 0.0015907006 0.0068433145 0.003192328
0.011162303 4.2154257e-05 0.0015557347 0.0027500205 -0.0008474936 -0.0011467624 0.001392076 -0.00085528014
0.0024275763 -0.00021657006 -0.0015709013 -0.006831936 -0.0036134894 0.0023286259 -0.006127718 -0.004706526
0.0040439237 -0.0045029214 -0.0010925962 -0.0014807463 -0.008055231 -0.0018062925 0.0005615497 -0.00045607265

fc.0.bias f4 [4]
00000000: 56b0 5140 3231 5d40 2687 6040 c365 8fb8
3.2763877 3.4561276 3.5082488 -6.837726e-05

exp_avg f4 [128, 30]
00000000: a777 65b9 9f84 59b9 fed3 59b9 63d4 63b6
00000010: 32a0 d8ba 659b aeb9 89af 9cbb c960 93ba
00000020: 9eb3 4b2c 04ed c2bb 8fa7 23b9 4dbb 8c39
00000030: 578d 2639 7d5d 2e3a 6d28 11ba 0005 5139
00000040: a6dc 6bb9 db9e b039 071f 83b9 38f9 39b8
00000050: bf47 2339 836c c038 b13d db37 85c6 b338
00000060: 4842 a3b8 8949 ac39 a39b 63b9 c139 9a38
00000070: 0e0e 7638 37cd 9d38 0400 0080 0400 0080
00000080: 0400 0080 0400 0080 9bce 152e 5b31 382d
00000090: c44b 772e 36c2 8f2d 0400 0000 b573 b42e
000000a0: 8bc9 88ac 8bc9 88ac 8bc9 88ac 8bc9 88ac
000000b0: 8bc9 88ac 8bc9 88ac 8bc9 88ac 8bc9 88ac
000000c0: 8bc9 88ac 8bc9 88ac 8bc9 88ac 8bc9 88ac
000000d0: 8bc9 88ac 8bc9 88ac 8bc9 88ac 8bc9 88ac
000000e0: 8bc9 88ac 8bc9 88ac 8bc9 88ac 8bc9 88ac
000000f0: e892 4637 6870 4437 6042 4137 3aae 0cb3
00000100: 8de3 33bb 2a87 4cba 48ea 5abc ee35 56bb
00000110: 001e 3733 812e 7ebc 3e69 d339 3930 cb39
00000120: fd8f cc39 f29d cf39 3afb ce39 9867 cc39
00000130: d026 cd39 1072 d139 6329 cc39 e86c d139
00000140: 062c cd39 1d52 cd39 7f94 d139 5c03 cd39
00000150: 3441 cd39 4ce7 cf39 5fb3 ce39 f0be cd39
00000160: 71b1 ce39 eb04 d039 c834 4d37 2f6c 4737
00000170: 4a5c 4937 d9d6 a333 ee82 dc39 3890 5c38
00000180: 2471 0a3a 4482 0339 99c8 10b2 e419 663a
00000190: a5eb 99b7 b5ac c3b7 6116 dfb7 85a0 e0b7
000001a0: 4e2f bab7 40b1 e2b7 b18f ecb7 6936 b2b7
000001b0: a9d3 e2b7 2e89 d1b7 36a5 cbb7 3477 e5b7
000001c0: 85cc dab7 695d c2b7 9392 d9b7 2308 ddb7
000001d0: f622 c0b7 ab3e c6b7 caa2 89b7 94ac 8fb7
000001e0: 4c3b 8a1d 689a ab9d d199 ab9d bd71 cb1a
000001f0: 5894 8b37 22ca 0b36 b431 8c37 40ea 4e36
00000200: 0400 0000 2ac1 1138 c808 90b5 c808 90b5
00000210: c808 90b5 c808 90b5 c808 90b5 c808 90b5
00000220: c808 90b5 c808 90b5 c808 90b5 c808 90b5
00000230: c808 90b5 c808 90b5 c808 90b5 c808 90b5
00000240: c808 90b5 c808 90b5 c808 90b5 c808 90b5
00000250: c808 90b5 c808 90b5 5094 d339 cc89 f339
00000260: 5108 eb39 7c1c 39b8 4aab 32b6 6163 2136
00000270: 29f6 c8b7 7b17 98b6 0400 0080 1247 bb38
00000280: 19d0 8a39 ca64 4039 1d21 02b9 5668 393a
00000290: ae06 88b9 c305 f438 a9b4 f239 bb01 7bb7
000002a0: 3cb1 5439 b060 5d37 e82c e439 5c76 5f38
000002b0: dce0 d837 7f40 dd39 c282 a938 d230 8e38
000002c0: 3289 c739 11cb 7f38 514d 9e39 b818 e239
000002d0: fbd5 a739 54fd a939 859a ab39 361e 2e35
000002e0: a228 0138 a608 2237 1326 a238 2a73 a537
000002f0: 31f1 0aa0 52ff b838 5bdf 9739 8ff7 1a38
00000300: 306b 8c37 8e40 a339 0778 7e37 a9c2 3a39
00000310: e8ca c539 56c2 53b8 35dc eb38 a733 be39
00000320: 076e 17b8 6ab8 f538 3ad7 ae39 a957 e4b6
00000330: 0a8f 9838 4073 cb39 20d5 80b8 2a59 3239
00000340: 68cf a439 e11c a539 9151 1736 fd7c 9436
00000350: 9f65 d035 83fe 9eb3 f43c 4c39 ef29 a437
00000360: cf94 5138 b7f0 2637 c56f 96b2 9416 a039
00000370: 9e71 4eb7 1ac4 dab6 d2b7 26b7 18f3 b8b6
00000380: 416a 5fb7 2ead 16b7 73c8 fdb6 7e02 3db7
00000390: ec66 0fb7 8829 03b7 1eac 38b7 1fe6 cdb6
000003a0: 16fd 1bb7 e7de 1fb7 a41d 14b7 486e e1b6
000003b0: 1f3c 4bb7 bc4b 14b7 044e 31b7 db92 c2b6
000003c0: 0400 0080 0400 0080 0400 0080 0400 0080
000003d0: fbee 12ad 9f6d 24ac ae44 0fad dae1 3eac
000003e0: 0400 0080 45dd b6ad 535e 7d2b 535e 7d2b
000003f0: 535e 7d2b 535e 7d2b 535e 7d2b 535e 7d2b
-0.00021883716 -0.00020744138 -0.00020773706 -3.3949261e-06 -0.0016527234 -0.00033303644 -0.0047816676 -0.0011244054
2.8947743e-12 -0.0059486646 -0.00015607312 0.0002684243 0.00015883647 0.0006651504 -0.0005537335 0.00019933656
-0.00022493544 0.00033687692 -0.00025009384 -4.433954e-05 0.00015571619 9.175485e-05 2.6135562e-05 8.572362e-05
-7.7847915e-05 0.00032861184 -0.00021706386 7.35405e-05 5.866406e-05 7.5245676e-05 -6e-45 -6e-45
-6e-45 -6e-45 3.406218e-11 1.0470148e-11 5.622859e-11 1.6343465e-11 6e-45 8.206006e-11
-3.8877282e-12 -3.8877282e-12 -3.8877282e-12 -3.8877282e-12 -3.8877282e-12 -3.8877282e-12 -3.8877282e-12 -3.8877282e-12
-3.8877282e-12 -3.8877282e-12 -3.8877282e-12 -3.8877282e-12 -3.8877282e-12 -3.8877282e-12 -3.8877282e-12 -3.8877282e-12
-3.8877282e-12 -3.8877282e-12 -3.8877282e-12 -3.8877282e-12 1.1835924e-05 1.1708682e-05 1.1519151e-05 -3.275475e-08
-0.0027448863 -0.00078021234 -0.013361521 -0.0032685953 4.2635293e-08 -0.015514017 0.00040323468 0.00038755106
0.00039017192 0.00039599795 0.0003947856 0.00038987095 0.00039129565 0.0003994857 0.00038940748 0.00039944728
0.00039133447 0.00039161826 0.00039974225 0.0003910315 0.00039149227 0.00039654446 0.00039425024 0.00039242906
0.00039423586 0.00039676516 1.2231241e-05 1.1886513e-05 1.2002021e-05 7.6293595e-08 0.0004205922 5.25864e-05
0.00052811415 0.00012541661 -8.427514e-09 0.0008777662 -1.8348752e-05 -2.3326234e-05 -2.6594093e-05 -2.6777629e-05
-2.2194956e-05 -2.7023838e-05 -2.8200304e-05 -2.124459e-05 -2.7039861e-05 -2.497862e-05 -2.4276418e-05 -2.7354436e-05
-2.6082862e-05 -2.31701e-05 -2.593667e-05 -2.6349042e-05 -2.2904464e-05 -2.3632621e-05 -1.6407477e-05 -1.7127291e-05
3.6589607e-21 -4.5422975e-21 -4.5422366e-21 8.4142586e-23 1.663917e-05 2.083027e-06 1.6712445e-05 3.0832744e-06
6e-45 3.4750592e-05 -1.0731392e-06 -1.0731392e-06 -1.0731392e-06 -1.0731392e-06 -1.0731392e-06 -1.0731392e-06
-1.0731392e-06 -1.0731392e-06 -1.0731392e-06 -1.0731392e-06 -1.0731392e-06 -1.0731392e-06 -1.0731392e-06 -1.0731392e-06
-1.0731392e-06 -1.0731392e-06 -1.0731392e-06 -1.0731392e-06 -1.0731392e-06 -1.0731392e-06 0.00040355558 0.00046451238
0.0004482889 -4.4133965e-05 -2.662377e-06 2.4048716e-06 -2.3956485e-05 -4.5326865e-06 -6e-45 8.930093e-05
0.00026476456 0.00018348094 -0.00012410102 0.0007072737 -0.00025944918 0.000116359 0.0004629244 -1.4961169e-05
0.0002028392 1.3195138e-05 0.00043521007 5.3277574e-05 2.5853915e-05 0.00042200458 8.0829035e-05 6.780181e-05
0.00038058456 6.0985858e-05 0.00030193714 0.00043124496 0.0003201215 0.00032422936 0.00032730788 6.4864014e-07
3.079384e-05 9.657966e-06 7.731854e-05 1.972316e-05 -1.1768858e-19 8.821361e-05 0.00028967377 3.6947018e-05
1.6739214e-05 0.0003113788 1.5167526e-05 0.00017810859 0.00037725945 -5.048731e-05 0.0001124669 0.00036278108
-3.6103676e-05 0.0001171686 0.00033348222 -6.8051345e-06 7.274568e-05 0.00038805045 -6.143213e-05 0.00017008619
0.00031435047 0.0003149277 2.2548231e-06 4.4252943e-06 1.5526783e-06 -7.403744e-08 0.00019477663 1.956985e-05
4.9968072e-05 9.950417e-06 -1.7513125e-08 0.000305344 -1.230501e-05 -6.5197355e-06 -9.93717e-06 -5.511927e-06
-1.3316575e-05 -8.981018e-06 -7.563323e-06 -1.1265858e-05 -8.547428e-06 -7.817878e-06 -1.1007329e-05 -6.1362657e-06
-9.297646e-06 -9.529037e-06 -8.828389e-06 -6.718361e-06 -1.2113741e-05 -8.839121e-06 -1.0568187e-05 -5.7987468e-06
-6e-45 -6e-45 -6e-45 -6e-45 -8.3522035e-12 -2.3366654e-12 -8.143859e-12 -2.7125997e-12
-6e-45 -2.0789268e-11 9.0014557e-13 9.0014557e-13 9.0014557e-13 9.0014557e-13 9.0014557e-13 9.0014557e-13
