notebooks/checkpoints/LSTM_optuna/trial_001/LSTM_trial_1/checkpoints/last-epoch=9.ckpt (torch, 217786 bytes, 30 tensors)

rnn.weight_ih_l0 f4 [128, 30]
0	0xbd6ba863	-0.057533633
1	0xbddbcd2f	-0.10732495
2	0x3e0df2ca	0.13862148
3	0xbe14fb22	-0.14548925
4	0x3e2adcf7	0.16685854
5	0xbd3deaef	-0.04636663
6	0x3e09d803	0.13461308
7	0x3da06c9f	0.07833218
8	0xbdf99bca	-0.121879175
9	0xbe80ae29	-0.25132874
10	0x3e364a95	0.17801888
11	0x3bab759b	0.0052325255
12	0xbc66ff0c	-0.014098894
13	0x3d3c533b	0.045977812
14	0x3e08cdd8	0.13359773
15	0xbdb2388f	-0.08702194
16	0xbd430a5f	-0.047617313
17	0x3d46a79c	0.04849969
18	0xbdf5d1d1	-0.1200291
19	0xbd8332c1	-0.06406165
20	0x3d649fcf	0.055816468
21	0x3e9c401c	0.30517662
22	0x3cd3fd85	0.025877723
23	0xbe11f554	-0.14253742
24	0xbde9e901	-0.11421395
25	0xbd86d298	-0.06583136
26	0xbdad3bf5	-0.084587015
27	0xbdcc883f	-0.099869244
28	0x3df05979	0.117358156
29	0x3da0f76f	0.07859694
30	0xbc698b49	-0.0142544
31	0xbd05bad4	-0.032648876
32	0x3e6d9166	0.23199996
33	0xbd92c570	-0.071665645
34	0x3e6f4644	0.23366648
35	0x3da7745f	0.08176493
36	0xbda39419	-0.07987232
37	0x3e23170a	0.15926757
38	0xbda814f6	-0.08207123
39	0x3e32dbce	0.17466661
40	0xbe14f72e	-0.14547417
41	0x3e1e7a1f	0.15476273
42	0xbb934dc0	-0.0044953525
43	0x3cc24f41	0.023719432
44	0x3cde0a82	0.02710462
45	0x3d5be9e6	0.05368986
46	0xbd0f6caa	-0.03501574
47	0xbd9f9285	-0.07791618
48	0xbd6cc721	-0.05780709
49	0x3cb9e159	0.022690462
50	0x3d6d0588	0.057866603
51	0x3e0ea292	0.13929203
52	0x3e0ed4e0	0.13948393
53	0xbc20b5a5	-0.009808932
54	0xbc9ed351	-0.019387873
55	0x3e2426d5	0.16030438
56	0x3d038d90	0.032117426
57	0x3e3cb2f4	0.1842764
58	0xbd95b084	-0.07309058
59	0x3e3d3fd6	0.18481383
60	0x3ddc7b26	0.10765676
61	0xbd7cad8a	-0.061688937
62	0x3def4579	0.11683173
63	0xbd8039d1	-0.062610276
64	0x3ebf203c	0.3732928
65	0xbdae4aad	-0.08510337
66	0xbdafb5b0	-0.08579576
67	0xbcb46e30	-0.022025198
68	0x3e143195	0.14472039
69	0xbd2d0d82	-0.04224921
70	0xbe298372	-0.16554049
71	0x3d02a550	0.031895936
72	0x3d763e07	0.060117748
73	0xbbd9a60f	-0.00664211
74	0xb9fc903e	-0.00048172654
75	0x3e20319a	0.15643921
76	0x3e5e638f	0.21717666
77	0xbe605927	-0.21909009
78	0x3e10f4d2	0.14155892
79	0x3d5162c4	0.05111958
80	0xbd8defe5	-0.06930522
81	0x3de2a4d7	0.11066597
82	0xbd22bbf3	-0.039730024
83	0x3e0bf4e3	0.13667636
84	0x3dc21a08	0.09477621
85	0xbdc8acf6	-0.09798615
86	0x3de2f0bb	0.11081072
87	0x3e061110	0.13092446
88	0x3c91b3bf	0.017785905
89	0x3e129cc0	0.14317608
90	0x3e011021	0.12603809
91	0xbe0f3cd7	-0.13988052
92	0x3da7ee24	0.081997186
93	0x3e94b400	0.2904358
94	0x3e22f881	0.15915109
95	0x3f102621	0.5630818
96	0xbe2b7730	-0.16744685
97	0x3dc401e4	0.09570673
98	0x3f42884d	0.7598923
99	0xbe0a2003	-0.13488774
100	0x3d681938	0.056664675
101	0xbe79cc92	-0.24394444
102	0x3d05e9e8	0.032693774
103	0x3e584380	0.21119499
104	0x3d456905	0.048195858
105	0x3e2cc066	0.16870269
106	0xb7a114d0	-1.9202387e-05
107	0xbe0efc7a	-0.139635
108	0xbc0a7c0d	-0.008452428
109	0x3dd1e81b	0.10249349
110	0x3da21201	0.0791359
111	0x3e718749	0.23586763
112	0x3e08f580	0.13374901
113	0xbda4ae97	-0.08041113
114	0xbe4b46a6	-0.19851169
115	0x3e06ad79	0.13152112
116	0x3cbc8b96	0.023015779
117	0x3e3aa5b2	0.1822727
118	0xbdf81136	-0.12112658
119	0xbdb13685	-0.08652977
120	0xbe4cee60	-0.20012808
121	0xbdb81d66	-0.08989982
122	0xbe2753f2	-0.16340616
123	0x3e38e0ae	0.18054458
124	0x3d98776f	0.07444655
125	0x3e4b4e39	0.19854058
126	0x3be76f3d	0.007062821
127	0xbca06d35	-0.019583324
128	0xbdf67207	-0.12033468
129	0xbe92a520	-0.28641605
130	0xbbc71e8b	-0.006076639
131	0x3dac131c	0.08402082
132	0xbe6a9309	-0.22907652
133	0xbd6775f8	-0.05650899
134	0xbc86de69	-0.016463475
135	0xbe64eb74	-0.22355443
136	0xbd7a64ca	-0.061131276
137	0xbdd3066f	-0.103039615
138	0xbdef2099	-0.116761394
139	0xbd95743a	-0.07297559
140	0x3d1802d3	0.03711207
141	0xbe004644	-0.12526804
142	0xbe002442	-0.12513831
143	0xbb84d103	-0.0040532365
144	0x3cd4e811	0.025989564
145	0x3d0244be	0.03180384
146	0xbe3e0ba9	-0.18559135
147	0xbe19c278	-0.1501559
148	0xbd8eff19	-0.0698225
149	0xbe68240f	-0.22670005
150	0x3df6f01e	0.120575175
151	0xbe0f752a	-0.14009538
152	0x3dcf29c6	0.101153895
153	0xbea3daf8	-0.32002997
154	0x3e834549	0.25638798
155	0x3de71585	0.112834014
156	0x3e391fbe	0.18078515
157	0xbde3f641	-0.111309536
158	0x3dc350ce	0.09536897
159	0x3ea72897	0.32648155
160	0xbcea972e	-0.028636541
161	0xbe4e01d1	-0.2011788
162	0xbca70468	-0.020387843
163	0xbe334563	-0.17506938
164	0x3e15100e	0.14556906
165	0x3a5c04ee	0.00083930686
166	0xbdc78aa1	-0.09743238
167	0xbd10dca0	-0.035366654
168	0xbe80ee45	-0.25181785
169	0x3e388490	0.18019319
170	0x3ab7a05e	0.0014009585
171	0x3e96aeb8	0.29430175
172	0xbcac3bc5	-0.021024594
173	0x3d6be562	0.057591803
174	0x3e7cd6e7	0.24691354
175	0xbd3ae421	-0.045627717
176	0x3e6ab120	0.2291913
177	0x3d8b2c10	0.06795514
178	0xbe14d85e	-0.14535663
179	0x3e283b8e	0.16428968
180	0x3cc2cca3	0.023779219
181	0x3d9aedc5	0.07564882
182	0x3de7f18a	0.11325367
183	0x3e66916a	0.22516409
184	0xbe744ed1	-0.23858191
185	0xbd92e275	-0.071720995
186	0x3d9c9ad4	0.076467186
187	0x3ddfb83f	0.10923814
188	0x3c6f0e98	0.014590882
189	0x3de3b706	0.11118893
190	0x3bde71b5	0.0067884573
191	0xbe161642	-0.14656928
192	0xbe1d38e5	-0.15353735
193	0xbdf52de2	-0.11971642
194	0x3d242602	0.04007531
195	0xbdb29610	-0.087200284
196	0xbd37c7af	-0.044868167
197	0x3db3d484	0.087807685
198	0xbdc490d6	-0.09597938
199	0x3e118d0f	0.14213966
200	0x3e4d5aad	0.20054121
201	0x3e2c597d	0.16831012
202	0xbe666edd	-0.22503228
203	0x3db9d6dd	0.09074185
204	0x3d195143	0.037431013
205	0xbe210ca0	-0.15727472
206	0x3dbc247b	0.091866456
207	0x3dff0b91	0.12453378
208	0x3e568f85	0.20953186
209	0x3e2580c1	0.16162397
210	0x3dfa19d3	0.12211957
211	0x3e02afde	0.127624
212	0x3e1f9e5f	0.15587758
213	0xbd809dcb	-0.062800966
214	0x3e2f0356	0.17091116
215	0x3de501d6	0.11181991
216	0xbda2b8f9	-0.07945437
217	0x3ccb512f	0.024818985
218	0x3f2cb4b7	0.6746325
219	0xbdae0c2b	-0.084984146
220	0x3e8a932b	0.27065405
221	0xbd8c7228	-0.06857711
222	0xbe10db71	-0.1414621
223	0x3d0011b7	0.031266894
224	0x3bdc2f75	0.0067195245
225	0x3d9bc612	0.07606138
226	0xbdb9d053	-0.09072938
227	0xbda80dba	-0.08205743
228	0xbe0e2b12	-0.13883618
229	0x3ccad302	0.02475882
230	0x3e207427	0.15669309
231	0x3a99c9b3	0.0011733085
232	0x3e6f015b	0.23340361
233	0x3e055250	0.13019681
234	0xbc061cc6	-0.008185571
235	0xbcbde79f	-0.023181735
236	0x3e33bc4e	0.17552301
237	0x3ddd0bcd	0.107932664
238	0xbe2889f9	-0.16458882
239	0x3e132acc	0.14371794
240	0x3e161d84	0.14659697
241	0x3e1d076b	0.15334861
242	0x3e40ea3d	0.18839355
243	0x3d6c4a4c	0.057688043
244	0x3db4c913	0.08827414
245	0x3e4582aa	0.19288126
246	0x3d4e350e	0.050343566
247	0x3e12151f	0.1426587
248	0x3e2a0720	0.1660428
249	0x3e50476a	0.20339742
250	0xbdec35ec	-0.11533722
251	0x3da698b8	0.081345975
252	0x3e419c67	0.18907319
253	0x3e209251	0.15680815
254	0x3ddc5091	0.10757554
255	0x3df3ddcf	0.11907541

rnn.weight_hh_l0 f4 [128, 32]
0	0x3cad0b30	0.021123499
1	0xbed28219	-0.41114882
2	0xbecec1c6	-0.40382212
3	0x3eb69e72	0.3566776
4	0x3d6e75d0	0.058217824
5	0x3dcf0740	0.10108805
6	0x3e150dad	0.14555998
7	0xbcc0e43b	-0.023546329
8	0x3ee2a6e0	0.4426794
9	0x3e693808	0.2277528
10	0xbd6adce6	-0.05733957
11	0xbc2bb86c	-0.010480981
12	0xbe62a458	-0.22133005
13	0xbeb4677c	-0.35235202
14	0xbd315f2a	-0.043303646
15	0xbdd520e5	-0.10406665
16	0x3de99a04	0.11406329
17	0x3e48b1d1	0.19599082
18	0xbd3f50f8	-0.046708077
19	0x3de1ef6c	0.11031994
20	0xbf0b1962	-0.54335606
21	0x3e85f429	0.26162842
22	0x3e3b50d5	0.18292554
23	0x3ebd09bc	0.3692149
24	0xbdd52a16	-0.10408418
25	0xbebc09bb	-0.36726174
26	0x3dcd9d33	0.10039749
27	0xbe76da7d	-0.24106784
28	0xbe8cb7b3	-0.274839
29	0x3ec5f0fe	0.38660425
30	0xbcd5137b	-0.026010266
31	0xbf032dc6	-0.5124172
32	0x3e60b8ec	0.21945542
33	0x3e408e7c	0.18804353
34	0xbe6e4700	-0.23269272
35	0xbe9e1223	-0.30873212
36	0x3e37eded	0.17961855
37	0xbe476c02	-0.19474795
38	0x3d1d0342	0.038333185
39	0xbe80fa3c	-0.25190914
40	0xba577fd7	-0.0008220649
41	0x3e8ae517	0.27127907
42	0x3d955272	0.07291116
43	0x3ddd0fcf	0.10794031
44	0xbca1ce95	-0.019751826
45	0xbe7d6311	-0.24744822
46	0xbd8f04b9	-0.06983323
47	0x3ca6c079	0.02035545
48	0x3e81223f	0.2522144
49	0xbd951fe2	-0.07281472
50	0x3e7609d8	0.24027193
51	0x3e37d791	0.17953326
52	0xbdd79038	-0.105255544
53	0x3e98aa38	0.29817367
54	0x3dba4074	0.09094325
55	0x3dca79b5	0.09886495
56	0xbe1c6393	-0.1527236
57	0xbd678ca3	-0.056530606
58	0xbe3d0812	-0.1846011
59	0xbe24ae87	-0.16082202
60	0xbe9f2767	-0.3108475
61	0xbd404a7f	-0.046946045
62	0xbeb1688c	-0.34650075
63	0x3dd1a988	0.10237414
64	0x3edc2e8c	0.43004262
65	0x3b1d5abc	0.002401038
66	0xbdccc4c9	-0.09998471
67	0xbee6a599	-0.45048216
68	0x3fae6f97	1.3627805
69	0xbce77b96	-0.028257173
70	0xbd84aa9b	-0.06477853
71	0xbe8a0319	-0.26955488
72	0xbcdba1bf	-0.026810525
73	0x3f3f9151	0.7483111
74	0x3d24d0e2	0.04023827
75	0xbd9cfab0	-0.07665002
76	0xbe6cffb0	-0.23144412
77	0xbe29ede0	-0.16594648
78	0xbf0c5e2c	-0.54831195
79	0xbe149edd	-0.14513727
80	0x3dfdadc0	0.12386656
81	0xbe3bf795	-0.18356164
82	0xbf237a12	-0.6385814
83	0x3d2c47c4	0.04206063
84	0xbeada897	-0.33917686
85	0xbdd533dd	-0.10410283
86	0x3d90bafc	0.070669144
87	0xbe96cf09	-0.2945483
88	0xbe32f8a0	-0.17477655
89	0xbd76dc5f	-0.060268756
90	0x3d590135	0.052979667
91	0xbe982135	-0.29712835
92	0x3db902b0	0.09033716
93	0x3d88030b	0.066412054
94	0xbcc84352	-0.024446163
95	0xbf442177	-0.76613563
96	0x3ecb4e45	0.39708152
97	0x3ead53e2	0.3385306
98	0xbdc3c295	-0.09558598
99	0xbeaa63f1	-0.33279374
100	0x3eafe7f5	0.34356657
101	0x3c407b14	0.011748094
102	0xbe3f607b	-0.18689148
103	0x3de27ece	0.11059342
104	0xbecf429a	-0.404805
105	0x3e93cdad	0.28867856
106	0x3e553218	0.2081989
107	0xbf30d1f0	-0.6907034
108	0xbd933260	-0.07187343
109	0xbe9d796f	-0.3075671
110	0xbe1d265e	-0.15346667
111	0x3df5be86	0.1199923
112	0x3e8a3170	0.26990843
113	0xbe6f0525	-0.23341806
114	0x3e6ae29b	0.22938006
115	0x3e71bca1	0.23607112
116	0xbe0abe64	-0.13549191
117	0x3eca9e7b	0.39574036
118	0x3e96a471	0.29422334
119	0x3de8d9f9	0.113697
120	0x3b39c213	0.0028344437
121	0x3f01954f	0.5061845
122	0xbee24422	-0.44192606
123	0x3e8a7596	0.27042836
124	0xbea0f6d3	-0.31438312
125	0xbeb3ada5	-0.35093418
126	0xbeb22c32	-0.34799343
127	0xbe1a1598	-0.150473
128	0x3dd1d8b0	0.10246408
129	0x3f678039	0.9043003
130	0xbe1d80ad	-0.15381117
131	0xbf0b6f3a	-0.54466593
132	0x3f1e84af	0.6192121
133	0xbdc82343	-0.09772351
134	0xbec9c3e1	-0.39407256
135	0xbe60fc70	-0.21971297
136	0xbf79f28b	-0.97635716
137	0x3f1b970d	0.6077736
138	0x3e381584	0.17976958
139	0xbdf04675	-0.117321886
140	0xbe995a53	-0.29951724
141	0xbc969585	-0.018381843
142	0xbcd8c9b6	-0.02646337
143	0x3f279b4a	0.6547133
144	0x3d787f93	0.06066854
145	0xbf5f1229	-0.87137085
146	0x3ecdf75e	0.4022779
147	0xbd708354	-0.058718994
148	0xbd5e166d	-0.054220606
149	0x3f551d07	0.8324742
150	0xbe1b22da	-0.15150014
151	0xbf2152e8	-0.6301713
152	0xbf82141f	-1.016239
153	0x3f47c533	0.7803528
154	0xbf87b3b7	-1.060172
155	0x3e985a31	0.2975631
156	0xbdb8c6a7	-0.09022265
157	0xbf053238	-0.5202975
158	0x3db2c387	0.087287
159	0xbe89b8c9	-0.26898792
160	0x3dac4222	0.08411051
161	0x3d08b868	0.03337899
162	0xbdc9d556	-0.09855144
163	0xbe91d250	-0.28480768
164	0x3dc79536	0.097452566
165	0xbef9b37b	-0.48769745
166	0xbeab038e	-0.3340115
167	0x3e9c2340	0.30495644
168	0xbeaff9f7	-0.34370396
169	0x3e3909e4	0.18070179
170	0xbe94c077	-0.2905309
171	0xbde00bbc	-0.10939738
172	0x3b9141db	0.0044328994
173	0x3b1faa0d	0.0024362833
174	0xbf157697	-0.5838408
175	0xbd87e0db	-0.06634685
176	0x3e463d57	0.19359337
177	0xbdc3ddde	-0.09563802
178	0x3e84f827	0.25970575
179	0x3e8aea55	0.27131906
180	0xbc7501df	-0.014954059
181	0x3d8f7921	0.070055254
182	0x3e92ae2d	0.2864851
183	0x3e840a3c	0.25789058
184	0x3d348601	0.04407311
185	0x3e492ab4	0.19645196
186	0xbe52ffe0	-0.20605421
187	0xbd829633	-0.063763045
188	0xbe8f91d1	-0.28040937
189	0xbc15ca16	-0.009142419
190	0xbe1e74c9	-0.15474238
191	0xbd6e8f03	-0.058241855
192	0xbe1d515d	-0.15363069
193	0xbe54655a	-0.20741788
194	0xbebf5bb8	-0.37374663
195	0x3d522eb1	0.05131406
196	0xbea5ce1c	-0.3238381
197	0x3e028aaa	0.12748209
198	0x3e5e509e	0.2171044
199	0x3de400f5	0.11132995
200	0x3e172d6c	0.14763421
201	0xbe5d5f2d	-0.21618338
202	0x3dfa469d	0.122205
203	0x3cfb4358	0.03067176
204	0xbdb9e669	-0.090771504
205	0xbeea6765	-0.4578201
206	0x3e9d5a24	0.30732834
207	0x3e9b9763	0.30388936
208	0xbdae9f3e	-0.08526467
209	0x3ea10edb	0.31456646
210	0xbd9bc0c9	-0.0760513
211	0xbc8e5248	-0.01737322
212	0x3d335165	0.043778796
213	0xbe8a7530	-0.27042532
214	0x3eb17266	0.34657592
215	0x3edf646c	0.43631303
216	0x3e781e93	0.24230413
217	0xbd4d5bd9	-0.05013642
218	0x3d806dec	0.06270966
219	0xbd9a0f6b	-0.07522472
220	0x3e175acc	0.1478073
221	0x3dda058a	0.10645588
222	0x3ca076f5	0.019587973
223	0x3e9153bf	0.28384206
224	0xbd0f88a5	-0.035042424
225	0x3e4f26df	0.20229672
226	0x3b106e25	0.0022038308
227	0xbe901248	-0.28138947
228	0x3da64e55	0.081204094
229	0xbe1c9854	-0.15292484
230	0xbe6db053	-0.23211794
231	0xbe0d5fce	-0.13806078
232	0xbec3da95	-0.38252702
233	0x3ec39775	0.3820149
234	0x3e6d1df6	0.2315596
235	0xbdbe3eb8	-0.092893064
236	0x3e34ff96	0.17675623
237	0xbe243daa	-0.16039148
238	0xbe7460af	-0.23865007
239	0x3edc088f	0.4297528
240	0x3e72ec44	0.2372294
241	0xbeec3d4a	-0.4614051
242	0xbde89202	-0.11355974
243	0xbe1a6ea1	-0.15081264
244	0x3deeb33a	0.116552785
245	0x3ef561aa	0.47926074
246	0xbe49b93b	-0.19699566
247	0xbe50be6e	-0.20385143
248	0xbf2f8447	-0.68561214
249	0x3edb85e3	0.42875585
250	0xbf11f912	-0.57020676
251	0x3e57c361	0.21070625
252	0x3e05b7e1	0.13058425
253	0xbe9f207f	-0.3107948
254	0x3d9dcee1	0.07705475
255	0xbebc92a9	-0.36830643

rnn.bias_ih_l0 f4 [128]
0	0x3dad8bfb	0.08473965
1	0x3dde7836	0.10862772
2	0x3dfc2579	0.12311835
3	0x3ee254e6	0.44205397
4	0xbc1d6496	-0.009606501
5	0x3e25d47e	0.1619434
6	0xbd65e36a	-0.056125082
7	0xbd94bc9d	-0.07262538
8	0x3d63eb22	0.055644162
9	0x3d9c34dc	0.076272696
10	0x3ebec7e7	0.37261888
11	0xbd7386a6	-0.059454583
12	0xbdce03c8	-0.10059315
13	0xbdf5e113	-0.1200582
14	0x3eae936f	0.34096858
15	0xbddb7031	-0.10714758
16	0xbcea9afd	-0.028638357
17	0xbd99ae5c	-0.075039595
18	0x3e721872	0.23642138
19	0x3c8c8bd5	0.01715652
20	0x3e8db456	0.27676648
21	0xbcacd997	-0.021099849
22	0xbcf3f0df	-0.029777942
23	0xbc8d53d4	-0.017251886
24	0xbd0a36f3	-0.03374381
25	0x3daa0f11	0.08303655
26	0x3e18b65b	0.14913313
27	0x3e85adf3	0.26109275
28	0xbde14dee	-0.11001192
29	0x3e58e103	0.21179585
30	0xbe93f0b8	-0.2889459
31	0x3e18cfd9	0.14923038
32	0x3e2c25de	0.1681132
33	0xbbd7358c	-0.0065676626
34	0xbd50615f	-0.05087411
35	0x3e949ae8	0.29024434
36	0xbb949d85	-0.0045353794
37	0x3ca6d189	0.020363586
38	0xbd385315	-0.04500111
39	0xbe1286d9	-0.14309253
40	0x3e5e6d72	0.21721438
41	0x3d1655be	0.036702864
42	0x3d248be9	0.04017249
43	0xbdedebf2	-0.116172686
44	0x3e14aee1	0.14519836
45	0xbe9806cc	-0.29692686
46	0x3bc0ac9b	0.005879951
47	0xbd89b8b8	-0.067246854
48	0xbe5290a0	-0.20562983
49	0xbe1485e4	-0.145042
50	0x3c29d30d	0.01036526
51	0x3d6f393b	0.05840419
52	0x3c63d715	0.01390626
53	0xbe0fecec	-0.14055222
54	0xbe7223b5	-0.23646434
55	0x3df44ffc	0.11929318
56	0x3e06285e	0.13101336
57	0xba52e0dc	-0.0008044371
58	0xbc105f5c	-0.008811798
59	0x3beba93f	0.0071918066
60	0xbecaa826	-0.39581412
61	0xbb3f26b5	-0.0029167358
62	0xbece35e9	-0.40275505
63	0xbd28fb8b	-0.041255515
64	0x3d76de22	0.060270436
65	0xbd9e52b5	-0.07730619
66	0xbdf08a8c	-0.11745176
67	0xbe144272	-0.14478472
68	0x3dca0645	0.09864477
69	0x3c46b53a	0.012128169
70	0xbd74dfa2	-0.059783585
71	0xbe429d65	-0.19005354
72	0x3d14d8ff	0.036339756
73	0x3e1b525d	0.15168138
74	0x3dcdd4b5	0.10050336
75	0xbcf6075d	-0.030032808
76	0xbd5c96e8	-0.053854853
77	0xbe378f71	-0.17925812
78	0xbe253fd5	-0.16137631
79	0xbe1a640a	-0.15077224
80	0x3cac8443	0.021059161
81	0xbe121a02	-0.14267734
82	0xbdec906f	-0.11550986
83	0x3dc8e47e	0.098092064
84	0x3d9110da	0.07083292
85	0x3b194963	0.002338969
86	0x3da5432c	0.08069453
87	0xbdfd2946	-0.12361388
88	0xbdd7967b	-0.10526749
89	0xbd907f1e	-0.07055496
90	0x3c891ffe	0.016738888
91	0xbd07dce3	-0.03316964
92	0xbea0a84e	-0.31378406
93	0xbe197aaa	-0.14988199
94	0xbdaa8f24	-0.08328083
95	0xbc919ee8	-0.017775968
96	0x3d6631f2	0.056199975
97	0xbe5cc052	-0.2155774
98	0xbe6fa799	-0.23403777
99	0x3f655ba9	0.8959299
100	0x3d0ee2c2	0.03488422
101	0x3e3a2616	0.18178591
102	0x3c935ddb	0.01798909
103	0x3ed36b58	0.41292834
104	0xbd3d34c1	-0.04619289
105	0x3f318564	0.6934416
106	0x3e630c6f	0.22172712
107	0x3ef2ac5d	0.47397128
108	0x3e9323c5	0.28738227
109	0xbe73a1d6	-0.23792204
110	0x3ef24011	0.47314504
111	0xbed01e6f	-0.4064822
112	0x3c7c25bf	0.015389859
113	0xbf3ee2e9	-0.7456499
114	0xbf1d7e4f	-0.61520857
115	0x3d8dccff	0.069238655
116	0x3e12552f	0.14290307
117	0xbf20cc94	-0.6281216
118	0x3dd9fbbf	0.1064372
119	0x3ac48517	0.0014993277
120	0xbf7b8241	-0.98245627
121	0x3dee0e5e	0.11623834
122	0xbefb7593	-0.4911314
123	0x3db1acd2	0.08675541
124	0x3de7e20b	0.11322411
125	0xbe08ba24	-0.13352257
126	0xbe031392	-0.12800434
127	0x3e4623da	0.19349614

rnn.bias_hh_l0 f4 [128]
0	0x3e50e0f2	0.2039831
1	0x3dad2951	0.08455146
2	0x3e01f21a	0.1269001
3	0x3ecb105a	0.39660913
4	0xbcd80118	-0.026367709
5	0x3ea0f923	0.31440076
6	0xbdac34e1	-0.08408523
7	0xbdb8b1fe	-0.09018324
8	0x3e38c07b	0.18042175
9	0x3e8b73a5	0.27236667
10	0x3ec6fd9b	0.3886536
11	0xbca38fd6	-0.019966047
12	0x3db19112	0.08670248
13	0xbe0c6525	-0.13710459
14	0x3e7803db	0.2422022
15	0xbdc82bac	-0.09773955
16	0xbd035a16	-0.032068335
17	0xbda0d149	-0.07852418
18	0x3dbefbab	0.093253456
19	0x3d783038	0.06059286
20	0xbbe79121	-0.0070668613
21	0x3d572c65	0.052532572
22	0x3df21b18	0.11821574
23	0x3dbf5fcc	0.09344444
24	0xbe17a918	-0.14810598
25	0x3e4495ce	0.19197771
26	0x3e7af051	0.24505736
27	0x3e81bd57	0.25339767
28	0x3dbdae6e	0.092617854
29	0x3e933aa8	0.2875569
30	0xbde24323	-0.110479616
31	0x3d4f48b6	0.050606452
32	0xbde19d8c	-0.11016378
33	0xbdd54844	-0.10414174
34	0xbe100dec	-0.14067811
35	0x3f13c274	0.57718587
36	0x3c109be9	0.008826234
37	0xbda7087b	-0.081559144
38	0x3e085a11	0.13315608
39	0xbc2164cf	-0.009850695
40	0xbd8bb69c	-0.06821939
41	0x3c8f0f74	0.017463423
42	0xbe27c41b	-0.16383402
43	0xbe61e042	-0.22058204
44	0x3e3bc7b8	0.18337905
45	0xbe06d874	-0.13168508
46	0x3bb7690e	0.0055972403
47	0x3ceeb50d	0.029139066
48	0xbce8838d	-0.02838304
49	0x3cd5b98a	0.026089448
50	0xbe2df6ba	-0.1698865
51	0xbd694db8	-0.056958884
52	0x3e1e74e0	0.15474272
53	0x3dcf47ad	0.10121093
54	0xbdc3286d	-0.09529195
55	0x3d186b99	0.037211988
56	0x3dc42bed	0.09578691
57	0x3e3125ff	0.1729965
58	0xbe826ea5	-0.2547504
59	0xbd8ecf6a	-0.06973155
60	0xbe6ec7b9	-0.23318376
61	0x3e15de8f	0.1463568
62	0xbe88d253	-0.26722965
63	0x3e0827be	0.1329641
64	0xbde00815	-0.109390415
65	0x3e3f8c5e	0.1870589
66	0xbe9bc08d	-0.30420342
67	0xbd2ab776	-0.04167887
68	0x3e697d9e	0.22801825
69	0xbd282363	-0.041049372
70	0xbd9d52c7	-0.07681804
71	0xbdf02d5e	-0.11727403
72	0xbe5b1197	-0.21393429
73	0x3dc22999	0.094805904
74	0xbe024105	-0.12720115
75	0x3d833050	0.06405699
76	0x3cd31ea1	0.025771441
77	0xbe527030	-0.20550609
78	0xbda7dec0	-0.08196783
79	0x3d002460	0.03128469
80	0x3e07a8a3	0.13247924
81	0xbdc5dcc8	-0.09661251
82	0xbe17c8bb	-0.14822666
83	0xbe299493	-0.16560583
84	0xbb31074c	-0.0027012406
85	0x3e8b4087	0.27197668
86	0xbd9fb6c1	-0.077985294
87	0x3df1f614	0.11814514
88	0xbbce23bf	-0.0062908824
89	0x3daea9dd	0.085284926
90	0x3db53d97	0.08849638
91	0xbc8125fa	-0.015765179
92	0xbd7307e4	-0.059333697
93	0xbde1f21c	-0.11032507
94	0xbd6e96f7	-0.05824944
95	0xbe1b87b5	-0.15188487
96	0x3d7fcc13	0.06245048
97	0xbe8b4b9e	-0.2720613
98	0xbecb8945	-0.39753166
99	0x3f5abdd3	0.854459
100	0xbc8dd70d	-0.017314458
101	0x3dccf747	0.10008102
102	0x3de51a96	0.111867115
103	0x3ec352dd	0.38149157
104	0xbd93a5b9	-0.072093435
105	0x3f623d2e	0.883746
106	0xbb893d7f	-0.004188239
107	0x3ef7d279	0.48402765
108	0x3e20fd90	0.15721726
109	0xbdf089af	-0.11745011
110	0x3ea891e9	0.3292382
111	0xbe988d6c	-0.29795396
112	0x3d06866d	0.032843042
113	0xbf06b28c	-0.5261619
114	0xbf4527c5	-0.7701381
115	0x3d539156	0.051652275
116	0x3e566443	0.20936684
117	0xbf417e4d	-0.75583345
118	0x3e2840b0	0.16430926
119	0xbd50e1dc	-0.050996646
120	0xbf778269	-0.96683365
121	0x3dc7472c	0.09730372
122	0xbf32cec2	-0.6984674
123	0x3c4e4a55	0.012590964
124	0x3ddbb3e2	0.10727669
125	0x3e24c774	0.1609171
126	0xbcdc362d	-0.026881302
127	0x3e1ee4f1	0.15517022

rnn.weight_ih_l1 f4 [128, 32]
0	0x3d08d43a	0.03340552
1	0x3f2be23b	0.67142075
2	0xbe504928	-0.20340407
3	0xbcb22f08	-0.021750942
4	0xbe94998e	-0.29023403
5	0x3e2efe3c	0.1708917
6	0xbe347eef	-0.17626546
7	0x3ee593e5	0.44839397
8	0xbf06f72a	-0.5272089
9	0x3d5f4133	0.05450554
10	0xbd12b1bf	-0.035814043
11	0x3dfc60e7	0.1232317
12	0x3e44bd62	0.19212869
13	0xbb953c31	-0.0045542945
14	0x3ed12ba2	0.40853602
15	0x3eeaedcf	0.4588456
16	0x3e84a360	0.25905895
17	0xbf413b7e	-0.754814
18	0x3f1409fa	0.57827723
19	0x3dd3150a	0.10306747
20	0x3ef163b5	0.47146383
21	0x3eab0b6f	0.3340716
22	0x3ce84199	0.028351592
23	0xbc215591	-0.009847061
24	0xbf35f72c	-0.7108028
25	0x3f1bddcd	0.60885316
26	0xbf0fd56b	-0.56185025
27	0x3dae54b0	0.085122466
28	0x3d9d0a75	0.0766801
29	0xbec62537	-0.38700268
30	0x3de5edf5	0.11227027
31	0x3c91806f	0.017761437
32	0x3c20ca07	0.009813792
33	0x3d03cbb4	0.03217669
34	0x3c0d961b	0.008641745
35	0xbd82bfa1	-0.063842066
36	0xbf1c7ee6	-0.6113113
37	0x3e0adda7	0.13561116
38	0xbdce707f	-0.10080051
39	0xbe678621	-0.2260976
40	0xbc0e78c0	-0.008695781
41	0x3deb89cd	0.11500893
42	0x3dd08fbe	0.10183667
43	0xbe137973	-0.14401798
44	0x3d092236	0.03347989
45	0xbdffedaf	-0.124965064
46	0xbe78ba81	-0.24289896
47	0x3ddd7483	0.108132385
48	0x3e2e0372	0.16993502
49	0xbc2e4e69	-0.010638812
50	0x3ebd83b5	0.37014547
51	0xbcab8dd9	-0.020941662
52	0x3ecfabf7	0.40560886
53	0x3e47d1e8	0.19513667
54	0x3d67b21d	0.056566346
55	0x3f6a63e9	0.915587
56	0xbe47ffa2	-0.1953111
57	0x3cac2f64	0.021018691
58	0x3d9b688b	0.07588299
59	0x3e76c7ab	0.24099605
60	0xbd7b044d	-0.0612834
61	0xbd4e4770	-0.050361097
62	0x3bb37d39	0.005477574
63	0x3eddc871	0.43316987
64	0xbd3979a4	-0.04528202
65	0xbdbcd30e	-0.09219943
66	0xbebe2789	-0.37139538
67	0x3e5ffa87	0.21872912
68	0xbc4d8da7	-0.01254598
69	0x3f505cf5	0.8139184
70	0xb8142d7a	-3.5328303e-05
71	0x3f4eaff7	0.8073725
72	0xbc8b34e4	-0.016992994
73	0xbf6a46ce	-0.9151429
74	0x3dbb4135	0.09143297
75	0xbecce64c	-0.40019453
76	0x3f1e2aa9	0.61783844
77	0xbeb2ec55	-0.34945932
78	0x3f62f976	0.886619
79	0x3c8991cb	0.016793152
80	0xbdc10cd7	-0.09426277
81	0xbd8a3ae0	-0.06749511
82	0xbd8342f3	-0.06409254
83	0xbcb3f406	-0.021966945
84	0x3e0fea31	0.1405418
85	0x3b09f7eb	0.0021052312
86	0xbe3d037a	-0.18458357
87	0x3f00d3df	0.5032329
88	0xbf24a0b7	-0.6430773
89	0xbd99a321	-0.075018175
90	0xbcc0c4d4	-0.023531355
91	0xbe2cf7fb	-0.16891472
92	0xbda553d6	-0.08072631
93	0x3e07bde9	0.13256039
94	0xbdf64557	-0.12024944
95	0xbe264f22	-0.16241124
96	0x3e493d14	0.19652206
97	0x3dbd700c	0.09249887
98	0xbef89ed0	-0.48558664
99	0x3ded41ba	0.11584802
100	0xbeac0a94	-0.3360182
101	0x3dfd0d1f	0.12356018
102	0x3e1a2d19	0.15056266
103	0xbe086f4d	-0.13323708
104	0xbdb5514a	-0.08853395
105	0xbe84bc93	-0.2592512
106	0x3d3e28d3	0.04642565
107	0xbc3b5610	-0.011434093
108	0xbcaab6ef	-0.020839183
109	0xbe5b5ad9	-0.21421374
110	0xbd9e41a5	-0.077273645
111	0x3e70cd2e	0.2351577
112	0x3e13fdfe	0.14452359
113	0xbd87fe62	-0.066403165
114	0x3f23591c	0.63807845
115	0x3dace2cd	0.08441696
116	0x3cc289f8	0.02374743
117	0x3f040aff	0.5157928
118	0x3e5d61dc	0.21619362
119	0x3ef3ec28	0.4764111
120	0xbf07eb02	-0.5309297
121	0xbd81348d	-0.063088514
122	0xbe013279	-0.1261691
123	0xbc8d5886	-0.017254125
124	0xbd96192d	-0.07329021
125	0xbd915324	-0.07095936
126	0x3d7f4f36	0.0623314
127	0x3e6d4771	0.23171784
128	0x3e0dffd9	0.1386713
129	0x3d573f1f	0.05255043
130	0xbe2a20dd	-0.16614099
131	0xbd23c20e	-0.039979987
132	0xbe07d975	-0.13266547
133	0xbda7e20a	-0.081974104
134	0xbdc9e66b	-0.09858402
135	0xbca36392	-0.01994494
136	0xbe8081e9	-0.25099114
137	0x3d4a44b9	0.049381945
138	0x3e2bd442	0.16780189
139	0x3d104977	0.03522631
140	0x3dfb00b2	0.12255992
141	0x3d6b2bbb	0.05741475
142	0xbe5e5fa7	-0.21716176
143	0x3e2b8fbc	0.16754049
144	0x3c2ac7a4	0.010423575
145	0xbd05476e	-0.032538824
146	0x3c1baeb0	0.009502098
147	0xbdff93b3	-0.12479343
148	0x3d4fa15e	0.050691
149	0x3cea07cc	0.028568171
150	0xbe105692	-0.14095524
151	0x3ca2fd56	0.01989619
152	0xbf2e464e	-0.68076026
153	0x3d957388	0.072974265
154	0xbebb58de	-0.36591238
155	0x3cc2c630	0.023776144
156	0xbd8cf8c5	-0.068833865
157	0xbe9dc2ea	-0.3081277
158	0xbe5f92dd	-0.21833368
159	0xbd1649c5	-0.036691446
160	0x3d92bcb0	0.071648955
161	0x3e9f3c21	0.31100562
162	0x3dc42933	0.095781706
163	0xbeca0550	-0.39457178
164	0x3e812ee7	0.25231096
165	0x3dd755ac	0.105143875
166	0xbd8cbe2e	-0.068722114
167	0x3e02698c	0.12735575
168	0xbf024255	-0.50882465
169	0x3e9683ac	0.29397333
170	0x3e16e2a8	0.147349
171	0xbde303fa	-0.11084743
172	0xbe54e875	-0.207918
173	0xbe475309	-0.19465269
174	0x3e12dbf3	0.14341716
175	0x3ece78b9	0.4032648
176	0xbe2d4672	-0.16921404
177	0xbf2446bb	-0.64170426
178	0xbec01c91	-0.37521794
179	0xbd1d17d5	-0.038352806
180	0x3d876419	0.06610889
181	0x3e02e589	0.12782873
182	0xbd7be4e0	-0.06149757
183	0x3e32740d	0.17427082
184	0xbf862f96	-1.0483272
185	0x3e806448	0.2507651
186	0xbe19c445	-0.15016277
187	0x3ddc835c	0.10767242
188	0xbd2a7c76	-0.0416226
189	0xbebba5ff	-0.36650082
190	0xbd7a2fce	-0.061080746
191	0xbe88fbfa	-0.26754743
192	0x3e97688b	0.29571947
193	0x3ea8ad6b	0.32944807
194	0xbeafff9f	-0.3437471
195	0xbdb317d1	-0.08744777
196	0xbf26a0f7	-0.6508936
197	0x3e94ff22	0.291009
198	0xbe42675c	-0.18984741
199	0xbd2d6710	-0.042334616
200	0xbedc93d7	-0.43081543
201	0x3e191a35	0.14951403
202	0x3d25632f	0.040377792
203	0xbdf4e196	-0.119570896
204	0x3e02d7bc	0.12777609
205	0xbefcf0b2	-0.49402386
206	0x3e476671	0.19472672
207	0x3ec7a867	0.38995668
208	0x3ed328a2	0.41241938
209	0xbed942ee	-0.42433876
210	0x3f48bd40	0.7841377
211	0x3ed63355	0.41836038
212	0x3e4e29e1	0.20133163
213	0x3daa653e	0.08320092
214	0x3f2b630b	0.66948
215	0x3f119f4b	0.56883687
216	0xbf2db476	-0.67853487
217	0x3ebe95bc	0.37223613
218	0xbec0570f	-0.3756642
219	0xbb71ac8e	-0.0036876532
220	0xbf0bb549	-0.54573494
221	0xbf27ac3a	-0.6549717
222	0xbe59c5ea	-0.21266904
223	0x3e79e316	0.24403033
224	0x3e41c648	0.18923295
225	0x3d147bff	0.036251064
226	0xbe479b79	-0.19492902
227	0x3e25af39	0.16180123
228	0xbea96f26	-0.33092612
229	0x3e69ffa2	0.22851422
230	0xbda7e680	-0.08198261
231	0xbd41f1ce	-0.047349744
232	0xbe15b87e	-0.1462116
233	0x3ddb4bf4	0.10707846
234	0x3dae8b41	0.08522654
235	0x3e20e785	0.15713318
236	0x3d8f42f6	0.06995194
237	0x3d6db450	0.058033288
238	0xbea9dee6	-0.3317787
239	0x3e6726d3	0.22573404
240	0x3e98009a	0.2968796
241	0xbe26b6ff	-0.16280745
242	0xbdba03f2	-0.09082784
243	0x3d00b4eb	0.031422537
244	0xbdb241c6	-0.087039515
245	0x39daf524	0.00041762844
246	0x3d974fbd	0.07388256
247	0x3f32fcbb	0.69916886
248	0xbed5c59c	-0.41752326
249	0x3c1c6290	0.0095449835
250	0xbeb9ee05	-0.36314407
251	0x3e07a53b	0.13246624
252	0x3e47fe6b	0.19530647
253	0x3c4ad066	0.012378788
254	0x3da0986c	0.07841572
255	0x3ec040bd	0.3754939

rnn.weight_hh_l1 f4 [128, 32]
0	0x3d36cdc6	0.044629835
1	0x3c479952	0.0121825505
2	0xbd5c7c9e	-0.05382978
3	0x3e0d884f	0.13821529
4	0xbe434462	-0.19069055
5	0xbe2832e0	-0.16425657
6	0x3e3e4565	0.1858116
7	0xbd18b909	-0.03728584
8	0x3db38fe6	0.08767681
9	0xbe35d158	-0.1775564
10	0x3e4dc4ce	0.20094606
11	0xbdb84ca0	-0.0899899
12	0xbc0255e2	-0.007955046
13	0x3ce088e9	0.027409034
14	0x3d868b88	0.06569582
15	0xbe55eb55	-0.20890553
16	0x3e427d27	0.18993054
17	0x3df97060	0.12179637
18	0xbe72b21c	-0.23700756
19	0xbdad29fd	-0.08455274
20	0x3d73ea11	0.059549395
21	0x3e056900	0.13028336
22	0x3d37c918	0.044869512
23	0xbc82be41	-0.01595986
24	0xbf1a5087	-0.60279125
25	0x3de901fd	0.11377332
26	0xbde3ff5c	-0.1113269
27	0xbe6003ea	-0.21876493
28	0x3ddf068f	0.10889923
29	0x3e190137	0.1494187
30	0xbe7fbdca	-0.24974743
31	0x3e001523	0.12508063
32	0xbec52106	-0.38501757
33	0x3ed7dda8	0.42161298
34	0x3c0853bc	0.008320745
35	0xbe3ce297	-0.18445812
36	0x3e1e140c	0.15437335
37	0xbeb95fd9	-0.36205938
38	0x3e5b3f18	0.21410787
39	0x3c880385	0.01660324
40	0x3e1504bc	0.14552587
41	0x3d1bf357	0.038073864
42	0xbcfad602	-0.030619625
43	0x3ba4aeda	0.0050257267
44	0x3e579e26	0.21056423
45	0x3e74ff65	0.2392555
46	0xbaa924d4	-0.0012904652
47	0x3eab4068	0.33447576
48	0xbe9d91bf	-0.30775258
49	0x3eb5cee3	0.35509405
50	0x3e1be7f9	0.1522521
51	0x3e727d2d	0.23680563
52	0xbdbc2fe7	-0.09188824
53	0xbdebd3a9	-0.1151498
54	0x3e1406dd	0.14455743
55	0x3dc08437	0.09400218
56	0x3ee77081	0.4520302
57	0xbe472908	-0.19449246
58	0xbeee5318	-0.4654777
59	0xbde27209	-0.11056907
60	0xbca0ed8d	-0.019644523
61	0xbe933f08	-0.28759027
62	0x3ebfe99e	0.37482923
63	0xbdcbae85	-0.09945396
64	0xbf70b6ac	-0.94028735
65	0xbe622d19	-0.22087516
66	0x3b9c27cd	0.004765487
67	0xbe0697ca	-0.1314384
68	0x3eb10f2e	0.34581894
69	0xbf1b0e29	-0.6056848
70	0x3eaeb958	0.3412578
71	0xbe37a50c	-0.17934054
72	0xbdc5713e	-0.0964074
73	0x3d22fbce	0.03979092
74	0xbea7924d	-0.32728806
75	0xbe6e650a	-0.23280731
76	0x3e737e7d	0.2377872
77	0xbe13ca31	-0.14432599
78	0xbe616c17	-0.22013889
79	0x3e4c0be8	0.19926417
80	0xbe8549cd	-0.26032868
81	0x3de232f6	0.11044876
82	0x3e11f29e	0.14252707
83	0x3e8833a6	0.26601905
84	0x3dc56e74	0.09640208
85	0xbdd2f1aa	-0.103
86	0xbdfd249e	-0.123605
87	0x3e81d521	0.25357917
88	0x3dc54d61	0.096338995
89	0x3d03b539	0.03215525
90	0xbf2a6591	-0.6656123
91	0xbe0f95ad	-0.1402194
92	0xbe22eee2	-0.15911439
93	0xbe13dfad	-0.14440794
94	0x3e97ccc5	0.29648414
95	0xbe438d1d	-0.19096799
96	0xbd04ea48	-0.03244999
97	0xbf13c828	-0.5772729
98	0x3eabe024	0.33569443
99	0xbe935df9	-0.28782633
100	0xbda74848	-0.081680834
101	0xbee61198	-0.44935298
102	0x3cb5235d	0.02211159
103	0xbe3c5e7b	-0.18395416
104	0x3da8d981	0.082446106
105	0xbdd2df4c	-0.10296497
106	0xbc96e403	-0.018419271
107	0x3e3ad83d	0.18246551
108	0x3e26a537	0.16273962
109	0x3e0eba86	0.1393834
110	0xbeba4faf	-0.3638892
111	0xbe02b950	-0.12766004
112	0x3cefb5c4	0.029261477
113	0x3e644413	0.22291593
114	0xbe178d28	-0.1479994
115	0xbc6baca6	-0.014384424
116	0xbd8b5c0a	-0.068046644
117	0x3e7ef2a3	0.24897246
118	0xbe82f6a3	-0.25578794
119	0x3e48201a	0.19543496
120	0xbed16acc	-0.40901792
121	0xbec01a32	-0.37519985
122	0xbe500717	-0.20315205
123	0xbe4cffad	-0.20019408
124	0xbcf94247	-0.030427111
125	0x3d1d2df1	0.03837389
126	0x3e1c855e	0.1528525
127	0x3843f1fb	4.6716985e-05
128	0x3d9f22f3	0.07770338
129	0xbea41c76	-0.32052964
130	0x3e9e2145	0.30884758
131	0x38919273	6.941417e-05
132	0xbd5a88c9	-0.053353105
133	0xbce74f32	-0.028236005
134	0xbef5fdce	-0.480452
135	0xbd597b64	-0.05309619
136	0x3e451a26	0.19248256
137	0xbe2f6be9	-0.17131008
138	0xbe7a6a6c	-0.24454659
139	0x3c0cbab4	0.008589435
140	0x3cac1822	0.021007601
141	0x3c0f0221	0.008728535
142	0x3bac7003	0.0052623763
143	0xbdf32b12	-0.118734494
144	0x3d24ed4f	0.040265378
145	0x3d43dc6b	0.04781763
146	0xbd0c2047	-0.03421047
147	0x3e2d9063	0.1694961
148	0x3de71a4d	0.11284313
149	0x3d4d46f5	0.050116498
150	0xbe740bd1	-0.23832633
151	0x3e90090b	0.281319
152	0x3e961282	0.29310995
153	0xbf04aaa2	-0.51822865
154	0xbe52e6e3	-0.20595889
155	0x3db9e477	0.09076779
156	0xbd274d84	-0.04084541
157	0xbc16541c	-0.009175327
158	0x3d97b8bb	0.074082814
159	0xbd2dcfdc	-0.04243456
160	0xbd21b7f1	-0.03948206
161	0xbd0d276e	-0.03446143
162	0xbe0780cc	-0.13232726
163	0x3ce69a41	0.028149726
164	0x3da50f2e	0.08059536
165	0xbc5efd63	-0.013610217
166	0x3e6f7fb1	0.23388554
167	0x3d6bcc7d	0.057568062
168	0xbd42f900	-0.047600746
169	0xbda5ac97	-0.080895595
170	0x3beb1739	0.007174399
171	0xbe5813fb	-0.21101372
172	0x3dd3a851	0.10334838
173	0xbe2454c0	-0.16047955
174	0xbcde4b11	-0.027135404
175	0x3e53e13e	0.20691392
176	0xbe8b1ee0	-0.27171993
177	0xbdbf8172	-0.093508616
178	0x3b6b5c91	0.0035913328
179	0xbc093410	-0.008374229
180	0xbd2e16f7	-0.04250237
181	0xbe328304	-0.17432791
182	0x3dcb516d	0.0992764
183	0x3e934bc0	0.2876873
184	0x3ddf7b29	0.10912163
185	0xbdc32b27	-0.09529715
186	0xbe2ea4a5	-0.17054994
187	0x3e14bdcc	0.14525527
188	0xbd0fcb5d	-0.03510605
189	0x3e18ab97	0.14909206
190	0x3dfdcd3e	0.123926625
191	0xbdfdaf58	-0.1238696
192	0xbecf3352	-0.40468842
193	0xbed85daa	-0.4225896
194	0x3e953402	0.2914124
195	0xbe71d45d	-0.23616166
196	0xbd95a0f3	-0.07306089
197	0xbed355b1	-0.41276315
198	0xbf756666	-0.9585937
199	0xbecd85b5	-0.40141073
200	0x3f35eba8	0.7106271
201	0xbe724551	-0.23659255
202	0x3e0d29fa	0.13785544
203	0x3f5ca733	0.86192626
204	0x3e934dad	0.287702
205	0x3ed2adb8	0.41148162
206	0xbe45d973	-0.19321232
207	0x3dbd23ce	0.09235345
208	0x3f1cbf09	0.61228997
209	0x3f0fce5e	0.56174266
210	0xbdd662a5	-0.10468034
211	0xbeebbaa7	-0.46040842
212	0x3f2988f6	0.6622461
213	0x3f0f3f07	0.5595555
214	0xbe5ac99c	-0.2136597
215	0x3ed5dc81	0.41769794
216	0xbed065aa	-0.40702564
217	0xbf037c8d	-0.51361924
218	0xbc46a621	-0.012124569
219	0xbe804d50	-0.25058985
220	0x3f43f59a	0.76546633
221	0x3d4817e7	0.04885092
222	0x3cb5fc4e	0.022215035
223	0x3e1b795a	0.1518301
224	0xbe9acf9a	-0.30236512
225	0xbed6fd08	-0.41989923
226	0xbbec2a85	-0.007207217
227	0xbd745233	-0.059648704
228	0xbdcab10b	-0.098970495
229	0xbd954215	-0.07287995
230	0x3cf821d2	0.030289564
231	0x3d18a27f	0.037264343
232	0xbe379bf5	-0.17930587
233	0x3e387084	0.18011671
234	0x3bcca7ee	0.0062456047
235	0xbd5609de	-0.052255504
236	0x3d617373	0.05504174
237	0x3d31e4b3	0.043430995
238	0xbda56b0e	-0.0807706
239	0x3cb027d1	0.021503361
240	0x3e0b9df8	0.13634479
241	0x3be509d2	0.006989696
242	0x3d26ca97	0.04072055
243	0xbe44ea00	-0.19229889
244	0xbda30d55	-0.07961527
245	0xbd99deaa	-0.07513173
246	0xbe9d0a28	-0.3067181
247	0x3e950b1d	0.2911004
248	0xbea7b08f	-0.3275189
249	0xbc202490	-0.009774342
250	0xbe916223	-0.28395185
251	0xbdee7f6b	-0.11645397
252	0xbe10cbfb	-0.14140312
253	0x3d8fc678	0.07020277
254	0x3d1b0f84	0.037856594
255	0xbcf1a1f8	-0.029496178

rnn.bias_ih_l1 f4 [128]
0	0xbb8bb14c	-0.004263079
1	0xbe367f29	-0.17821945
2	0xbddabd1b	-0.106806
3	0xbe3de616	-0.18544802
4	0xbdf22241	-0.1182294
5	0x3d2fbe76	0.042906247
6	0xbdbaf33e	-0.09128426
7	0xbcd3fe3d	-0.025878066
8	0xbe0a51b2	-0.13507727
9	0xbe09faea	-0.13474622
10	0x3db85ef2	0.090024844
11	0xbebda31e	-0.3703851
12	0xbde3d30a	-0.11124237
13	0xbe03ff33	-0.1289032
14	0x3cc07b54	0.023496307
15	0x3dac4eec	0.08413491
16	0xbe61eb1a	-0.2206234
17	0xbd871b9a	-0.065970615
18	0xbd32dcd6	-0.043667637
19	0xbdc83831	-0.09776343
20	0x3e018a6c	0.1265046
21	0x3ce8c6cf	0.028415112
22	0x3d82c99e	0.06386112
23	0x3d8142b5	0.063115515
24	0xbe8331c6	-0.25623912
25	0xbd9d2814	-0.0767366
26	0xbd64b922	-0.05584062
27	0x3ddad5e6	0.10685329
28	0x3d1a05c1	0.037603144
29	0xbc0ad75b	-0.008474196
30	0x3d8b35c2	0.06797363
31	0xbe2af267	-0.16694032
32	0x3d7ed04a	0.06221036
33	0x3d894331	0.06702269
34	0xbd7c6c27	-0.06162658
35	0xbe0bc63a	-0.13649836
36	0xbe677837	-0.22604452
37	0xbda138d5	-0.07872168
38	0x3d827758	0.06370419
39	0xbe2e79c0	-0.17038631
40	0x3c95bf12	0.018279586
41	0xbcb29f2b	-0.021804413
42	0x3d835efd	0.06414602
43	0x3dc529c0	0.09627104
44	0x3e459996	0.1929687
45	0xbe23e682	-0.160059
46	0xbe1b8c18	-0.1519016
47	0xbe14a95f	-0.14517735
48	0xbea15423	-0.31509504
49	0xbdde98c8	-0.108689845
50	0x3d20422e	0.039125614
51	0x3de1f566	0.11033134
52	0xbccb6395	-0.024827758
53	0xbda024bc	-0.078195065
54	0xbe0a7a80	-0.13523293
55	0xbd9303e3	-0.07178476
56	0xbadce0cf	-0.0016851666
57	0xbd53e03e	-0.051727526
58	0xbd21882b	-0.0394365
59	0xbd02d321	-0.03193963
60	0xbd237ca7	-0.0399138
61	0x3c209da3	0.0098032085
62	0x3da64d9d	0.08120272
63	0xbb1a9421	-0.0023586827
64	0x3e2f0657	0.17092262
65	0xbd7e80bc	-0.06213449
66	0x3e11e0e4	0.14245945
67	0xbe13393b	-0.143773
68	0x3cd36ba7	0.025808169
69	0xbc59f02d	-0.013301891
70	0x3cf145a7	0.029452158
71	0x3e39ff71	0.1816385
72	0xbe154e2f	-0.14580606
73	0x3e0d1929	0.13779129
74	0x3dd954ea	0.10611899
75	0xbd4ab648	-0.049490243
76	0xbddd9174	-0.108187586
77	0xbdce23fa	-0.10065456
78	0xbdb841e9	-0.08996946
79	0xbdaddbc7	-0.08489185
80	0x3d68e8d6	0.056862675
81	0xbd7b905c	-0.06141697
82	0xbdd92bf8	-0.106040895
83	0x3e15fb2b	0.14646594
84	0x3dba214c	0.09088382
85	0xbde1ee74	-0.110318094
86	0xbc7187b7	-0.01474183
87	0xbdd108c7	-0.10206752
88	0xbb9148b1	-0.0044337143
89	0xbc4155f7	-0.011800281
90	0x3d3dd97a	0.04634998
91	0xbc5c4c31	-0.0134459
92	0xbd2ff6eb	-0.04296009
93	0x3da1395c	0.078722686
94	0xbd8e6bd3	-0.069541596
95	0x3e457a77	0.19284998
96	0x3dbb7742	0.09153606
97	0xbd2bd42b	-0.041950386
98	0x3b37907e	0.0028009708
99	0xbdc18d04	-0.09450725
100	0x3e2ebb34	0.170636
101	0x3e5448ae	0.2073085
102	0xbdbb8351	-0.09155906
103	0x3c72b0e1	0.014812679
104	0x3d35820d	0.04431348
105	0x3d8989bc	0.06715724
106	0x3d977b93	0.07396617
107	0xbd91674e	-0.07099782
108	0x3e0a592b	0.13510577
109	0xbd675b04	-0.056483284
110	0xbdc643a1	-0.09680868
111	0x3d57b04a	0.052658357
112	0xbde3d114	-0.11123863
113	0xbcf0712d	-0.029350841
114	0x3e8a6aa2	0.2703448
115	0x3c989cb3	0.018629408
116	0x3d9627d9	0.07331819
117	0xbdff2729	-0.12458641
118	0x3e0e6730	0.1390655
119	0xbe89ddbe	-0.26926988
120	0xbe72d420	-0.23713732
121	0xbe9156cb	-0.2838653
122	0xbe022ec7	-0.12713157
123	0x3e09847a	0.13429442
124	0x3ddd0079	0.10791106
125	0xbdaf2abb	-0.08553072
126	0xbccefdbc	-0.025267474
127	0x3e07bbeb	0.13255279

rnn.bias_hh_l1 f4 [128]
0	0x3d400762	0.04688204
1	0xbe13accf	-0.1442139
2	0xbe89c487	-0.2690775
3	0xbe37f59e	-0.1796479
4	0x3ddd9d6d	0.10821042
5	0x3b7acf58	0.003827056
6	0xbe823040	-0.25427437
7	0x3ca1e2a5	0.019761393
8	0xbe121b2e	-0.1426818
9	0x3d0f65c4	0.03500916
10	0x3bb87740	0.00562945
11	0xbe92189e	-0.28534406
12	0x3e2c3085	0.16815384
13	0xbdece2b1	-0.115666755
14	0x3d1aa3d9	0.037753914
15	0xbdc37713	-0.09544196
16	0xbdd49481	-0.10379887
17	0x3e1b3828	0.1515814
18	0x3e0072f8	0.12543857
19	0x3d409ef3	0.047026586
20	0x3d1f38e7	0.038872626
21	0xbdfba813	-0.12287917
22	0xbc2c31e5	-0.010509943
23	0x3c401948	0.0117247775
24	0xbdd19fee	-0.10235582
25	0xbea55bf8	-0.3229673
26	0xbe50a900	-0.20376968
27	0x3e0760d4	0.13220531
28	0x3ceb9915	0.028759519
29	0x3e657631	0.22408368
30	0xbe055f19	-0.13024558
31	0x3d5a87cc	0.053352162
32	0xbdf3d45b	-0.11905738
33	0xbd7e9fe5	-0.062164206
34	0x3e45d629	0.19319977
35	0x3c8ec4ad	0.017427767
36	0x3d4839cc	0.048883244
37	0xbb1fe706	-0.0024399175
38	0xbd13a56e	-0.036046438
39	0xbe22991e	-0.15878722
40	0xbd1c0a08	-0.038095504
41	0xbe2332ff	-0.15937422
42	0x3d49c011	0.049255434
43	0xbdb061e0	-0.08612418
44	0xbb5ac093	-0.0033378943
45	0xbdd735f4	-0.105083376
46	0xbe12ae54	-0.14324313
47	0xbdc158ba	-0.094407514
48	0xbe1814b3	-0.14851646
49	0x3db53e85	0.08849815
50	0x3de7fb32	0.113272086
51	0xbdc6ddb8	-0.09710258
52	0x3d9a3dbb	0.075313054
53	0xbdad526d	-0.08462987
54	0x3de741d7	0.11291855
55	0xbe5b65da	-0.21425572
56	0xbde07256	-0.10959308
57	0xbe1a58ce	-0.15072939
58	0xbd97a5e2	-0.074046865
59	0xbe4756ef	-0.19466756
60	0xbe6ff254	-0.23432285
61	0x3e0b4650	0.13601041
62	0x3dd7725b	0.105198584
63	0x3d45f8c1	0.048332933
64	0x3db68253	0.08911576
65	0xbd2f437d	-0.04278897
66	0xbda1f4ff	-0.079080574
67	0x3e1ac554	0.15114337
68	0xbe4bf5a8	-0.19917929
69	0x3e26a6b7	0.16274534
70	0xbdde8a9f	-0.108662836
71	0x3dda5228	0.10660201
72	0x3d5c45e4	0.05377759
73	0x3d5c0868	0.053718954
74	0x3e185457	0.14875923
75	0xbc04aab1	-0.008097337
76	0xbe83ba1f	-0.25727937
77	0x3c1dfb11	0.009642378
78	0x3c5247bf	0.012834488
79	0xbd9bf304	-0.07614711
80	0x3e075b74	0.1321848
81	0xbdc8831f	-0.09790634
82	0xbd9a1eeb	-0.075254284
83	0xbdcbd190	-0.0995208
84	0x3d7f2bdf	0.062297698
85	0xbde5bdd5	-0.11217848
86	0x3e0fee15	0.14055665
87	0xbd6d9c1c	-0.058010206
88	0x3ce20cee	0.027594056
89	0xbd4e3eb0	-0.050352752
90	0xbdc79edf	-0.09747099
91	0x3e1b714d	0.1517994
92	0x3d1535c4	0.036428228
93	0x3e37df4f	0.17956279
94	0xbe3b4f43	-0.18291955
95	0x3d0c7a6a	0.03429643
96	0xbcd3def0	-0.02586314
97	0xbd744ee2	-0.05964554
98	0x3dd3bf75	0.10339252
99	0xbe18cda2	-0.14922193
100	0x3d1aac2b	0.03776185
101	0x3e2a656c	0.16640252
102	0xbe7d1521	-0.24715091
103	0xbd9f9846	-0.07792716
104	0xbdf04403	-0.11731722
105	0x3d0c237f	0.03421354
106	0x3e267734	0.1625641
107	0x3dafe945	0.085894145
108	0x3e61705b	0.22015516
109	0x3e1cdbdd	0.15318246
110	0xbdb1045a	-0.08643408
111	0x3dff18e5	0.1245592
112	0x3b37e745	0.0028061431
113	0x3c85a65d	0.01631468
114	0xbb63dcb2	-0.0034768996
115	0x3d97e38b	0.07416447
116	0xbd92656b	-0.0714825
117	0xbdc1374d	-0.09434376
118	0xbe18e221	-0.14930011
119	0x3d2f37cf	0.042777833
120	0xbda1f9e5	-0.07908992
121	0xbd844505	-0.06458477
122	0x3d2e0bcf	0.04249173
123	0xbdd4a16d	-0.10382352
124	0x3d837809	0.06419379
125	0x3e80d676	0.2516362
126	0x3dd89355	0.10574976
127	0x3d48fd9d	0.04906999

fc.0.weight f4 [4, 32]
0	0xc101a407	-8.102546
1	0xc13ad7c7	-11.67768
2	0x414526e1	12.321992
3	0xc130c1df	-11.047332
4	0xc124cd51	-10.300126
5	0xc1257cf3	-10.343005
6	0xc12b8ab4	-10.721363
7	0xc0f8ec9f	-7.7788844
8	0x412690e1	10.410371
9	0xc10e2bc6	-8.885687
10	0x412659c0	10.396912
11	0x412dd63a	10.864801
12	0xc0cf3cf2	-6.4761896
13	0x4112c5be	9.173277
14	0xc129c782	-10.611208
15	0xc1197c33	-9.592822
16	0x41334004	11.203129
17	0x40e8e546	7.2779875
18	0xc103e0fc	-8.242428
19	0xc12ae6d1	-10.681352
20	0x411f7a28	9.967323
21	0x411c4a4d	9.76814
22	0xc12e4045	-10.890691
23	0x413f522f	11.957564
24	0xc13b7790	-11.71669
25	0xc141209f	-12.070464
26	0xc12a8adf	-10.658904
27	0xc10696c9	-8.411813
28	0x4125dbc0	10.36615
29	0x40c5bd3a	6.179349
30	0xc1091455	-8.567464
31	0x412fa3aa	10.977457
32	0xc1027dcb	-8.155711
33	0xc134628e	-11.274061
34	0x41447e88	12.280891
35	0xc12c59b8	-10.771904
36	0xc123c1ab	-10.234782
37	0xc1236443	-10.211978
38	0xc125f819	-10.373071
39	0xc0f1fed9	-7.5623593
40	0x4121719d	10.090238
41	0xc10b310b	-8.699473
42	0x4123229c	10.19595
43	0x412aba76	10.670523
44	0xc0c38361	-6.1097875
45	0x410ee697	8.931296
46	0xc127b74c	-10.48225
47	0xc1152320	-9.321075
48	0x41306c3a	11.0264225
49	0x40e7e708	7.246952
50	0xc1014462	-8.079195
51	0xc1276d87	-10.46424
52	0x411d1d48	9.819649
53	0x411aab33	9.666797
54	0xc1297540	-10.5911255
55	0x413b996b	11.724956
56	0xc1362710	-11.384537
57	0xc13eb187	-11.918342
58	0xc12c2991	-10.760148
59	0xc1057050	-8.33992
60	0x41221837	10.130912
61	0x40bcf715	5.9051614
62	0xc107a5d8	-8.477989
63	0x41297ba5	10.592687
64	0xc1040e8f	-8.253554
65	0xc138213a	-11.508112
66	0x4144ba19	12.295434
67	0xc12b363d	-10.700742
68	0xc1226f82	-10.152224
69	0xc1256ed4	-10.339558
70	0xc12c94f9	-10.78637
71	0xc0fb8736	-7.8602552
72	0x4124b17e	10.293333
73	0xc1101b0b	-9.006602
74	0x4122e4d1	10.180863
75	0x412953c8	10.582954
76	0xc0ce5e7e	-6.4490347
77	0x41103f41	9.015443
78	0xc126901d	-10.410184
79	0xc11634a8	-9.387856
80	0x4132650e	11.149672
81	0x40f041cd	7.5080323
82	0xc0fd6c3b	-7.9194617
83	0xc12872d2	-10.528032
84	0x411ee597	9.931052
85	0x411a55d2	9.645952
86	0xc129b26f	-10.606063
87	0x413ba461	11.727632
88	0xc1398a6d	-11.596295
89	0xc13ccedd	-11.800504
90	0xc12e6a5e	-10.900969
91	0xc1060102	-8.375246
92	0x412413d2	10.254839
93	0x40c0b486	6.0220366
94	0xc109f48c	-8.622204
95	0x412e4ffc	10.894527
96	0x38d48b06	0.00010134843
97	0x3bff0b10	0.007783301
98	0xb8863157	-6.398808e-05
99	0x3b621929	0.003449986
100	0xbac18efb	-0.0014767343
101	0x39715762	0.00023016104
102	0x3a808319	0.0009804695
103	0x3b42b33b	0.002970888
104	0x3b943afd	0.0045236335
105	0xbae41cb1	-0.001740357
106	0x3b140089	0.0022583327
107	0xbb8b8ca5	-0.0042587095
108	0x3b24de5a	0.0025156946
109	0x3a888bab	0.0010417601
110	0x38b5acf0	8.662965e-05
111	0xba9039f5	-0.0011003601
112	0x39856d17	0.00025449015
113	0xba5d5193	-0.00084426365
114	0xbaa1d241	-0.0012345986
115	0xbb4e84ae	-0.0031512189
116	0xbb3c0046	-0.0028686686
117	0x3ae611ac	0.0017552874
118	0xbb887db8	-0.0041653775
119	0xba0390d4	-0.00050188345
120	0x3b943dbe	0.004523962
121	0xbc1db49e	-0.009625582
122	0xb9713df7	-0.00023006635
123	0xba1b783d	-0.00059306977
124	0x3a843733	0.0010087251
125	0xbaca72ee	-0.0015445629
126	0xbb2ab47b	-0.0026047516
127	0xbaf4298a	-0.0018628102

fc.0.bias f4 [4]
0	0x405856b7	3.3802927
1	0x406352eb	3.551936
2	0x4066a1b8	3.6036205
3	0x39eae597	0.00044803016
