notebooks/checkpoints/LSTM_optuna/trial_006/LSTM_trial_6/checkpoints/best-epoch=4-val_loss=8.11.ckpt (torch, 713914 bytes, 30 tensors)

rnn.weight_ih_l0 f4 [256, 30]
0	0xbc79adff	-0.015239238
1	0xbd80d044	-0.062897235
2	0x3de757f1	0.1129607
3	0x3cc49086	0.023994695
4	0x3e50a6d1	0.20376135
5	0xbdeee893	-0.11665454
6	0x3e333ee0	0.17504454
7	0x3dc955b7	0.09830802
8	0xbd772dd9	-0.060346458
9	0xbd17fa10	-0.037103713
10	0x3df6afec	0.12045273
11	0x3d1480b9	0.036255572
12	0x3e0a9bdd	0.1353602
13	0x3daf4e68	0.08559877
14	0x3cf82640	0.030291677
15	0x3d88cf69	0.06680185
16	0x3da00534	0.078134924
17	0xbd1e0650	-0.03858024
18	0x3dc7acf6	0.097497866
19	0xbcf18e5e	-0.029486831
20	0x3d945166	0.07242088
21	0x3e1d6e0f	0.15374015
22	0x3d37e631	0.044897262
23	0xbda81028	-0.082062066
24	0xbcf1bd63	-0.029509252
25	0x3d4956b1	0.04915494
26	0xbde5466b	-0.11195072
27	0xbd1ef181	-0.038804535
28	0x3e10e628	0.14150298
29	0x3dc2454e	0.09485875
30	0x3d2c150e	0.042012267
31	0x3d05b8a0	0.032646775
32	0x3e587ec2	0.21142104
33	0xbcb1b031	-0.02169046
34	0x3eb1405d	0.34619418
35	0xbc913102	-0.017723564
36	0xbde8f089	-0.113740034
37	0x3d7bde34	0.061491206
38	0xbdd7d614	-0.10538879
39	0x3b043b68	0.002017701
40	0xbde6f13a	-0.11276479
41	0x3dc4fe0c	0.09618768
42	0xbc23efc7	-0.010005898
43	0xbc841b37	-0.016126258
44	0x3c2dcd4d	0.01060803
45	0xbcb12d7f	-0.02162814
46	0xbd74f5a7	-0.059804585
47	0xbd437f03	-0.04772855
48	0xbd34258f	-0.04398113
49	0x3c856876	0.016285162
50	0x3cebb238	0.028771505
51	0x3dc8eb2a	0.09810479
52	0x3d701393	0.058612417
53	0xbc2c4267	-0.010513878
54	0xbc724599	-0.014787101
55	0x3d96d320	0.07364488
56	0x3d7f94c7	0.062397745
57	0x3e0d9649	0.1382686
58	0xbd8b7e8c	-0.06811246
59	0x3ddb429a	0.107060626
60	0x3dca2bab	0.0987161
61	0x3c35702a	0.011074105
62	0x3e061542	0.13094047
63	0x3d520244	0.051271692
64	0x3a060129	0.0005111867
65	0xbdfa45e3	-0.12220361
66	0xbb7ebe1e	-0.0038870643
67	0xbcbb7b76	-0.02288602
68	0x3ea7e11a	0.32788926
69	0x3d871f4e	0.06597768
70	0xbbe18c45	-0.0068831765
71	0x3d7ecf0c	0.062209174
72	0x3ddb9759	0.10722227
73	0x3d5204ca	0.0512741
74	0x3deb967e	0.115033135
75	0x3e141f3b	0.14465038
76	0x3e3d5ff1	0.1849363
77	0xbd1b2105	-0.037873287
78	0x3e23aecd	0.1598465
79	0x3e07ee5f	0.13274525
80	0x3ca1b9f0	0.019741982
81	0x3def9401	0.116981514
82	0x3d75f181	0.06004477
83	0x3e3a5b3e	0.18198869
84	0x3e12c06f	0.1433122
85	0x3c001e49	0.007819721
86	0x3e3557fa	0.17709342
87	0x3e2f8b35	0.17142947
88	0x3da976e7	0.08274632
89	0x3e323734	0.17403871
90	0x3d93c597	0.07215422
91	0xbe30d16d	-0.1726739
92	0x3c8c98a3	0.017162627
93	0xbd878ba7	-0.066184334
94	0x3ddc5aec	0.107595295
95	0xbe75b46d	-0.23994608
96	0x3d0b4d2c	0.034009144
97	0x3e040fb6	0.12896618
98	0xbd2c7414	-0.04210289
99	0xbe24a7ae	-0.1607959
100	0xbd3e9c91	-0.046536032
101	0xbd22f333	-0.039782714
102	0x3e8fba3b	0.2807177
103	0x3ddcb027	0.10775786
104	0xbd3e94dd	-0.046528686
105	0x3ef2d639	0.47429064
106	0xbc95c792	-0.01828364
107	0xbe10e7d4	-0.14150935
108	0x3c916e8a	0.017752904
109	0x3bcf25d5	0.0063216486
110	0x3e3c229c	0.18372577
111	0x3d48c1fc	0.049013123
112	0x3d050f91	0.03248555
113	0xbd13fb0c	-0.03612809
114	0xbd6801e4	-0.056642428
115	0x3e328e85	0.1743718
116	0xbe636f6f	-0.22210477
117	0x3db7b5db	0.08970233
118	0xbe3ddcab	-0.1854121
119	0xbd0d3966	-0.034478568
120	0xbe0fbfee	-0.14038059
121	0xbd5c3a6d	-0.053766657
122	0xbda9b9c7	-0.08287387
123	0x3e005691	0.12533022
124	0xbe85d940	-0.2614231
125	0x3e75e541	0.24013235
126	0x3da9a1bf	0.08282804
127	0x3d837119	0.06418056
128	0x3dd44cfe	0.103662476
129	0xbe00e862	-0.12588647
130	0xbc15d160	-0.009144157
131	0x3d3a6780	0.04550886
132	0xbe30ecd2	-0.1727784
133	0xbd54a76e	-0.051917486
134	0xbca8b902	-0.020596031
135	0xbe2d8205	-0.1694413
136	0xbd613f6e	-0.054992132
137	0xbda7b7e5	-0.08189372
138	0xbdc4281f	-0.09577965
139	0xbd836d46	-0.06417327
140	0x3c95147c	0.018198244
141	0xbddb1c39	-0.106987424
142	0xbdced885	-0.100998916
143	0xbc2ee761	-0.010675282
144	0x3b7e6231	0.003881585
145	0x3c3820bb	0.011238272
146	0xbe1076bb	-0.14107792
147	0xbdf42ff9	-0.119232126
148	0xbd89558a	-0.067057684
149	0xbe31826f	-0.17334913
150	0x3d4a1cc0	0.049343824
151	0xbe1f36c9	-0.15548243
152	0x3c8fc054	0.017547764
153	0xbd8de50d	-0.069284536
154	0x3dfa0749	0.12208421
155	0x3d86f987	0.06590562
156	0xba3b14b3	-0.00071365683
157	0xbe44f1bf	-0.19232844
158	0xbdeb05df	-0.11475729
159	0xbd99c741	-0.07508708
160	0xbdbe61e5	-0.09296016
161	0xbe1f0662	-0.15529779
162	0xbcf28639	-0.029605018
163	0xbdb3751e	-0.08762573
164	0xbd8f4ce6	-0.06997089
165	0x3cc208e2	0.023685876
166	0xbe0f9fdf	-0.1402583
167	0xbcbcea92	-0.02306107
168	0xbe0d4f0e	-0.13799688
169	0x3d809e48	0.0628019
170	0xbd95dd29	-0.073175736
171	0xbadb671b	-0.0016739102
172	0xbdb4dc70	-0.088311076
173	0x3be8398d	0.0070869387
174	0x3df46944	0.1193414
175	0xbdd021aa	-0.10162671
176	0x3d96b187	0.073580794
177	0xbdf1d858	-0.118088424
178	0xbe1a3f9b	-0.15063326
179	0x3d5dd968	0.054162413
180	0x3d2ae336	0.04172059
181	0x3d6a69b0	0.057229698
182	0x3dc7b40b	0.09751137
183	0x3d828ae5	0.06374148
184	0x3d8c7ee7	0.06860142
185	0x3c64bdcb	0.013961266
186	0x3e13cce4	0.14433628
187	0x3e376d5e	0.17912814
188	0x3dc7493d	0.09730766
189	0x3d16355d	0.036671985
190	0x3c9a7269	0.018853383
191	0xbdc2ee75	-0.09518138
192	0xbdd9e64b	-0.10639628
193	0xbda4c2e9	-0.08044989
194	0xbcc6ba13	-0.024258649
195	0xbd148764	-0.03626193
196	0xbb884b24	-0.004159348
197	0xbdbeab83	-0.09310057
198	0xbd0b90c2	-0.0340736
199	0x3e1cc9f4	0.15311414
200	0x3cb4747f	0.022028206
201	0x3dfcd3d6	0.12345092
202	0xbe08d989	-0.13364233
203	0xbdd5aed8	-0.104337394
204	0x3d502036	0.05081197
205	0xbdba8970	-0.091082454
206	0xbcf29be7	-0.029615356
207	0x3bf21c0e	0.0073885983
208	0x3e1706b6	0.14748654
209	0x3e16544c	0.14680594
210	0x3dd550fd	0.10415838
211	0x3db8a86e	0.090165004
212	0x3d79d952	0.06099827
213	0x3e330f40	0.17486286
214	0x3e2cbb1d	0.16868253
215	0x3e87a031	0.26489404
216	0xbdbdb119	-0.09262294
217	0xbcc5834f	-0.024110464
218	0x3e35362c	0.17696446
219	0xbdddc6a5	-0.10828904
220	0x3d6f1b14	0.058375433
221	0xbe2ec5bd	-0.17067619
222	0xbdc9951b	-0.09842893
223	0x3c997425	0.01873214
224	0xbe2969fd	-0.16544338
225	0x3c8db70e	0.017299201
226	0xbd98cf1a	-0.074613765
227	0xbe6ba442	-0.23011878
228	0xbe1e5e1c	-0.15465587
229	0xbccf99f8	-0.025341973
230	0xbd41e02d	-0.04733293
231	0xbd76f92b	-0.06029622
232	0x3d88ecca	0.06685789
233	0xbd3ecfd1	-0.046584908
234	0xbde389fa	-0.11110301
235	0xbd71eb9e	-0.059062593
236	0xbcf70c9d	-0.030157382
237	0xbb4f4cdc	-0.0031631505
238	0xbdfee81b	-0.12446614
239	0x3d62b9ba	0.055352904
240	0x3e215df3	0.15758495
241	0x3df61f88	0.12017733
242	0x3e100a2a	0.14066377
243	0x3cf56d6a	0.0299594
244	0x3e290b99	0.1650833
245	0x3e587f41	0.21142294
246	0xbc211969	-0.009832718
247	0x3d8d9ece	0.06915055
248	0x3dd7c26b	0.10535129
249	0x3d1310db	0.035904747
250	0xbd03da31	-0.032190505
251	0x3d59085b	0.052986484
252	0x3da85491	0.08219255
253	0x3e313d4a	0.17308536
254	0xbb7a1744	-0.003816084
255	0x3dcb856a	0.09937556

rnn.weight_hh_l0 f4 [256, 64]
0	0xbbdfbf9c	-0.0068282615
1	0xbe529ba5	-0.20567186
2	0xbdf1dc81	-0.11809636
3	0x3da9e5ab	0.08295759
4	0x3d26a2f3	0.040682744
5	0xbd236caf	-0.03989857
6	0x3c9f02f4	0.019410588
7	0x3e2e63a5	0.17030199
8	0xbbcb6495	-0.0062070587
9	0xbdfdb2c8	-0.123876154
10	0xbdaa2eba	-0.08309694
11	0xbca0f1ea	-0.019646604
12	0x3d780a45	0.06055667
13	0xbcabed99	-0.020987319
14	0x3dec577d	0.115401246
15	0xbbf57ef7	-0.007491942
16	0x3cd65c53	0.02616707
17	0x3d86ff9f	0.065917246
18	0xbdb91156	-0.0903651
19	0x3d0e8e7e	0.03480386
20	0xbce2f915	-0.027706662
21	0x3bbca379	0.005756792
22	0x3e5f0d7b	0.21782486
23	0x3d9b446e	0.07581411
24	0x3d7a444e	0.061100297
25	0xbd455090	-0.048172534
26	0xbe6f8b06	-0.23392877
27	0xbdb7f693	-0.08982577
28	0x3e5344de	0.2063174
29	0x3db3f06a	0.0878609
30	0xbd5b44bf	-0.05353236
31	0x3d9da44a	0.07697351
32	0x3dfe74a8	0.12424594
33	0xbd5149dd	-0.051095832
34	0x3c446c73	0.011988747
35	0x3ca2c54a	0.019869465
36	0xbd2f3bcb	-0.042781632
37	0xbe858d3e	-0.26084322
38	0xbd3a5483	-0.045490753
39	0x3d9f393a	0.07774587
40	0xbe0f7df0	-0.14012885
41	0xbdb5d503	-0.088785194
42	0x3d98cf94	0.074614674
43	0xbe1a5933	-0.1507309
44	0xbd5db754	-0.054129913
45	0x3e354fae	0.17706177
46	0xbc89581b	-0.016765645
47	0x3b6d0038	0.003616346
48	0x3e65e98b	0.22452371
49	0xbe357890	-0.17721772
50	0xbde60e83	-0.11233237
51	0x3d7dd536	0.061970912
52	0xbd65f882	-0.0561452
53	0x3dd4002b	0.103515945
54	0xbdfbdfe2	-0.12298562
55	0xbe7498d4	-0.23886424
56	0xbdbd05bc	-0.09229609
57	0x3e368f16	0.1782802
58	0x3e303582	0.17207912
59	0x3d72a6ae	0.05924099
60	0xbc1722dc	-0.00922462
61	0x3e089c01	0.13340761
62	0x3b129f8b	0.0022372927
63	0x3dbf2807	0.093338065
64	0x3e7c2bfb	0.24626152
65	0xbe91b656	-0.28459424
66	0x3cd409cb	0.025883576
67	0x3df4c823	0.119522355
68	0x3de7cc2f	0.11318242
69	0xbe1cc5e2	-0.15309861
70	0x3e6e3b71	0.23264863
71	0x3ebf3a8a	0.3734935
72	0x3de152eb	0.110021435
73	0xbeb2d2a7	-0.3492634
74	0xbdfa5daf	-0.122249
75	0x3dc92ed3	0.09823384
76	0xbe1945f5	-0.14968093
77	0xbe24cd52	-0.16093948
78	0xbd26fd99	-0.040769193
79	0xbe367068	-0.17816317
80	0xbed95b1a	-0.42452317
81	0xbec9715f	-0.39344308
82	0xbd057c28	-0.032589108
83	0x3e9cc5c6	0.3061964
84	0xbbd552aa	-0.0065100985
85	0xbda0971d	-0.078413226
86	0x3e498710	0.19680429
87	0xbca1aae9	-0.019734817
88	0xbd984eb7	-0.07436889
89	0xbd40575c	-0.046958312
90	0xbedc0917	-0.42975685
91	0xbed29514	-0.41129363
92	0x3e1d3c1b	0.1535496
93	0x3c69e96f	0.014276846
94	0xbcdc7cfd	-0.026915068
95	0xbded72bf	-0.11594152
96	0xbd41b2a1	-0.047289494
97	0x3e0abc5f	0.1354842
98	0x3d456211	0.048189227
99	0x3e98e85e	0.29864782
100	0x3e8d78fc	0.27631366
101	0xbea301b0	-0.31837225
102	0x3e2b7820	0.16745043
103	0x3e15f8ff	0.14645766
104	0x3d2bbc8d	0.041927863
105	0xbd58d8cd	-0.052941132
106	0xbc0cca48	-0.0085931495
107	0xbe97ae18	-0.2962501
108	0xbd3672bf	-0.044543024
109	0x3d6bbe87	0.057554748
110	0x3ca4cddd	0.020117695
111	0x3dcb16e3	0.09916475
112	0x3cd6a106	0.026199829
113	0x3dbd095b	0.092303
114	0x3e43b3c0	0.19111538
115	0xbdd0fe0e	-0.10204707
116	0xbe6b5432	-0.22981337
117	0x3dcc4ef2	0.09975995
118	0xbcb76074	-0.02238486
119	0x3cc96721	0.024585309
120	0xbdcb73cf	-0.09934198
121	0xbddc8557	-0.1076762
122	0x3d0db69a	0.03459797
123	0x3dcc37a7	0.09971552
124	0xbdfb45f2	-0.122692004
125	0xbdb19cb9	-0.086724706
126	0xbe9062cc	-0.28200376
127	0xbd904f98	-0.07046431
128	0xbf0de509	-0.55427605
129	0x3e75a0dc	0.23987144
130	0xbe3263e2	-0.17420915
131	0x3eeb1527	0.45914575
132	0xbe72313d	-0.23651595
133	0x3e62c791	0.22146441
134	0xbe76ff19	-0.2412075
135	0xbe93c4ae	-0.28860992
136	0x3dea6ddd	0.11446736
137	0x3f4e691b	0.8062913
138	0x3d507046	0.050888322
139	0xbe67ec6f	-0.22648786
140	0xbb50a3e6	-0.0031835972
141	0x3e744c04	0.23857123
142	0x3f89213c	1.0713267
143	0x3e54c9ba	0.20780078
144	0xbe6fe24f	-0.23426174
145	0xbe388636	-0.18019947
146	0x3de41a41	0.1113782
147	0xbdce8933	-0.100847624
148	0x3e2eeebd	0.17083259
149	0x3e463e3e	0.19359681
150	0xbe97749d	-0.29581156
151	0xbdc11c4c	-0.09429225
152	0x3d87a3c9	0.066230364
153	0x3f1a3bc2	0.60247433
154	0x3d3e77ac	0.046500847
155	0x3e8f2191	0.27955297
156	0x3f1b8948	0.6075635
157	0x3e012d6a	0.1261498
158	0x3e04d056	0.12970099
159	0xbd287ff8	-0.041137666
160	0xbf50ac0a	-0.8151251
161	0x3f52ec9f	0.82392305
162	0x3f171791	0.59020334
163	0x3d682f4a	0.056685723
164	0x3e59ec35	0.21281512
165	0x3e945d10	0.2897725
166	0x3e854ba0	0.2603426
167	0xbd726849	-0.059181485
168	0xbd3f39d2	-0.046686
169	0xbadea986	-0.0016987778
170	0x3f6f96a0	0.9358921
171	0x3ebf36ef	0.37346599
172	0x3dddc7ff	0.10829162
173	0x3d1fd3ab	0.03902022
174	0xbbe5541f	-0.0069985534
175	0x3d7ade36	0.061247073
176	0xbe42ba3a	-0.19016352
177	0x3d046c52	0.032329865
178	0xbca17d4a	-0.019713063
179	0xbe368b3a	-0.17826548
180	0x3e37ee6c	0.17962044
181	0x3f6c6ff7	0.92358345
182	0x3e8f990e	0.2804646
183	0x3ed7c3b5	0.421415
184	0xbeb4a67a	-0.35283262
185	0xbe717578	-0.23579967
186	0x3f4a3ae4	0.7899611
187	0xbea3cc9c	-0.31992042
188	0x3d8a251a	0.06745358
189	0x3df06312	0.11737646
190	0x3dfca4a7	0.123360924
191	0xbd5a5670	-0.05330509
192	0xbc4dcdb4	-0.0125612505
193	0xbe76ed9e	-0.24114081
194	0x3eb0545b	0.34439358
195	0xbf313012	-0.69213974
196	0x3dcc1370	0.09964645
197	0x3ddd0f8a	0.107939795
198	0xbd8ea41b	-0.069648944
199	0x3d514312	0.051089354
200	0xbe338854	-0.17532474
201	0xbcb0b3ec	-0.021570168
202	0xbedcaed6	-0.4310214
203	0x3eb8d85e	0.36102575
204	0xbe4f5b4c	-0.2024967
205	0x3e9856be	0.2975368
206	0xbe55a6e7	-0.2086445
207	0xbeadf42c	-0.3397535
208	0x3e6ab1eb	0.22919433
209	0x3e81f9fc	0.25386035
210	0xbea68dc0	-0.32530022
211	0x3de75800	0.112960815
212	0x3dc234c2	0.09482719
213	0x3ddd33e7	0.10800915
214	0xbe04f9c6	-0.12985906
215	0x3e989c46	0.29806727
216	0x3e81a735	0.2532288
217	0xbe97e2a3	-0.29665098
218	0x3a7db425	0.0009678028
219	0x3dfedef8	0.12444872
220	0xbe4fac7d	-0.20280643
221	0xbe802019	-0.2502449
222	0x3d6d735c	0.057971343
223	0x3e91e4f1	0.2849498
224	0x3dcb5805	0.09928898
225	0xbd4cc436	-0.04999181
226	0xbe16e8cc	-0.14737242
227	0x3dcf64c9	0.10126645
228	0xbe996abc	-0.29964244
229	0x3ddbdf75	0.107359804
230	0xbdc1092b	-0.09425577
231	0x3e1e195f	0.15439366
232	0xbeecd9c0	-0.4625988
233	0x3dc15d48	0.0944162
234	0xbea3ff1c	-0.3203057
235	0x3e01d4f2	0.12678888
236	0xbe83419e	-0.25636
237	0xbe4e1ad0	-0.20127416
238	0xbdd09d5b	-0.10186263
239	0xbbda90b4	-0.006670082
240	0x3e060888	0.13089192
241	0xbe47e7c5	-0.19522007
242	0x3e47375b	0.1945471
243	0x3e91e28d	0.28493157
244	0xbf0a6117	-0.540544
245	0xbe13ecdc	-0.14445823
246	0xbe0e7832	-0.13913038
247	0xbe9d90bc	-0.30774486
248	0x3ed1a955	0.40949503
249	0x3e4c3014	0.19940215
250	0xbe9af97a	-0.3026846
251	0x3d256ac5	0.040385026
252	0xbe848648	-0.25883698
253	0xbed131c6	-0.40858287
254	0x3eac6917	0.33673927
255	0xbec8f0f4	-0.39246333

rnn.bias_ih_l0 f4 [256]
0	0x3c97f6ae	0.018550243
1	0x3dc5ee99	0.096646495
2	0xbd410d77	-0.04713198
3	0xbe016511	-0.1263621
4	0x3e33ed58	0.17571008
5	0x3e1337a4	0.14376694
6	0x3c4810d7	0.012211046
7	0x3dc6f4d4	0.09714666
8	0xbb8f51da	-0.004373771
9	0x3df2ec0f	0.11861431
10	0xbbd3a605	-0.006459
11	0x3e308df0	0.17241645
12	0x3e567129	0.20941605
13	0xbd6e9d19	-0.05825529
14	0xbc836070	-0.016037196
15	0x3cdbf5b6	0.026850563
16	0xbc41a24d	-0.011818481
17	0xbc353841	-0.011060775
18	0x3de8bc67	0.1136406
19	0x3de1e246	0.11029486
20	0x3da6593c	0.08122489
21	0x3dbf9d11	0.0935613
22	0x3cdc8b13	0.026921785
23	0x3dc76a8c	0.09737119
24	0x3eacf24f	0.33778617
25	0x3d804b8e	0.06264411
26	0x3ae78592	0.0017663708
27	0xbea3d4ca	-0.31998283
28	0x3d25cd3f	0.04047894
29	0x3e20c2c9	0.15699305
30	0x3df48434	0.11939278
31	0xbe1ea5eb	-0.1549298
32	0x3c3a08c6	0.011354631
33	0x3dde0739	0.10841221
34	0xbdfd28bf	-0.12361287
35	0xbb0860e7	-0.0020809711
36	0x3e091025	0.13385065
37	0x3e23e378	0.16004741
38	0x3c550e08	0.013003834
39	0x3dfacdb0	0.12246263
40	0x3df5bf67	0.11999398
41	0xbd87a059	-0.06622381
42	0x3d8226fd	0.06355093
43	0xbe5971f3	-0.21234874
44	0xbd77158a	-0.060323276
45	0xbe0ae626	-0.13564357
46	0x3e559bb0	0.20860171
47	0x3dad83a3	0.08472373
48	0x3e36700e	0.17816183
49	0x3c9a1fcc	0.01881399
50	0x3d8fbdad	0.070186
51	0xbdc31259	-0.09524984
52	0x3f14194f	0.5785112
53	0xbc0e9bce	-0.008704139
54	0x3e23d058	0.15997446
55	0x3dba9040	0.09109545
56	0xbd814ac0	-0.063130856
57	0x3e6b1eb9	0.22960939
58	0x3a9ca55d	0.0011951138
59	0x3e38ec0f	0.18058799
60	0x3d52e11c	0.051484212
61	0xbd3ed7aa	-0.046592392
62	0x3d68c442	0.05682779
63	0xbddf7c60	-0.109123945
64	0xbd841d12	-0.06450857
65	0x3d8a3db4	0.0675005
66	0xbe24ba8c	-0.16086787
67	0x3ba2ee6e	0.0049722707
68	0xbd7ba241	-0.061434034
69	0x3e8c39a9	0.2738774
70	0xbd053d86	-0.032529376
71	0x3e6f40b3	0.23364525
72	0xbe78c891	-0.2429526
73	0xbdb558a0	-0.088547945
74	0xbe6e3bdf	-0.23265027
75	0x3d46097a	0.04834888
76	0xbe24c8d2	-0.16092232
77	0xbd0c3dbf	-0.034238573
78	0xbb3320a1	-0.002733268
79	0x3ab769a7	0.0013993279
80	0x3d81134a	0.06302507
81	0x3d621e95	0.055204947
82	0x3b7d424d	0.0038644255
83	0xbe050028	-0.12988341
84	0xbd599000	-0.053115845
85	0xbdce578e	-0.100752935
86	0xbe0b2fff	-0.13592528
87	0xbe476170	-0.19470763
88	0x3b2a9749	0.0026030114
89	0x3e63a6ae	0.22231552
90	0xbc3d2a7a	-0.011545772
91	0xbe9fd67e	-0.31218332
92	0xbdb0447a	-0.08606811
93	0xbcb206f3	-0.02173183
94	0x3d8bf185	0.068331756
95	0x3e045211	0.12921931
96	0x3d3c0545	0.045903463
97	0xbc5f93b3	-0.013646054
98	0xbda9cef6	-0.08291428
99	0xbcf42eb5	-0.029807428
100	0xbdc897f2	-0.09794606
101	0x3d4f3504	0.05058767
102	0xb9eeb951	-0.0004553297
103	0x3cc9962e	0.024607744
104	0xbd685cc2	-0.056729086
105	0xbc02d6d7	-0.007985792
106	0xbe671676	-0.22567162
107	0xbe0a2728	-0.134915
108	0xbe9df597	-0.30851433
109	0xbc90bd83	-0.017668491
110	0x3e2ab494	0.16670448
111	0x3e0cfc15	0.13768037
112	0xbc9f0285	-0.019410381
113	0x3dce5cf9	0.10076327
114	0x3daf9946	0.085741565
115	0x3dee4350	0.116339326
116	0xbcaf53f1	-0.021402331
117	0x3e26775c	0.1625647
118	0xbc102802	-0.008798601
119	0x3da350d9	0.07974405
120	0xbe57f711	-0.21090342
121	0x3d448434	0.04797764
122	0xbe701130	-0.23444057
123	0xbdc1b893	-0.09459033
124	0x3c0f5285	0.0087477015
125	0xbe2ba165	-0.16760786
126	0xbd558c2e	-0.05213564
127	0xbec99b27	-0.39376184
128	0x3dc0a1f7	0.09405892
129	0x3cedff2e	0.029052343
130	0xbd8f67ae	-0.07002197
131	0x3d101445	0.03517558
132	0xbd6c2fce	-0.057662778
133	0x3dc5c175	0.096560396
134	0x3ba7c0fe	0.005119442
135	0xbd98be99	-0.074582286
136	0x3d661f9e	0.056182496
137	0x3dfb13b9	0.12259621
138	0xbdd9fb03	-0.1064358
139	0x3e1da078	0.15393245
140	0x3f0acfee	0.54223526
141	0xbdbfef06	-0.09371762
142	0x3df265f1	0.1183585
143	0x3cf1c481	0.029512646
144	0x3ca9747b	0.020685425
145	0x3d64dd78	0.05587527
146	0x3d58d67f	0.052938934
147	0x3cf4eaae	0.02989706
148	0xbde0f05c	-0.10983345
149	0xbe485667	-0.1956421
150	0xbd03b9e1	-0.03215969
151	0x3e28e490	0.1649344
152	0xbdc16851	-0.09443725
153	0x3de8aa2d	0.113605835
154	0xbe302b63	-0.1720405
155	0x3d1e7aa3	0.038691174
156	0xbd20e7be	-0.039283507
157	0x3da903d1	0.08252681
158	0x3e3613f9	0.17781056
159	0xbca1fa50	-0.019772679
160	0xbd5cf15a	-0.05394111
161	0x3d923748	0.0713945
162	0x3c2606ca	0.010133455
163	0xbd3ea1c5	-0.046540994
164	0xbe89cab4	-0.26912463
165	0x3d590e9a	0.05299244
166	0xbd898368	-0.06714517
167	0x3e004060	0.12524557
168	0x3d224569	0.039616976
169	0x3debe184	0.11517623
170	0xbd403b3a	-0.046931483
171	0xbd3ca822	-0.04605878
172	0x3cb37253	0.0219051
173	0x3db0a7b5	0.086257376
174	0xbdf5a3e8	-0.11994153
175	0x3df78613	0.120861195
176	0x3ecb443a	0.3970049
177	0x3ca421c7	0.020035638
178	0x3d133e8f	0.035948332
179	0x3df8cd36	0.12148516
180	0x3d3aca3f	0.045603033
181	0x3d6495c6	0.055806898
182	0xbb5e903d	-0.0033960484
183	0x3dc0c8b3	0.0941328
184	0x3de81c66	0.113335416
185	0xbcad19e6	-0.021130513
186	0x3d6dbd84	0.058042064
187	0xbe16aa31	-0.1471336
188	0x3c1a278f	0.009408846
189	0xbc8ceb36	-0.017202001
190	0xbd01ace2	-0.031659015
191	0xbb4c0453	-0.0031130507
192	0xbf41d8cd	-0.75721437
193	0x3ec30977	0.3809316
194	0x3d6f62a3	0.058443677
195	0xbf2edc8e	-0.6830529
196	0x3d531a9f	0.05153906
197	0x3eba7560	0.36417675
198	0xbd5e1f75	-0.05422922
199	0xbd384a28	-0.044992596
200	0xbd5071b4	-0.050889686
201	0x3f20003c	0.6250036
202	0xbdb2b4ee	-0.08725916
203	0xbc94a8e4	-0.01814694
204	0x3de13d6c	0.109980434
205	0x3b3411a4	0.0027476335
206	0xbcd91c37	-0.026502712
207	0x3e3869fa	0.18009177
208	0xbd9657db	-0.07340976
209	0x3d84802f	0.064697616
210	0xbd1bf104	-0.038071647
211	0x3f495376	0.78642976
212	0x3da321b9	0.079654165
213	0x3e032cf5	0.12810118
214	0x3d3fbb18	0.046809286
215	0x3ee80bce	0.45321506
216	0x3e427a8b	0.18992059
217	0xbeffc38d	-0.4995388
218	0x3bf1a53e	0.0073744347
219	0x3d3ab129	0.04557911
220	0x3df44e45	0.11928991
221	0xbe274be8	-0.1633755
222	0x3cfa7918	0.03057532
223	0xbe5c9b0e	-0.21543524
224	0x3d1e6f08	0.038680106
225	0xbf341b71	-0.7035437
226	0xbf0394ce	-0.5139893
227	0xbd94de06	-0.0726891
228	0x3d99bbfd	0.07506559
229	0x3e206685	0.15664108
230	0xbd31e8e0	-0.043434978
231	0x3d8deda7	0.06930094
232	0xbaeae94c	-0.0017922311
233	0xbdc72dc0	-0.09725523
234	0x3e34781f	0.17623948
235	0x3e0af291	0.13569094
236	0xbedfc314	-0.4370352
237	0xbe9ce501	-0.30643466
238	0x3e788151	0.2426808
239	0x3eb0ea9f	0.34554002
240	0x3e02c626	0.127709
241	0x3c92a1ba	0.017899383
242	0x3a2c741f	0.00065785827
243	0x3ea0f18f	0.31434295
244	0x3e26698a	0.16251197
245	0xbf335046	-0.7004436
246	0xbdf03e16	-0.11730592
247	0x3e407cf7	0.1879767
248	0x3db38d3b	0.08767172
249	0x3e378fde	0.17925975
250	0x3d3c3b6e	0.045955114
251	0x3e1f6cd4	0.15568858
252	0x3d98ce51	0.07461227
253	0x3f18a7d8	0.5963111
254	0x3bb5520b	0.005533462
255	0xbd0d2f87	-0.034469154

rnn.bias_hh_l0 f4 [256]
0	0x3d4cc973	0.049996804
1	0xbdaf5209	-0.08560569
2	0xbd6e758d	-0.058217574
3	0xbe1ebfec	-0.155029
4	0x3ddfe417	0.109321766
5	0x3d1bed0a	0.038067855
6	0x3d5eb5c8	0.05437258
7	0x3d944390	0.07239449
8	0x3e450ebf	0.19243906
9	0x3d386b78	0.045024365
10	0xbca2ff61	-0.019897165
11	0x3e15a5d8	0.14614046
12	0x3c3d7d50	0.011565521
13	0xbbce5fc7	-0.0062980386
14	0x3dfbd608	0.122966826
15	0xbce05018	-0.027381942
16	0x3d393148	0.045213014
17	0x3e08f492	0.13374546
18	0x3e3b0f69	0.18267597
19	0x3c64697e	0.013941167
20	0xbded7869	-0.11595232
21	0x3e630d58	0.22173059
22	0x3e3699ec	0.17832154
23	0x3dd991be	0.10623501
24	0x3e7b46cf	0.2453873
25	0xbb1603aa	-0.0022890368
26	0x3d3c64a3	0.045994412
27	0xbe6f62bf	-0.23377512
28	0x3d03267f	0.032019135
29	0x3e757818	0.23971593
30	0x3e0fccbf	0.14042948
31	0xbd325094	-0.043533877
32	0x3ad53d2c	0.0016268841
33	0xbc8f1ad3	-0.017468845
34	0x3d88854d	0.0666605
35	0x3d8b339a	0.067969516
36	0xbd8aa4fa	-0.06769748
37	0xbcf7886d	-0.03021642
38	0x3c969196	0.018379968
39	0x3e07fa11	0.13278987
40	0x3d5bac53	0.053631138
41	0xbdfbc3b0	-0.12293184
42	0x3d136081	0.035980705
43	0xbe8a1f4f	-0.26977012
44	0xbe0f1add	-0.13975091
45	0x3d7eeb96	0.06223639
46	0x3dfea480	0.1243372
47	0xbd392408	-0.045200378
48	0x3d4c1b1f	0.049830552
49	0x3cdc1e40	0.026869893
50	0xbe1319b6	-0.14365277
51	0xbdf82065	-0.12115554
52	0x3eece9c0	0.46272087
53	0xbd1dc882	-0.038521297
54	0x3c170dfd	0.009219644
55	0x3d8d8582	0.0691023
56	0x3db707ee	0.08937059
57	0x3e6129e5	0.21988638
58	0xbd935cb1	-0.07195414
59	0x3d26197d	0.04055165
60	0x3d93c150	0.07214606
61	0xbe00407d	-0.125246
62	0x3dbe9b70	0.09306991
63	0xbe97e137	-0.29664013
64	0x3dc3730b	0.09543427
65	0xbe1854cb	-0.14876096
66	0xbe32d5d8	-0.17464387
67	0x3e1d4fcc	0.15362471
68	0xbd3b6f32	-0.04576034
69	0x3dfa825a	0.12231894
70	0xbdeeee81	-0.11666585
71	0x3e099b6f	0.134382
72	0xbe9810af	-0.2970023
73	0x3dbf5ce0	0.093438864
74	0xbdc74cfd	-0.09731481
75	0xbb98b082	-0.0046597132
76	0xbe8604ba	-0.2617548
77	0xbdb51214	-0.08841339
78	0x3e41e842	0.18936256
79	0xbd2c2a0f	-0.042032298
80	0x3da53e9a	0.08068581
81	0xbcde5fe7	-0.02714534
82	0x3e0537e0	0.13009596
83	0xbe102507	-0.14076625
84	0x3c5c0570	0.013429031
85	0xbda8a095	-0.082337536
86	0xbe55df8a	-0.20886055
87	0xbdd048c9	-0.10170133
88	0x3e134008	0.14379895
89	0x3d958e1f	0.07302498
90	0x3dbe7a71	0.093006976
91	0xbe5679c2	-0.20944884
92	0xbd125bc2	-0.03573204
93	0xbcc119b9	-0.023571836
94	0x3c3e7c3c	0.0116262995
95	0x3cc477cc	0.023982905
96	0x3df81559	0.12113447
97	0x3dbb343f	0.091408245
98	0x3d69d088	0.057083637
99	0xbda49682	-0.080365196
100	0xbcbd2d41	-0.023092868
101	0x3d0e2261	0.034700755
102	0xbe26cb0f	-0.16288398
103	0xbd57522a	-0.052568592
104	0xbe01a4fd	-0.12660594
105	0x3e1b6d62	0.15178445
106	0xbc1c7b85	-0.009550934
107	0x3c96d391	0.01841143
108	0xbe465ddb	-0.1937174
109	0xbccc0cbf	-0.024908422
110	0x3e2c7a72	0.16843584
111	0x3e18ef0f	0.14934944
112	0x3ddd2093	0.10797229
113	0x3e0197a0	0.12655497
114	0xbc860017	-0.016357465
115	0x3d6eb189	0.05827478
116	0xbd30af56	-0.043135963
117	0xbcf71cdd	-0.03016513
118	0x3e17ccf9	0.14824285
119	0x3e0c06d1	0.13674475
120	0xbe53763a	-0.20650569
121	0x3e6b5936	0.2298325
122	0xbe80d38c	-0.25161397
123	0xbe1a32b7	-0.15058409
124	0xbd87ed85	-0.066371
125	0x3c561eab	0.013068835
126	0xbd4c55a7	-0.049886372
127	0xbf0ca54a	-0.5493971
128	0x3dab825b	0.08374473
129	0xbc97fee9	-0.018554168
130	0xbe2b73a9	-0.1674334
131	0x3cd027d3	0.025409615
132	0x3e32c296	0.17457041
133	0xbd092acb	-0.033488076
134	0xbd3a7102	-0.04551793
135	0xbe0bf023	-0.13665824
136	0x3ddbbc8a	0.1072932
137	0xbde5a798	-0.112136066
138	0x3d4bb6ea	0.049734987
139	0x3e99e932	0.30060726
140	0x3efc5b6c	0.492885
141	0xbc33bd45	-0.010970418
142	0xbd3a464b	-0.045477193
143	0x3d8928d0	0.066972375
144	0x3dd8e406	0.10590367
145	0xbb48f221	-0.0030661898
146	0xbdfee2a5	-0.12445573
147	0x3cb9ce02	0.02268124
148	0xbdd3b213	-0.10336699
149	0xbdf6d4d9	-0.12052316
150	0x3cdae03d	0.026718253
151	0x3e12ed6b	0.1434838
152	0xbd6d1ef2	-0.05789084
153	0xbd6748d4	-0.05646594
154	0xbe0c4c38	-0.1370095
155	0x3e094cda	0.13408223
156	0xbc2792ff	-0.010227918
157	0xbd5f2f07	-0.05448821
158	0x3de4911b	0.11160489
159	0xbe07e098	-0.1326927
160	0xbdd75a7c	-0.105153054
161	0x3cc4f2b0	0.024041504
162	0x3dafaf74	0.08578387
163	0xbd63d518	-0.055623144
164	0xbeac6ea1	-0.33678153
165	0x3c959ac5	0.018262276
166	0xbcf9cdff	-0.030493734
167	0x3e125874	0.14291555
168	0xbbdd2563	-0.0067488416
169	0x3d4fae99	0.05070362
170	0x3ddde8f5	0.10835449
171	0xba9e95e0	-0.001209911
172	0xbe057a22	-0.13034871
173	0xbc33148a	-0.01093019
174	0xbb832b56	-0.004002969
175	0x3e0184f4	0.12648374
176	0x3ee6c3f3	0.45071372
177	0xbdb735f9	-0.08945841
178	0x3e294adc	0.16532463
179	0x3e078348	0.13233674
180	0x3d88e8f3	0.066850565
181	0xbcb0d838	-0.021587476
182	0x3d893498	0.066994846
183	0x3d1a2cd8	0.037640423
184	0x3c831617	0.016001744
185	0xbd4064f7	-0.046971288
186	0xbdbe8297	-0.09302252
187	0xbdfc2d30	-0.12313306
188	0xbc8e927e	-0.017403837
189	0xbce97484	-0.028497942
190	0xbd0b74bb	-0.03404687
191	0x3de74e7a	0.11294265
192	0xbf3809e3	-0.71890086
193	0x3eccd6ad	0.40007535
194	0xbcb3a8f9	-0.021931158
195	0xbf282381	-0.65679175
196	0xbdfdcc6c	-0.12392506
197	0x3e25aa35	0.1617821
198	0xbd8c5e87	-0.06853967
199	0x3e10f03b	0.1415414
200	0xbcc9143b	-0.02454578
201	0x3f1e3736	0.61802995
202	0x3d6fe4cc	0.058567807
203	0x3e31ab49	0.17350496
204	0x3e405da5	0.18785723
205	0xbd01c618	-0.031683058
206	0xbdb22c1f	-0.08699822
207	0x3ce5cee1	0.02805275
208	0xbde9d105	-0.114168204
209	0x3df94121	0.121706255
210	0xbc18acc4	-0.009318534
211	0x3f3626af	0.71152776
212	0xbd997e99	-0.0749485
213	0x3e19c784	0.15017515
214	0x3d1f700a	0.03892521
215	0x3ec8cf65	0.3922073
216	0x3e281db4	0.16417581
217	0xbf2452b3	-0.6418869
218	0xbdef9e84	-0.11700156
219	0x3e552fbe	0.20818993
220	0x3e09bf97	0.13451992
221	0xbdfb82c8	-0.12280804
222	0xbdc882e9	-0.09790594
223	0xbdae9000	-0.085235596
224	0xbd0f85c6	-0.035039686
225	0xbf14bc86	-0.58100164
226	0xbf400253	-0.75003546
227	0xbdb4c203	-0.08826067
228	0x3e090342	0.13380149
229	0x3dcaf6ad	0.09910331
230	0x3d9b413d	0.075808026
231	0x3d8d5f2b	0.069029175
232	0x3d5e51cc	0.054277226
233	0x3deef282	0.116673484
234	0x3e4cccb7	0.19999968
235	0xbd922425	-0.071358
236	0xbf0c7c9e	-0.5487765
237	0xbed856aa	-0.4225362
238	0x3e079619	0.13240851
239	0x3eea3e5f	0.4575071
240	0x3d4e1e71	0.050322
241	0x3e12ef5b	0.1434912
242	0x3cd2fa50	0.025754124
243	0x3e5d6d1d	0.21623655
244	0x3e6ceedd	0.23137994
245	0xbf0ff617	-0.5623488
246	0x3d1a03ef	0.037601408
247	0x3ea83404	0.32852185
248	0x3e1bccc1	0.15214826
249	0x3e4eeae9	0.20206799
250	0x3e0e945e	0.13923785
251	0x3e2a8d3d	0.1665544
252	0x3da6d945	0.081469096
253	0x3f34b9ed	0.705962
254	0x3e114fdf	0.14190625
255	0x3e1377ce	0.1440117

rnn.weight_ih_l1 f4 [256, 64]
0	0x3ed31325	0.41225544
1	0xbe818833	-0.25299224
2	0xbe012f71	-0.12615754
3	0x3ee8dd59	0.45481375
4	0xbe0ec83a	-0.13943568
5	0x3d847bb8	0.0646891
6	0x3d8e9ec3	0.06963875
7	0x3eb91356	0.36147565
8	0x3c0d1464	0.008610819
9	0xbe02b065	-0.12762602
10	0x3e154f4c	0.1458103
11	0xbec9875a	-0.39361078
12	0x3b55b7d6	0.0032610795
13	0xbdb98363	-0.09058263
14	0x3e3103af	0.17286561
15	0xbe939049	-0.28821018
16	0x3d6485c9	0.05579165
17	0xbe10e777	-0.14150797
18	0x3e5214d7	0.20515762
19	0x3dffe0f2	0.12494077
20	0xbe0776ea	-0.13228956
21	0x3dd286b8	0.10279602
22	0x3ed2dc59	0.41183737
23	0xbc0e5e90	-0.008689538
24	0xbdc70943	-0.097185634
25	0x3f0e9fa8	0.55712366
26	0xbdf8ec56	-0.121544525
27	0xbd9ade02	-0.07561876
28	0x3d82f767	0.063948445
29	0xbe95b5d2	-0.2924028
30	0xbc882f38	-0.016624078
31	0xbe133682	-0.14376262
32	0xbe22b19b	-0.15888064
33	0x3ec04ff0	0.37560987
34	0xbd8e23cb	-0.06940421
35	0x3c251776	0.010076394
36	0x3d33051d	0.04370605
37	0xbe98e0a3	-0.29858884
38	0x3e8934dc	0.2679814
39	0xbd372eb8	-0.04472229
40	0x3d210671	0.039312784
41	0x3c22bde0	0.009932965
42	0x3d934b8b	0.07192143
43	0xbe94b35e	-0.29043096
44	0x3c999512	0.01874784
45	0x3e07ea54	0.13272983
46	0x3ddcab45	0.107748546
47	0x3dabd1ee	0.0838965
48	0xbe19ad79	-0.15007581
49	0x3d1965da	0.03745065
50	0x3c5685a2	0.013093384
51	0xbd8c0ad5	-0.068380035
52	0x3deaf551	0.11472572
53	0x3dc4a642	0.09602024
54	0xbe75ac73	-0.23991565
55	0xbd97186e	-0.073777065
56	0xbdbb18ef	-0.09135615
57	0xbcab1589	-0.020884292
58	0x3d4f1115	0.0505534
59	0x3eea1433	0.45718536
60	0x3dbc7772	0.0920247
61	0x3c8a9c52	0.016920242
62	0xbe9e9297	-0.30971214
63	0x3bfef5ae	0.007780752
64	0x3caafc75	0.020872334
65	0xbe4a0eab	-0.19732158
66	0xbe136a87	-0.14396106
67	0x3e82dd32	0.25559384
68	0xbe204bbd	-0.15653892
69	0xbe2ce5de	-0.16884562
70	0x3e966cab	0.29379782
71	0x3e9b5757	0.30340073
72	0x3e1f593f	0.15561388
73	0xbe63bcda	-0.2224001
74	0x3dec2afd	0.11531637
75	0xbdcd7886	-0.10032754
76	0xbd9a9a5e	-0.075489745
77	0xbe4e411c	-0.20142025
78	0x3c9637dd	0.018337185
79	0xbe18e3dc	-0.14930671
80	0xbd0320fd	-0.032013882
81	0x3da952a5	0.08267716
82	0xbd095a6a	-0.03353349
83	0x3e0952f4	0.1341055
84	0xbe4f0f08	-0.20220578
85	0x3d82a79b	0.063796245
86	0x3e00608e	0.12536833
87	0xbe9d5eac	-0.3073629
88	0xbe60e523	-0.21962409
89	0x3ecacba3	0.39608487
90	0xbea8e4dd	-0.3298711
91	0xbeac607c	-0.33667362
92	0x3e6d0cc1	0.23149396
93	0xbdd169cd	-0.10225258
94	0xbe0bdca6	-0.1365839
95	0xbe090ec6	-0.13384542
96	0x3d09af78	0.033614606
97	0xbcd3f176	-0.025871973
98	0x3e105229	0.14093842
99	0xbe1367b4	-0.14395028
100	0x3da35dff	0.07976913
101	0xbe2d1d41	-0.1690569
102	0x3e903ee4	0.28172982
103	0xbe245154	-0.16046649
104	0x3df6eff2	0.12057485
105	0x3dd71345	0.10501722
106	0x3e57656b	0.21034782
107	0xbeae5722	-0.34050852
108	0x3e011077	0.12603937
109	0x3e3c231a	0.18372765
110	0x3e2ff3d3	0.17182855
111	0x3e0082c9	0.1254989
112	0xbdb55981	-0.08854962
113	0x3df2bd24	0.11852482
114	0x3ca90381	0.020631554
115	0xbc8ce78b	-0.017200252
116	0xbc473664	-0.012158964
117	0x3e45d171	0.19318177
118	0xbe325cfc	-0.17418283
119	0x3c5b36b8	0.013379745
120	0xbddea292	-0.108708516
121	0xbd635852	-0.05550415
122	0x3c943900	0.018093586
123	0x3e8527ef	0.2600703
124	0x3e844df2	0.25840718
125	0x3e0582bc	0.13038152
126	0xbebe8e59	-0.37217978
127	0x3e350f87	0.17681704
128	0xbe1a3432	-0.15058973
129	0x3d46c6fd	0.048529614
130	0xbdec004d	-0.11523495
131	0x3f33c3f6	0.7022089
132	0x3d9afd2b	0.07567819
133	0xbcebd508	-0.028788105
134	0x3d28b939	0.041192267
135	0x3d0e673c	0.03476642
136	0x3e3d1bab	0.18467586
137	0xbd441aa2	-0.04787696
138	0x3d61014a	0.05493287
139	0x3dbc0493	0.0918056
140	0xbe663faa	-0.22485223
141	0xbdb5b19d	-0.08871768
142	0xbc9d84c1	-0.019228341
143	0xbe85564a	-0.26042396
144	0x3d9f70f4	0.07785216
145	0xbde11b11	-0.10991491
146	0xbc7c6447	-0.015404767
147	0xbd765551	-0.060139958
148	0xbd931976	-0.07182591
149	0x3da4daad	0.080495216
150	0xbcb757d1	-0.022380741
151	0xbdea0cfc	-0.11428258
152	0xbd468947	-0.04847076
153	0x3f17b54d	0.5926102
154	0xbe7b7385	-0.24555786
155	0x3d0c0b3c	0.0341904
156	0xbd924a20	-0.071430445
157	0xbe35d5b2	-0.177573
158	0xbcd6c7bd	-0.02621829
159	0x3d1d4f19	0.03840551
160	0xbd28731d	-0.041125406
161	0xbceb1e71	-0.028701039
162	0x3ce3e8ca	0.027820963
163	0xbdea1e78	-0.11431593
164	0x3e1df650	0.15425992
165	0xbe52bb2c	-0.20579213
166	0xbdc04c3d	-0.09389541
167	0x3d631ffc	0.055450425
168	0x3d5b6164	0.053559676
169	0x3e0fb37d	0.14033313
170	0xbc7a8f60	-0.015292972
171	0x3e45282e	0.19253609
172	0x3d6fa1b4	0.05850382
173	0x3d2e69fa	0.042581536
174	0x3d5ba40f	0.053623255
175	0x3dba1420	0.0908587
176	0xbc400675	-0.0117202895
177	0xbd3a71c3	-0.045518648
178	0x3d7f2b01	0.06229687
179	0xbda4a2c5	-0.08038858
180	0xbe8e1e17	-0.27757332
181	0x3eec2443	0.46121415
182	0xbde618b6	-0.11235182
183	0xbe7a503d	-0.24444671
184	0xbdf48286	-0.11938958
185	0x3c2b54ed	0.01045726
186	0xbe527545	-0.20552547
187	0x3ecf5be3	0.40499792
188	0x3d05ab44	0.032634035
189	0xbe30d918	-0.17270315
190	0xbe28e550	-0.16493726
191	0x3e0711f8	0.13190448
192	0xbe94483d	-0.28961363
193	0xbe8291e8	-0.25501943
194	0xbe053238	-0.13007438
195	0x3f0446f5	0.5167077
196	0xbe37b4e6	-0.17940101
197	0x3dcf47ed	0.10121141
198	0xbe1202b3	-0.14258842
199	0x3dc2fcf4	0.09520903
200	0xbd0827e6	-0.033241175
201	0xbe9d1b7e	-0.30685037
202	0x3c42af0e	0.011882557
203	0x3daa200d	0.083068945
204	0xbeba11aa	-0.36341602
205	0xbd8791c9	-0.06619603
206	0xbdac4752	-0.08412041
207	0xbdf0a83e	-0.1175084
208	0xbdd70e9d	-0.10500834
209	0xbe077dbc	-0.13231558
210	0x3c1b9a92	0.009497302
211	0x3e383b83	0.17991452
212	0xbde77280	-0.11301136
213	0x3e04facd	0.12986298
214	0xbe06a945	-0.13150509
215	0x3d08b5a9	0.03337637
216	0xba84b038	-0.0010123318
217	0x3f318f09	0.6935888
218	0x3d550a8d	0.052012015
219	0x3e4f250b	0.20228975
220	0x3e650159	0.22363795
221	0xbe97cdc3	-0.2964917
222	0xbcd17c2b	-0.025571903
223	0xbddcf4ed	-0.107889034
224	0x3dac5c25	0.08416013
225	0x3ede1100	0.43372345
226	0x3eb9bd21	0.36277106
227	0x3ac6565d	0.001513194
228	0x3e170a32	0.14749983
229	0x3db3d279	0.08780379
230	0x3dc6ab13	0.097005986
231	0xbe16a52e	-0.14711449
232	0x3df488c7	0.11940151
233	0x3c0c4262	0.008560749
234	0xbd3bb75b	-0.04582916
235	0xbe41803c	-0.18896574
236	0x3dfa8142	0.12231685
237	0x3e26b846	0.16281232
238	0x3e373a31	0.17893292
239	0x3d5effd2	0.054443188
240	0xbd7d7892	-0.061882563
241	0x3dfcf474	0.12351313
242	0x3d1f0848	0.038826257
243	0xbca1952f	-0.019724457
244	0xbc9920d4	-0.018692411
245	0x3e885275	0.2662541
246	0x3e2e83dc	0.17042488
247	0xbd36843c	-0.044559702
248	0xbd9cd561	-0.07657886
249	0x3cc38ee6	0.02387185
250	0xbe312fba	-0.17303362
251	0xbe1711d0	-0.14752889
252	0x3e11c0b4	0.14233667
253	0xbdd35524	-0.10318974
254	0xbd02f387	-0.031970527
255	0xbbef098e	-0.00729484

rnn.weight_hh_l1 f4 [256, 64]
0	0xbe0a91fe	-0.13532254
1	0xbdd8f48b	-0.10593518
2	0xbd6ab30a	-0.05729965
3	0x3df7782e	0.12083469
4	0xbc04a14f	-0.0080951
5	0xbe770be8	-0.24125636
6	0x3dc9bfe7	0.098510556
7	0x3d8f4163	0.069948934
8	0xbd97d133	-0.074129485
9	0x3e39f84f	0.18161128
10	0x3e700db4	0.23442727
11	0xbe2940ab	-0.16528575
12	0x3dcf4609	0.1012078
13	0xbe9fd69d	-0.31218424
14	0xbb9fa33b	-0.0048717535
15	0xbe471f26	-0.19445476
16	0xbe2987e1	-0.1655574
17	0xbe201537	-0.15633093
18	0xbd3e72b9	-0.046496127
19	0x3e1f646d	0.15565653
20	0x3d699d50	0.05703479
21	0x3d9d4258	0.0767867
22	0x3d4ba939	0.04972193
23	0x3ccbe384	0.024888761
24	0x3d372605	0.044713993
25	0x3d36f959	0.04467139
26	0x3db8eed1	0.090299256
27	0x3c209441	0.0098009715
28	0xbde819b5	-0.11333028
29	0x3e131a41	0.14365484
30	0x3dcdbb6f	0.10045516
31	0x3de8b632	0.11362876
32	0x3bb8f729	0.005644698
33	0x3e3bb8f3	0.18332271
34	0x3d9f54ad	0.077798225
35	0x3ea9b1f8	0.33143592
36	0xbdf366b1	-0.11884821
37	0xbdb59205	-0.08865742
38	0xbaf9c882	-0.0019056948
39	0xbd51d6f9	-0.051230405
40	0x3e37f13e	0.1796312
41	0x3dd34062	0.103150144
42	0xbd1c2a32	-0.038126178
43	0x3e4ded53	0.20110063
44	0xbe7cfa65	-0.24704893
45	0xbe07d2b1	-0.13263966
46	0xbd5cb4cd	-0.053883363
47	0x3de2442d	0.1104816
48	0x3d9787a3	0.073989175
49	0xbdd6a54f	-0.10480749
50	0xbd1e41a3	-0.038636815
51	0xbe56fba1	-0.20994426
52	0xbe5e915d	-0.21735139
53	0x3de32268	0.11090547
54	0xbb6c89da	-0.0036092908
55	0xbd6a42a1	-0.05719245
56	0x3c3e7919	0.011625552
57	0x3c75c625	0.015000855
58	0xbd95a65e	-0.07307123
59	0x3c688e7d	0.014194128
60	0xbe1ef32b	-0.15522449
61	0xbde3b83a	-0.11119123
62	0x3d5a7afa	0.053339936
63	0xbd997f66	-0.074950024
64	0xbe709e52	-0.23497894
65	0xbe5c25ea	-0.21498838
66	0xbd659f26	-0.05605998
67	0x3dd71604	0.10502246
68	0x3de623cf	0.11237299
69	0xbd648aa5	-0.055796284
70	0x3e5dc3d5	0.21656735
71	0x3e9c14a2	0.30484492
72	0x3c8bf2bb	0.017083516
73	0xbc2097ba	-0.009801799
74	0x3caf7ad1	0.021420868
75	0xbe1984d3	-0.14992075
76	0x3cac151d	0.021006161
77	0xbe7a40a5	-0.24438722
78	0xbe8581e5	-0.26075664
79	0xbe0f0c67	-0.13969575
80	0xbe5e4e3c	-0.21709532
81	0xbe3a7ee5	-0.18212469
82	0xbdd66098	-0.104676425
83	0x3e8baed3	0.27281818
84	0x3c9ef99c	0.019406132
85	0x3eadaa05	0.33918777
86	0x3d0c3ee7	0.034239676
87	0xbcf7b3aa	-0.030237038
88	0x3d86156c	0.06547055
89	0xbd05596f	-0.032555994
90	0x3dceff6f	0.10107314
91	0xbec65ae2	-0.38741213
92	0xbda86b25	-0.08223561
93	0x3e3124b7	0.17299162
94	0x3e607416	0.21919283
95	0x3ddf6444	0.10907796
96	0x38bf812f	9.131652e-05
97	0x3e82fbce	0.25582737
98	0x3e1083e2	0.1411281
99	0x3e6ecc7b	0.2332019
100	0x3accb7ef	0.0015618781
101	0xbe0960cd	-0.13415833
102	0xbdc6db31	-0.09709776
103	0x3e5ce66d	0.21572275
104	0x3ea3467e	0.3188972
105	0x3eac0365	0.3359634
106	0x3e295f2d	0.16540213
107	0x3d0a8657	0.033819523
108	0xbe78974b	-0.24276464
109	0xbe827656	-0.25480908
110	0xbd7a81d6	-0.061158977
111	0x3e75ee5a	0.24016705
112	0x3d7e65bc	0.06210874
113	0xbef25b11	-0.47335103
114	0x3ddb2256	0.106999084
115	0xbe664a1f	-0.22489212
116	0xbdf67196	-0.120333835
117	0x3e849b92	0.2589994
118	0xbe51057c	-0.20412248
119	0xbe5961c7	-0.21228705
120	0xbe38661f	-0.18007706
121	0x3beb95cf	0.0071894894
122	0xbe4c8ae7	-0.19974862
123	0xbeadc0d5	-0.33936182
124	0xbe58b920	-0.2116437
125	0xbea91251	-0.33021787
126	0xbdd07ae6	-0.10179691
127	0xbd04a4e3	-0.03238381
128	0x3d01ecf8	0.03172013
129	0xbe336748	-0.17519867
130	0xbd0e85a7	-0.03479543
131	0xbe1ead15	-0.15495713
132	0x3e26baae	0.1628215
133	0xbdc3eab8	-0.095662534
134	0x3decf937	0.115709715
135	0xbd5f27d6	-0.05448135
136	0xbdbc35cc	-0.091899484
137	0xbb339f2a	-0.0027408102
138	0x3d8cb098	0.0686962
139	0xbd7f04ad	-0.06226032
140	0x3ecc1abb	0.39864144
141	0x3d0538c5	0.032524843
142	0x3cb9507c	0.022621386
143	0xbe624d92	-0.22099903
144	0xbd092b8b	-0.03348879
145	0xbe6a9faa	-0.2291247
146	0x3caab19b	0.020836642
147	0x3de887c1	0.11354018
148	0x3e2d096a	0.16898122
149	0x3e10d2c9	0.14142908
150	0x3df27743	0.118391536
151	0x3dbbb721	0.091657884
152	0xbdcebfd7	-0.10095184
153	0xbce4b12c	-0.027916513
154	0xbbd72dcf	-0.00656674
155	0xbd0ef80e	-0.034904532
156	0xbdfe1d00	-0.12407875
157	0xbda755b2	-0.08170642
158	0xbd8c7a9b	-0.06859323
159	0x3dd9b76e	0.106306896
160	0x3e12a3d6	0.14320311
161	0x3dfbbdf4	0.1229209
162	0x3e286c23	0.16447501
163	0x3e026f70	0.12737823
164	0xbd0cba25	-0.03435721
165	0xbcce0fd9	-0.025154041
166	0xbe352515	-0.17689927
167	0xbe83c348	-0.25734925
168	0xbc681f2e	-0.01416759
169	0xbc7e2503	-0.015511754
170	0xbd1262a9	-0.03573862
171	0x3e89ca61	0.26912215
172	0xbd43ba68	-0.047785193
173	0x3dc44801	0.09584046
174	0x3cacb02f	0.021080105
175	0x3b6f4639	0.0036510362
176	0x3de15006	0.110015914
177	0x3ce480ca	0.027893443
178	0x3e12d0d4	0.14337474
179	0xbe33967b	-0.17537872
180	0xbdde7fd6	-0.108642265
181	0x3d68cf4f	0.05683833
182	0xbe47bdee	-0.19506046
183	0xbdfd7424	-0.12375668
184	0xbdc815d6	-0.0976979
185	0xbd829a10	-0.06377041
186	0xbdaf93f2	-0.0857314
187	0xbda7b27f	-0.08188342
188	0x3d6997d0	0.057029545
189	0xbda90731	-0.08253325
190	0xbc043d26	-0.00807122
191	0x3d395fb9	0.045257304
192	0x3e4e1ce5	0.2012821
193	0xbd0ab961	-0.033868197
194	0xba88ae7a	-0.0010427975
195	0x3e157717	0.1459621
196	0x3d687596	0.056752764
197	0x3e1c4ca8	0.15263617
198	0x3d545956	0.05184301
199	0xbe488d11	-0.19585063
200	0x3d855c05	0.06511692
201	0x3de128b1	0.109940894
202	0xbe2ac1e0	-0.1667552
203	0xbcf77ba0	-0.030210316
204	0x3dc98622	0.09840037
205	0xbdbcd3e7	-0.09220105
206	0x3e9b3d97	0.30320427
207	0xbc5dcfbb	-0.013538296
208	0xbb36a288	-0.0027867872
209	0xbe387b62	-0.18015817
210	0xbe23cf1f	-0.15996979
211	0xbc6459e8	-0.013937451
212	0xbcebd6f4	-0.028789021
213	0xbd870d28	-0.06594306
214	0xbd5ccaab	-0.053904217
215	0xbe496408	-0.19667065
216	0xbd3f4b60	-0.046702743
217	0xbc0cdb36	-0.008597186
218	0xbb96065f	-0.004578396
219	0x3dc91d39	0.09820027
220	0x3e8870f1	0.26648667
221	0xbd299b93	-0.041408133
222	0x3d1b3102	0.037888534
223	0xbd06308a	-0.032761134
224	0xbd4d7b72	-0.050166555
225	0xbdd1445c	-0.10218117
226	0xbcf855f1	-0.030314418
227	0x3d17203d	0.03689598
228	0xbe06b2ae	-0.13154098
229	0x3e29dcd0	0.1658814
230	0xbc2eff2f	-0.010680958
231	0x3e00f286	0.12592515
232	0x3d89c188	0.06726366
233	0xbd9a99e4	-0.075488836
234	0xbe0a2d84	-0.13493925
235	0x3e0f6948	0.14005005
236	0x3e8a8d61	0.2706099
237	0x3e060d21	0.13090946
238	0xbdec839b	-0.11548539
239	0x3c777f48	0.01510603
240	0xbdcd2e4a	-0.100185946
241	0x3da5a454	0.08087984
242	0x3de9da57	0.11418598
243	0xbe0f53f6	-0.13996872
244	0xbdb4b335	-0.088232435
245	0x3da1d8e1	0.079026945
246	0xbc4c31e2	-0.012463065
247	0xbe2e32ba	-0.17011538
248	0xbe1539bb	-0.14572804
249	0xbe51564c	-0.20443076
250	0x3e52eb80	0.20597649
251	0x3d852688	0.0650149
252	0x3dcefe5e	0.101071104
253	0x3dbd1ff9	0.09234614
254	0xbd88647c	-0.06659791
255	0xbd2eab66	-0.042643927

rnn.bias_ih_l1 f4 [256]
0	0x3d1a59dc	0.037683353
1	0xba90d016	-0.0011048343
2	0x3dc4b453	0.096047066
3	0x3d92cb1d	0.07167647
4	0xbd36e2f7	-0.044650044
5	0xbe1c9838	-0.15292442
6	0x3d99df45	0.075132884
7	0xbe1b9f8a	-0.15197578
8	0xbdb46abe	-0.08809422
9	0xbe215591	-0.15755297
10	0xbe293241	-0.16523077
11	0xbe34e8bd	-0.17666908
12	0xbd8a8de1	-0.067653425
13	0x3cbf1801	0.023326876
14	0xbdc86f3e	-0.09786843
15	0x3c91c5d2	0.017794523
16	0xbd7c978c	-0.061667964
17	0xbd940bab	-0.07228788
18	0xbd4af000	-0.049545288
19	0xbe0fe3d1	-0.14051749
20	0xbe3b1c35	-0.18272479
21	0xbdb535aa	-0.08848126
22	0x3bb4057a	0.005493817
23	0xbe182652	-0.14858368
24	0xbd9bacfa	-0.07601352
25	0xbc803e5d	-0.015654737
26	0xbe5fe07b	-0.21862976
27	0x3d211ed3	0.039336037
28	0xbdc53b1b	-0.09630414
29	0xbc140df6	-0.009036532
30	0xbd62e80a	-0.05539707
31	0xbd85c175	-0.065310396
32	0xbe3818e2	-0.17978242
33	0x3df5600b	0.11981209
34	0xbd322b5a	-0.043498375
35	0xbc32b45b	-0.010907258
36	0xbe2dc696	-0.16970286
37	0xbd8299c2	-0.06376983
38	0xbe9898e9	-0.2980416
39	0xbde6aaf4	-0.112630755
40	0xbd905c01	-0.07048798
41	0x3d83283a	0.06404157
42	0xbe8da093	-0.2766157
43	0xbd694c05	-0.056957263
44	0xbe56b1a7	-0.20966206
45	0x3d8d3823	0.06895473
46	0xbd0ad9ed	-0.033899236
47	0xbe3cf640	-0.18453312
48	0xbdf8e6b7	-0.1215338
49	0xbe094471	-0.13405015
50	0xbd3b6287	-0.04574826
51	0x3da15d56	0.078791305
52	0xbc51729a	-0.012783671
53	0xbdfb20ad	-0.12262092
54	0xbb55c448	-0.0032618213
55	0xbdc4dd8e	-0.09612571
56	0xbca6b9bf	-0.020352243
57	0xbda7577a	-0.08170982
58	0xbda7b411	-0.08188642
59	0x3bc1787a	0.0059042545
60	0xbd53df6a	-0.051726736
61	0xbe69e963	-0.22842936
62	0xbe6e3b46	-0.23264799
63	0xbc626096	-0.013816973
64	0xbbc53c35	-0.00601914
65	0xbd872bc2	-0.06600143
66	0xbde95286	-0.11392693
67	0xbdf777f5	-0.12083427
68	0xbdf0eae6	-0.11763553
69	0xbc769716	-0.01505067
70	0xbe5a028a	-0.21290031
71	0x3b309d80	0.0026949346
72	0xbd2526bf	-0.040320154
73	0xbd7106f9	-0.05884454
74	0xbd91b71a	-0.07115002
75	0xbcb08abb	-0.021550527
76	0x3cdfbaa3	0.027310675
77	0xbd92ace7	-0.07161885
78	0xbe350483	-0.17677502
79	0xbe17e2be	-0.14832589
80	0x3bec137a	0.00720447
81	0xbdeb1de9	-0.11480314
82	0x3d0d682d	0.034523178
83	0xbc850461	-0.01623744
84	0x3dbe13cf	0.09281122
85	0x3db17314	0.086645275
86	0x39aa6f63	0.00032507916
87	0xbd8aae46	-0.06771521
88	0xbdbd3cc3	-0.09240105
89	0xbde791ee	-0.11307131
90	0x3bad010e	0.0052796667
91	0x3d13c128	0.03607288
92	0xbce77538	-0.028254136
93	0xbdd00c07	-0.10158544
94	0xbd8e1ba0	-0.06938863
95	0x3d0fe523	0.03513063
96	0x3c0e0ba6	0.008669769
97	0xbd75edd6	-0.06004127
98	0xbe6381d7	-0.22217499
99	0xbda3284a	-0.07966669
100	0xbd271934	-0.04079552
101	0xbd6b6209	-0.05746654
102	0xbd0d392b	-0.034478348
103	0x3db68637	0.08912318
104	0xbb6e8739	-0.0036396517
105	0xbc88009f	-0.016601859
106	0x3d989e2a	0.074520424
107	0xbd415461	-0.04719961
108	0xbb8f2c1d	-0.0043692724
109	0x3d1ca8e3	0.038247
110	0x3d3c32b9	0.04594681
111	0xbc480047	-0.012207097
112	0x3b2236f4	0.0024751993
113	0xbccf7697	-0.025325103
114	0x3b4c00d0	0.0031128414
115	0xbe0460fa	-0.12927619
116	0x3cc149e7	0.02359481
117	0x3db29a3a	0.08720823
118	0xbde77e18	-0.11303347
119	0xbe09c789	-0.13455023
120	0xbc236fc8	-0.009975381
121	0xbdbea273	-0.093083285
122	0xbdcf2bac	-0.101157516
123	0xbe3ec4dd	-0.18629785
124	0x3c8fddc5	0.017561803
125	0x3c889747	0.016673697
126	0x3de45275	0.1114854
127	0x3bf1a776	0.007374699
128	0xbc131eb9	-0.008979493
129	0x3ca4e497	0.020128531
130	0x3de054bd	0.109536625
131	0xbdbcf891	-0.09227098
132	0xbd852e95	-0.065030254
133	0xbdeba1f6	-0.11505501
134	0x3d8d22cf	0.06891405
135	0xbd0b55e8	-0.034017473
136	0x3d67abd6	0.05656036
137	0xbcc07102	-0.023491386
138	0x3d7e2da0	0.06205523
139	0x3d67f480	0.056629658
140	0x3db6aa89	0.08919246
141	0xbd5395ed	-0.051656652
142	0x3d53167e	0.051535122
143	0x3dc34529	0.09534676
144	0x3d0bed86	0.034162067
145	0x3d61074d	0.054938603
146	0x3e1916c5	0.14950092
147	0x3ca9e62c	0.020739637
148	0x3ddf07b2	0.1089014
149	0x3cfcc4ce	0.030855563
150	0xbdcbc0b9	-0.09948868
151	0x3d6a9ee1	0.057280425
152	0x3ccbd666	0.024882507
153	0xbdae8e89	-0.0852328
154	0x3db0c250	0.08630812
155	0x3dbc7dae	0.09203659
156	0xbd748dbf	-0.059705492
157	0xbd149252	-0.036272354
158	0x3db339bb	0.087512456
159	0x3dfbaffc	0.12289426
160	0x3d2a0e0c	0.041517302
161	0xbe063220	-0.13105059
162	0xbb713c56	-0.0036809645
163	0xbc304946	-0.010759657
164	0x3ddaaa12	0.106769696
165	0xbe20d927	-0.15707837
166	0xbdd6fbba	-0.10497232
167	0xbd098b83	-0.033580314
168	0xbdbbbc3a	-0.09166761
169	0xbd7d4093	-0.06182916
170	0xbd8bb343	-0.06821301
171	0xbd0a4f8f	-0.03376728
172	0xbdafad32	-0.08577956
173	0x3de25e83	0.11053183
174	0x3dbcd14a	0.09219606
175	0xbc1cfe7d	-0.009582159
176	0x3df98675	0.12183849
177	0xbd04a637	-0.032385077
178	0x3c77f95e	0.015135137
179	0x3d20f31d	0.03929435
180	0xbd1123e9	-0.035434637
181	0xbd2b20a1	-0.041779164
182	0xbdc40c82	-0.09572698
183	0x3b186ff8	0.0023260098
184	0x3da94d27	0.08266669
185	0x3d68e2c3	0.05685688
186	0xbb75b489	-0.003749164
187	0x3ab7d635	0.0014025631
188	0xbc5b30de	-0.01337835
189	0xbdaac85c	-0.08338997
190	0xbda9a01d	-0.08282492
191	0x3dfe5178	0.12417883
192	0xbe15e16d	-0.14636774
193	0xbe35014b	-0.17676274
194	0x3dc5c6d2	0.096570626
195	0x3c3cdb2a	0.011526862
196	0xbe33c9ec	-0.17557496
197	0x3d3aca58	0.045603126
198	0x3da58c2e	0.08083378
199	0xbc3fd825	-0.011709248
200	0xbdb59dd6	-0.088679954
201	0xbe28d1a6	-0.16486225
202	0xbde9cd61	-0.11416126
203	0x3cabf216	0.020989459
204	0xbe4e2e07	-0.20134746
205	0xbe11f433	-0.14253311
206	0x3d7ebc9a	0.062191583
207	0x3d0552ff	0.032549854
208	0x3dd10a5c	0.10207054
209	0x3c812411	0.015764268
210	0xbb778edd	-0.0037774362
211	0xbd8d45b0	-0.068980575
212	0xbe6d2761	-0.23159553
213	0xbd801a11	-0.06254972
214	0xbcf5d440	-0.030008435
215	0x3dbfee18	0.09371585
216	0x3db8943e	0.0901265
217	0x3c803142	0.015648488
218	0xbdad3bd0	-0.08458674
219	0xbe2a448a	-0.16627708
220	0xbb9f146a	-0.0048547285
221	0x3d2015ee	0.039083414
222	0xbbca094d	-0.0061656595
223	0xbb53ba5d	-0.0032307126
224	0xbc718011	-0.014740006
225	0xbd1ebc07	-0.038753536
226	0xbdee4e9f	-0.116360895
227	0xbc96da5b	-0.018414667
228	0xbe10aed4	-0.14129192
229	0x3d1b5127	0.03791919
230	0xbe4445e2	-0.19167283
231	0xbe00597d	-0.12534137
232	0x3c1855b1	0.009297774
233	0xbe1b36a7	-0.15157567
234	0xbc83b800	-0.016078949
235	0x3d6dd186	0.058061145
236	0xbe2c357d	-0.16817279
237	0xbd5b8693	-0.053595137
238	0xbda68bc9	-0.08132131
239	0x3e0ac2a1	0.13550808
240	0x3d9e4612	0.077282086
241	0x3db64c04	0.089012176
242	0xbe3abe9e	-0.18236777
243	0x3dc1be71	0.09460152
244	0xbd750795	-0.059821684
245	0x3d1b8d29	0.037976418
246	0xbc08787c	-0.008329507
247	0x3b168618	0.002296811
248	0xbd6db5c9	-0.058034692
249	0x3d00320b	0.031297725
250	0xbd01d17d	-0.031693924
251	0xbd85867d	-0.06519792
252	0x3b98028d	0.004638976
253	0xbe3f0cde	-0.18657252
254	0xbe3aa5d3	-0.1822732
255	0xbd899a1f	-0.067188494
