notebooks/checkpoints/LSTM_optuna/trial_006/LSTM_trial_6/checkpoints/last-epoch=7.ckpt (torch, 713914 bytes, 30 tensors)

rnn.weight_ih_l0 f4 [256, 30]
000000 f0 fe 6e bc 34 cf 7e bd ec 3a e9 3d b8 16 20 3d
       -0.014587149 -0.062209323 0.113881916 0.039084166
000010 10 56 1f 3e 1e 6c 37 be a4 27 47 3e d5 ef e8 3d
       0.15560174 -0.17912337 0.19448715 0.11373869
000020 cc 68 58 bd 01 22 ee bd 5d 04 01 3e 09 e4 17 3d
       -0.052834317 -0.116275795 0.1259932 0.037082706
000030 14 0c 2b 3e e4 40 c7 3d bf 0e 0c 3d b8 e0 bc 3d
       0.16703826 0.09729174 0.03419375 0.09222549
000040 8a be bf 3d 58 50 ef bc 7b 49 ff 3d ed 89 aa bc
       0.09362514 -0.029213116 0.12465187 -0.020817721
000050 c7 3a 9a 3d f0 b9 1a 3e ce 3e 95 3d 23 44 c3 bd
       0.07530742 0.15109992 0.0728737 -0.095344804
000060 b4 54 0b bd f0 2c c2 3d c2 17 03 be 3b 7f 10 bd
       -0.034016326 0.094812274 -0.12802032 -0.035277586
000070 13 97 0d 3e a8 40 c9 3d 8e 80 34 3c 15 c3 9d 3a
       0.13827161 0.09826785 0.011016978 0.0012036288
000080 38 c9 38 3e cd f2 a9 bc 05 c6 d1 3e 9c db c9 bc
       0.18045509 -0.02074566 0.4097139 -0.02464085
000090 33 a2 f0 bd cc 89 8d 3d 96 3f ea bd 25 c3 41 bc
       -0.11749687 0.06911048 -0.11437909 -0.011826311
0000a0 10 de eb bd db f8 d0 3d c0 41 04 bc b0 09 9a bc
       -0.115169644 0.102037154 -0.008072317 -0.018803447
0000b0 3c f6 88 3c 8d 6d b0 bc 32 ab 7d bd e7 aa 2c bd
       0.016718976 -0.021536613 -0.061930843 -0.042155173
0000c0 a8 5f 31 bd ae c0 6a 3c ed ec 0b 3d 5b 27 ca 3d
       -0.043304116 0.014328165 0.034161497 0.09870788
0000d0 a8 97 68 3d f5 59 ac bb e6 d2 71 bc f0 ca 91 3d
       0.056785256 -0.005259747 -0.014759755 0.071187854
0000e0 c7 d6 8b 3d b1 83 0e 3e 76 09 92 bd f9 f8 d5 3d
       0.06828075 0.13917424 -0.07130711 0.104478784
0000f0 1b 4a 0f 3e fb 2c ff bc a2 c7 b5 3d 67 83 ac 3d
       0.13993113 -0.031149378 0.088759676 0.084235005
000100 ce 45 df 3c 44 75 7e be a6 de 09 bd 42 23 7e bd
       0.027254965 -0.24849421 -0.0336596 -0.062045343
000110 43 c5 f2 3e 27 65 7a 3d 83 65 76 3d a3 59 04 3e
       0.47416124 0.061131623 0.060155403 0.12924819
000120 7e 71 32 3e cf 4c f2 3d bb 70 3a 3e 05 c5 58 3e
       0.17426106 0.11831056 0.18207066 0.21168907
000130 c3 02 81 3e 56 eb ee 3c 97 54 68 3e 5f 93 4c 3e
       0.2519742 0.029164951 0.22688518 0.19978093
000140 0e ba b1 3d b1 6f 3c 3e 71 21 02 3e 13 01 7f 3e
       0.08678065 0.18401982 0.1270807 0.24902754
000150 28 66 57 3e f8 4c 99 3d 78 fd 79 3e ef 30 74 3e
       0.21035063 0.07485384 0.24413097 0.23846792
000160 1d 61 19 3e 98 dc 76 3e 1c 19 8b 3d cf 5a 36 be
       0.14978452 0.24107587 0.067918986 -0.17808078
000170 aa 7c 1c 3c 8f 3c cb bd 6d a2 e0 3d 97 b4 88 be
       0.009551207 -0.0992366 0.1096848 -0.2670028
000180 d4 c4 b4 3b ad f7 c0 3d 14 74 2c bd 6a ca 01 be
       0.005516628 0.094222404 -0.04210289 -0.12674871
000190 52 55 c5 bc 8e b0 5f be a7 7d a7 3e 72 4c 14 3e
       -0.024088535 -0.21844694 0.32713053 0.14482287
0001a0 19 47 34 be 05 71 f3 3e 54 c4 40 3c 94 c1 78 be
       -0.17605247 0.47547165 0.011765558 -0.24292594
0001b0 88 bc 02 bd 55 82 1f 3c ad a5 12 3e 04 7d a7 3c
       -0.03191808 0.009735663 0.14321013 0.020445354
0001c0 c8 09 a5 3c 22 c1 cc bc f8 58 94 bd 22 bb 1d 3e
       0.020146266 -0.024994437 -0.07243532 0.15403417
0001d0 dd 4e 4d be 1a 42 6c 3d d6 96 97 be 2f e8 fc bc
       -0.20049615 0.057680227 -0.29607266 -0.030872433
0001e0 97 54 43 bd 3f 33 16 be 7b dc 32 be a0 a6 4e 3e
       -0.047688093 -0.14667986 -0.17466919 0.2018075
0001f0 28 3e c6 be 63 0b 8a 3e 9f b7 21 3d 5a ce e5 3c
       -0.38719296 0.26961812 0.039481755 0.028052498
000200 7b 20 fd 3e d1 f6 f5 bd e1 ee 8e bc 41 64 18 3d
       0.49438843 -0.12009967 -0.01744789 0.037204985
000210 97 6d 39 be 50 aa 76 bd 79 bf ec bc ca 02 36 be
       -0.18108211 -0.060221016 -0.028899895 -0.17774501
000220 35 a1 81 bd 54 b9 b8 bd 89 29 d5 bd b0 6e 94 bd
       -0.06329576 -0.090197235 -0.10408313 -0.072476745
000230 61 1c 22 3c a0 1d ec bd f3 d9 df bd d7 79 9b bc
       0.009894461 -0.11529088 -0.109302424 -0.018978996
000240 d5 e7 90 bb 4f 51 40 3b 7c f7 18 be c7 98 02 be
       -0.004422168 0.0029345339 -0.14938158 -0.12753592
000250 fa 56 9a bd 37 03 3a be 63 e9 3a 3d 88 f7 2a be
       -0.07536121 -0.18165289 0.04563273 -0.16695988
000260 74 0d c9 3b 1b 76 99 bd 52 c6 0d 3e d0 b0 d2 3d
       0.006135637 -0.0749323 0.13845184 0.102876306
000270 c0 9f a6 bc 9c 94 55 be 55 8d 9a be d6 f1 c8 bd
       -0.020339847 -0.20857471 -0.30185953 -0.098117515
000280 ba 01 c1 bd 1b 19 38 be a5 b8 05 bd 33 a5 a9 bd
       -0.094241574 -0.17978327 -0.032646794 -0.082834624
000290 1a d5 ce bd 8e e1 ed 3c 49 e8 15 be 00 08 2a bd
       -0.1009924 0.029038217 -0.14639391 -0.041511536
0002a0 fb c1 0e be 50 5e 4f 3d 40 8d ac bd 82 ea 3d bc
       -0.13941185 0.050627053 -0.08425379 -0.011591556
0002b0 38 28 d8 bd 0e d7 14 b9 df a6 e4 3d a9 d9 e4 bd
       -0.10554546 -0.00014194494 0.11164641 -0.11174328
0002c0 74 20 78 3d af df 00 be 6f ae 1f be 28 4d 44 3d
       0.060577825 -0.12585329 -0.15593885 0.047925144
0002d0 a6 c5 f6 3c ec aa 83 3d 14 3e b2 3d ed 24 a0 3d
       0.030123543 0.06429085 0.08703247 0.07819543
0002e0 89 11 0e 3d 41 7c 8f 3d b9 1d fa 3d de e3 24 3e
       0.03468469 0.070061214 0.122127004 0.1610255
0002f0 c4 90 c9 3d 38 4d 43 3c 11 b4 3c 3d ce 32 38 be
       0.09842065 0.011920266 0.046070162 -0.1798813
000300 0e 56 eb bd 5d 61 31 bd 1a dd ca bd 1c 6e dd bb
       -0.11491023 -0.043305743 -0.09905453 -0.006757511
000310 ba 66 83 3d 3a ec 2a be 30 f1 12 3d 91 a3 2c 3e
       0.06416078 -0.16691676 0.035874546 0.1685927
000320 4e 23 15 bd e6 78 fd 3d 64 eb ed bd 67 4e 10 be
       -0.036410622 0.12376575 -0.11617163 -0.14092408
000330 56 75 89 3d 43 2a 50 bd d7 2b c2 bd 84 8e a6 3b
       0.06711833 -0.050821554 -0.09481018 0.005082907
000340 cb 3d 69 3e e0 d1 20 3e 5a 07 21 3e b3 cd 1a 3e
       0.22777478 0.15705061 0.1572546 0.1511753
000350 d7 66 cc 3d 98 fd 84 3e 93 a7 53 3e ab 59 94 3e
       0.09980553 0.25974727 0.20669393 0.2897466
000360 c1 83 cd bd c4 64 a4 bc 2c 36 35 3e df 71 f3 bd
       -0.10034896 -0.02006758 0.17696446 -0.118869536
000370 ef 50 40 3d ee 07 39 be c2 ff d8 bd 73 39 58 3c
       0.046952184 -0.18069431 -0.10595657 0.013197291
000380 f8 99 39 be 76 f1 04 3c 4f aa a3 bd 50 31 7c be
       -0.1812514 0.008114209 -0.07991468 -0.24628186
000390 2a dc 26 be 07 83 f7 bc c3 fb 82 bd fa 3d 81 bd
       -0.16294923 -0.030213846 -0.06395676 -0.06310649
0003a0 2d ea 7a 3d 3e 01 80 bd 23 10 ef bd 85 0f 86 bd
       0.061258484 -0.06250237 -0.11673 -0.06545929
0003b0 90 21 39 bd c2 a8 4b bc 33 a8 02 be ad 99 51 3d
       -0.045198023 -0.012430372 -0.12759475 0.051171947
0003c0 13 60 3c 3e 11 b9 e3 3d d5 d9 05 3e 47 68 1b 3d
       0.18396024 0.11119283 0.13071378 0.037941243
0003d0 e3 f4 54 3e cb 0d 6e 3e cb 0e 4e 3b 4d d7 a5 3d
       0.20796542 0.23247449 0.0031441923 0.08097706
0003e0 6b c2 d7 3d 5f 80 b9 3c 11 d9 83 bc 4d a0 56 3d
       0.10535129 0.02264422 -0.016094716 0.05239897
0003f0 01 2f 88 3d 11 cc 24 3e ca 8b 85 3b 40 2a c6 3d
       0.0664959 0.1609347 0.004075502 0.09676027

rnn.weight_hh_l0 f4 [256, 64]
000000 35 51 d0 bc 99 73 aa be 1d 72 3f be 94 fb a9 3d
       -0.025429348 -0.3329132 -0.18695875 0.08299938
000010 f5 d0 95 3d 98 b6 80 3c b5 eb 33 3e d7 39 b2 3e
       0.07315246 0.015712067 0.17570384 0.34809753
000020 b4 9f 42 3d 2f 7e 0f be 07 d1 81 bc 9f 60 93 bd
       0.047515586 -0.14012979 -0.015846742 -0.071961634
000030 17 42 4d 3e 1d 4b 9a bd 00 bc 02 3e dc d7 2f be
       0.20044743 -0.07533858 0.12767029 -0.17172188
000040 46 ae 07 be f3 73 ea bd 45 da 38 3c 22 ff 01 3e
       -0.13250074 -0.11447897 0.011282508 0.12694982
000050 0a b2 aa bd c3 dd 92 3d 9a 02 97 3e 38 e2 ac bd
       -0.083347395 0.07171204 0.29494172 -0.08441585
000060 07 7d f0 bd 25 bf 0c bd c7 1e 06 bf ce 56 d7 bd
       -0.11742597 -0.034361977 -0.5239071 -0.105146036
000070 e1 74 8d 3e 4d 20 d1 3d 21 66 57 3c e1 72 60 be
       0.27628234 0.10211239 0.013146908 -0.21918823
000080 cc a4 d7 3d 84 76 18 bd 0b 8d ce 3c 62 7d 5c bd
       0.105294794 -0.0372224 0.025213739 -0.053830512
000090 1e 01 49 be 14 44 c0 be cf c1 37 bd 6b e9 3c bd
       -0.19629332 -0.3755194 -0.044862565 -0.046121042
0000a0 54 e6 4e be 94 d9 20 be fc f1 f9 3d df d1 7f be
       -0.2020505 -0.15708 0.12204358 -0.24982403
0000b0 d9 a9 2c 3d 43 73 cf 3e a4 da 6b 3d ec 92 08 3c
       0.042154167 0.40517625 0.05758156 0.00833581
0000c0 d4 2a 4b 3e 20 04 72 bd dc fa 1c be c9 ec d1 3d
       0.19840556 -0.059085965 -0.1533007 0.10250241
0000d0 7f 65 83 bd 11 88 ee 3d c9 01 a6 be 59 d7 cf be
       -0.06415843 0.11647046 -0.32423237 -0.40593985
0000e0 48 85 f8 bd 81 31 37 3e a6 51 54 3e 17 6a 79 3e
       -0.121347964 0.17889978 0.20734271 0.24356876
0000f0 e1 e4 03 3e 57 96 98 3d a6 68 eb 3c 39 96 40 3e
       0.12880279 0.0745055 0.028736424 0.18807305
000100 ec 28 70 3e c9 91 8f be cb 00 12 3d 34 d6 f4 3d
       0.2345311 -0.28040913 0.035645287 0.119549185
000110 84 b2 f1 3d 40 fe 13 be d7 7a 5b 3e ff b0 c1 3e
       0.11801627 -0.14452457 0.21433578 0.3783035
000120 fd 3a d4 3d 9c b5 bd be ee 56 00 be bb 78 d8 3d
       0.103628136 -0.3705262 -0.12533161 0.105699025
000130 f9 fa 20 be 05 e0 25 be 81 19 9a bd 39 b5 2b be
       -0.15720738 -0.16198738 -0.07524396 -0.1676835
000140 1f 3e fa be 88 91 c1 be 86 6e 09 bd da 7e ad 3e
       -0.4887552 -0.37806344 -0.03355267 0.33885843
000150 fe 19 a8 bb d0 3b 9c bd bd 50 6c 3e db ae bc bc
       -0.0051300516 -0.07628596 0.23077674 -0.023032596
000160 7a 6b a7 bd 41 ba 38 bd c3 c8 fd be 3f 0c e5 be
       -0.081747964 -0.0450995 -0.49567232 -0.44735906
000170 3a c0 70 3e a1 db 40 3d 68 f3 a1 bd 5f 0a 1a be
       0.23510829 0.047084454 -0.07907754 -0.15043019
000180 84 1e 2d 3c 96 96 0a 3e 6d 6d 45 3d b7 7c 98 3e
       0.0105663575 0.13534006 0.04820006 0.2978265
000190 cd 88 85 3e ae a2 a6 be 81 27 60 3e 77 3d 15 3e
       0.26080933 -0.3254599 0.2189007 0.14574228
0001a0 25 71 f9 3c 23 87 27 bd de 93 69 bd ed 62 a5 be
       0.03044946 -0.04090036 -0.057025783 -0.32302037
0001b0 52 4e 83 bc a6 2c d1 3d a1 ea ba 3c 1c 66 b9 3d
       -0.016028557 0.10213594 0.022816958 0.09052679
0001c0 5b cc c9 3c 79 11 06 3e e9 32 40 3e bb 33 cb bd
       0.024633577 0.13092603 0.1876942 -0.09921976
0001d0 d6 d0 82 be ca b3 cb 3d f3 b2 2c 3c 01 20 ea 3c
       -0.25549954 0.099464014 0.010540712 0.028579714
0001e0 e6 ed c4 bd eb c8 03 be 52 7d f6 3d 81 77 b5 3d
       -0.09615688 -0.12869613 0.12035622 0.08860684
0001f0 b8 aa d4 bd 9f 3a 94 bd 76 ec 8e be 05 b9 66 bd
       -0.103841245 -0.072377436 -0.2791478 -0.056328792
000200 f2 97 59 bf 4f 2e bd 3e 64 d9 52 be d7 0f 08 3f
       -0.84997475 0.36949393 -0.2059074 0.5314917
000210 00 0c aa be dd 9b b4 3e 45 b6 a5 be 47 d0 b5 be
       -0.3321228 0.35275164 -0.32365623 -0.35510466
000220 63 e5 30 3e 5a 91 81 3f fb d3 eb 3d 63 dc 83 be
       0.17275004 1.0122483 0.115150414 -0.2575408
000230 26 2a 88 ba e5 33 6e 3e c3 dc bf 3f a8 a6 08 3e
       -0.0010388538 0.23261984 1.4989246 0.13344824
000240 29 87 d0 be 83 61 98 be 80 95 6a 3e b9 3f 96 be
       -0.4072812 -0.29761896 0.22908592 -0.29345492
000250 9c 4d 0e 3e 67 b5 8c 3e a9 1f d8 be e5 e2 2e be
       0.13896793 0.2748215 -0.42211655 -0.17078741
000260 a9 df 96 3c 96 e1 28 3f 6d be 15 bb b7 b9 a4 3e
       0.018417196 0.65969217 -0.0022849098 0.3217294
000270 be b5 77 3f 53 d0 ec 3e 0a ff 39 3e 91 27 0b be
       0.9676169 0.4625269 0.18163696 -0.13589312
000280 6f ac 8f bf c4 2b 6e 3f 64 24 20 3f d1 88 21 3e
       -1.1224498 0.9303553 0.6255553 0.15774848
000290 5a 2a 9f 3e e9 a7 d5 3e 8b 7a b0 bd af 4a f7 bd
       0.31087 0.41729668 -0.08617123 -0.12074792
0002a0 06 8b cf bc d8 04 84 bd 8f 05 a8 3f d2 c1 e3 3e
       -0.025334846 -0.06446236 1.3126696 0.4448381
0002b0 aa 55 07 3e 38 94 54 3e 1a ea 9d 3d 3e a5 a9 3d
       0.13216272 0.20759666 0.07710667 0.082834706
0002c0 bc 0a 88 be fe 81 37 3e ab b6 86 bd 39 13 83 be
       -0.2657069 0.17920682 -0.0657781 -0.25600603
0002d0 5d b1 55 3e 8c dc 8c 3f 4b 6a b1 3e 77 09 04 3f
       0.2086844 1.1004806 0.34651408 0.5157694
0002e0 b3 51 ea be ee 46 c0 be 0f 88 55 3f 29 95 e6 be
       -0.45765457 -0.37554115 0.83410734 -0.45035675
0002f0 62 9e ba 3d 45 c3 53 3d d0 3e 9f 3e 4f d9 4b bd
       0.091122404 0.051699895 0.3110261 -0.04976779
000300 66 6c fd bd 27 73 79 be 1d c8 d4 3e 74 d1 74 bf
       -0.12374191 -0.24360333 0.41558924 -0.956321
000310 72 11 13 3e fd 33 12 b9 36 3e ed bd 2a 74 4e 3e
       0.14362124 -0.00013943012 -0.115841314 0.201615
000320 50 6e 6c be 9c 14 dc bd 30 61 14 bf d4 b1 fd 3e
       -0.23088956 -0.107461184 -0.57960796 0.49549735
000330 5d f8 2d be 84 88 c2 3e d0 76 8a be 8a 58 c0 be
       -0.16989274 0.37994778 -0.27043772 -0.3756755
000340 5a 6a 99 3e 57 e6 b9 3e fc 0a 12 bf 6e 48 57 3d
       0.29963952 0.36308548 -0.5704801 0.05255931
000350 ce 8b 8d 3e 1a 32 36 bd 31 99 2b be 76 29 e2 3e
       0.27645725 -0.044481374 -0.16757657 0.44172257
000360 8f 52 a0 3e 66 b5 a9 be 9e ad 94 3c ce bb 07 3e
       0.31312987 -0.3314621 0.018149193 0.13255236
000370 ab e5 89 be 19 27 9f be 5d cd eb ba ed dc 87 3e
       -0.26933035 -0.31084517 -0.001799028 0.2653574
000380 78 4f 24 3e 9a fc f0 bd 0e d6 d7 bd 69 19 0a 3e
       0.1604594 -0.1176693 -0.105388746 0.13486256
000390 d0 45 98 be 5d 2a 20 3e b7 f4 42 bd c5 2e b9 3e
       -0.29740763 0.1564116 -0.04759666 0.36168495
0003a0 ff 01 1a bf d1 6a 60 3e 20 8c c3 be 5e e6 57 3e
       -0.60159296 0.21915747 -0.38192844 0.21083972
0003b0 51 5f c9 be 8a 36 94 be 64 98 85 be 18 66 06 be
       -0.39330533 -0.2894786 -0.26092827 -0.13124883
0003c0 b1 72 5e 3e 36 e5 94 be 97 98 ed 3e 6b 06 02 3f
       0.21723439 -0.29081124 0.4640548 0.50791043
0003d0 a1 10 11 bf d3 ca 6c be 23 f4 35 be 54 41 02 bf
       -0.56666 -0.23124246 -0.17768912 -0.5088093
0003e0 58 c6 00 3f a2 34 33 3e 00 e8 b0 be 86 c6 67 3e
       0.5030265 0.17500547 -0.34552002 0.22634324
0003f0 4e d3 a2 be 1d ad ee be a1 a9 97 3e c5 a9 06 bf
       -0.31801838 -0.4661645 0.29621604 -0.526028

rnn.bias_ih_l0 f4 [256]
000000 88 ee 41 bd df da c1 3d 7b d3 e9 bd 2c 49 08 be
       -0.04734662 0.094655745 -0.1141729 -0.13309163
000010 2d 6d 3c 3e 2e d3 1d 3e 1f ca 1d 3d 27 ae de 3d
       0.18401022 0.1541259 0.038522836 0.10873061
000020 24 f2 2b 3c e4 9a 0c 3e 5b 46 62 bd e6 7e 46 3e
       0.010494743 0.13730961 -0.055242877 0.19384345
000030 4f 93 53 3e 2d 35 6b bd 0a 09 b1 3c f9 1e 85 3d
       0.20661663 -0.05742376 0.021610755 0.06500048
000040 dc 74 a2 3c c2 be 89 3c 53 06 1e 3e c0 b3 f2 3d
       0.019831114 0.016814593 0.154321 0.11850691
000050 4f 3e 62 3d 3d 86 aa 3d 9c b0 62 3d 0f 7c a3 3d
       0.055235203 0.08326385 0.05534421 0.07982647
000060 c7 42 c1 3e fe ce ce 3d c2 27 cf 3b bb 77 c8 be
       0.3774626 0.100980744 0.006321878 -0.39153847
000070 98 53 62 3d a3 ff f1 3d 64 09 f7 3d f7 1f 21 be
       0.055255502 0.11816337 0.12062338 -0.1573485
000080 fd 8d 2a 3d 29 96 d3 3d bd 2c e9 bd 5e 3e 47 3d
       0.041639317 0.10331375 -0.11385486 0.048643462
000090 59 ae 06 3e 96 02 2a 3e 0a 5c 16 bb c7 c5 1b 3e
       0.13152446 0.16602549 -0.0022943043 0.15212165
0000a0 6e 0b ad 3d b9 0e a4 bd 50 26 ef 3d 00 fa 8f be
       0.08449446 -0.080106206 0.116772294 -0.28120422
0000b0 ca e7 3b bd c6 28 24 be 92 1b 7b 3e 07 cb 00 3e
       -0.04587535 -0.16031179 0.24522236 0.12577449
0000c0 e7 31 31 3e 00 b7 8b 3d bd 73 35 3d eb 43 87 bd
       0.17304192 0.06822014 0.04429983 -0.06604751
0000d0 95 6e 38 3f e6 58 da 3c 0a dd 2d 3e 85 f9 cc 3d
       0.72043735 0.026653718 0.16978851 0.100085296
0000e0 70 5f 88 bd 78 60 6b 3e 02 05 94 bc fe c6 36 3e
       -0.06658828 0.22986019 -0.018068794 0.17849347
0000f0 6f b7 7a 3d c9 b9 79 bd 73 aa b7 3d 53 e9 97 bd
       0.061210092 -0.060968194 0.089680575 -0.0741755
000100 40 34 a5 bd a7 2b 8b 3d 29 e6 31 be ec 93 1f bc
       -0.080666065 0.067954354 -0.17372955 -0.009739857
000110 7c 00 83 bd cc 3a a5 3e 59 05 ab bd 89 bd 73 3e
       -0.06396577 0.3227142 -0.08350629 0.2380277
000120 4d 2c 6e be 41 8b f3 bd ff 6e 70 be db 46 3a 3d
       -0.23259087 -0.11891795 -0.23479842 0.04547773
000130 40 6e 50 be 7f 99 0b bd 77 1f 05 bc 3f 5b 03 bb
       -0.20354557 -0.034081932 -0.008125178 -0.00200434
000140 da c5 8a 3d 16 a8 b5 3d 0b 38 43 3b e9 9e 0c be
       0.067760184 0.088699505 0.0029788043 -0.13732494
000150 2a 06 a1 bd fa 29 d2 bd e7 a8 19 be 8b 44 25 be
       -0.07862504 -0.10261913 -0.15005837 -0.16139428
000160 43 b6 5d bc 2a be 63 3e d5 b2 3a 3c 7c 94 d5 be
       -0.013532224 0.2224051 0.011395176 -0.41714847
000170 b5 10 b2 bd 2b 17 5b bd df 73 92 3d b5 4f 07 3e
       -0.08694593 -0.05348889 0.07151007 0.13214
000180 fc 84 42 3d 57 c3 3c 3c b3 79 12 be 6d 4a 18 be
       0.047490105 0.011521182 -0.14304237 -0.14872141
000190 e8 e6 bb bd 41 2b 7a 3d 08 27 4b 3c e6 54 c6 bc
       -0.09174901 0.061076406 0.0123994425 -0.024210405
0001a0 15 c0 8a bd dc 99 48 bc ea bb 83 be 2c 5b 26 be
       -0.06774918 -0.012243714 -0.25729305 -0.16245717
0001b0 88 13 8d be 6c f0 ce 3b 2b 6d 38 3e a1 16 27 3e
       -0.27553964 0.0063152816 0.18010394 0.16317226
0001c0 72 23 84 3c ae c8 b2 3d b8 66 9d 3d 68 21 42 3e
       0.016130183 0.08729683 0.07685608 0.18958056
0001d0 3f 43 55 3a e5 80 47 3e 87 8c cd bb 59 07 86 3d
       0.00081353256 0.19482763 -0.0062728557 0.0654437
0001e0 93 f5 6a be dc 0d a4 3d ba 2f 89 be 87 89 b6 bd
       -0.22945242 0.08010456 -0.26794225 -0.0891295
0001f0 09 57 00 3d a6 1f 57 be fc 8e 84 bd cc 68 d0 be
       0.031333003 -0.21008167 -0.064725846 -0.40704954
000200 f6 f7 85 3d 82 ec 2a 3c ee c3 83 bd fe 24 21 3d
       0.065414354 0.010432364 -0.06433855 0.03934192
000210 c6 0a 26 bd 6a 9f 4c 3d 6b bd 98 bb 10 99 9c bd
       -0.040537618 0.049956717 -0.0046612523 -0.07646382
000220 f5 d5 92 3d ff 9b 16 3e 50 7b 37 be a8 a2 7a 3e
       0.07169715 0.14707945 -0.17918134 0.24476111
000230 e6 3f 2d 3f 6f a6 02 be 9b 9d 02 3e d3 83 06 3d
       0.67675626 -0.12758802 0.12755434 0.03284056
000240 e1 c5 23 3d 71 d9 99 3d 8d e2 50 3d f4 d2 41 3d
       0.039983634 0.07512177 0.050997306 0.04732032
000250 13 bb e4 bd 7c 68 3a be 12 71 ac bc d7 0b 2f 3e
       -0.11168494 -0.1820392 -0.02105001 0.1709436
000260 49 ab c9 bd 37 f1 ec 3d 92 a2 2d be 63 65 7b 3d
       -0.09847123 0.115694456 -0.16956547 0.061375987
000270 f0 a4 76 bd cc d2 4e 3d 8d 6b 38 3e d3 ec f2 bc
       -0.06021589 0.050494 0.18009777 -0.029653942
000280 11 5c 62 bd 35 f7 91 3d a3 f5 25 3c 43 b4 f8 3c
       -0.055263583 0.07127229 0.010129365 0.030359393
000290 84 9b fc be 81 d1 82 3d 76 5b 90 bd 01 e0 22 3e
       -0.493374 0.06387616 -0.07048695 0.15905763
0002a0 48 52 90 3d 06 d2 ed 3d a7 fe 2b bd 05 b0 3f bd
       0.07046944 0.116123244 -0.041990902 -0.046798725
0002b0 a2 a5 db bb 1e c9 a2 3d 88 35 02 be c5 d1 01 3e
       -0.0067030946 0.07948516 -0.12715733 0.12677677
0002c0 43 0b f1 3e a1 08 33 3b e4 b8 40 3c 77 7d d9 3d
       0.47078905 0.0027318376 0.011762831 0.10619634
0002d0 42 7b ec 3c e2 12 22 3d 32 b1 eb ba 5b cc c7 3d
       0.028867368 0.03956879 -0.0017981885 0.097557746
0002e0 89 31 06 3e d4 d4 cd ba 35 a0 2a 3d eb 07 13 be
       0.13104834 -0.0015703687 0.04165669 -0.14358489
0002f0 6a 2e 18 3d e0 df 0a bc aa 0b 07 bd ad 65 80 bc
       0.03715364 -0.0084762275 -0.032970108 -0.015673483
000300 30 41 5f bf 17 d6 e6 3e a3 f0 3a 3d 4a a5 4f bf
       -0.87208843 0.45085213 0.045639645 -0.81111586
000310 3c a9 91 3d c1 ca c9 3e bf 2a 6a bd 59 89 41 bd
       0.07112357 0.394125 -0.057169672 -0.047250126
000320 b1 ce 37 bd 2a 30 57 3f 9d f2 c5 bd 20 66 55 bc
       -0.04487485 0.8405787 -0.096654154 -0.013024837
000330 45 c4 fe 3d ad 5f af bb 66 a7 fe bc be 9b 3f 3e
       0.12439779 -0.0053519816 -0.031085681 0.18711755
000340 44 fe 47 bd 8b a0 86 3d 38 52 64 bc af 23 64 3f
       -0.04882647 0.0657359 -0.013935618 0.8911695
000350 47 6f 50 3d 71 b3 38 3e b6 d5 1b 3d bc 4e fb 3e
       0.050887372 0.18037201 0.038045608 0.49083507
000360 06 da 3b 3e 9b 60 19 bf 1d ac 40 bc 35 9d 64 3d
       0.18344888 -0.59913033 -0.011759785 0.055813987
000370 8d 78 e8 3d 7b b1 56 be 0f 1b 31 3d 79 e0 49 be
       0.11351118 -0.20966141 0.043238696 -0.19714536
000380 0a b2 45 3d 03 6c 58 bf 33 74 47 bf 85 b6 40 bd
       0.048265494 -0.8453981 -0.7791168 -0.047049064
000390 3c e6 b9 3d e8 fb 20 3e 10 36 85 bd ab 61 f4 3c
       0.09077117 0.15721095 -0.06504452 0.029831728
0003a0 41 7a 8f bc e8 6d 6c bd 36 ed 54 3e e7 7d 06 3e
       -0.01751435 -0.057722002 0.20793614 0.13133965
0003b0 f0 60 22 bf e7 ac d3 be 4f ba 7e 3e 32 c1 0c 3f
       -0.63429165 -0.41342852 0.24875759 0.5498229
0003c0 a5 63 44 3e 36 aa 3f 3d 6e d5 93 3c 55 7c ce 3e
       0.19178636 0.046793185 0.018046107 0.40329233
0003d0 49 30 22 3e 9f e2 52 bf a1 79 05 be 94 47 94 3e
       0.15838732 -0.82377046 -0.13034679 0.2896086
0003e0 6f 98 07 3d 1d a6 34 3e c0 ce bf 3d 55 46 24 3e
       0.033104356 0.17641492 0.09365606 0.16042455
0003f0 c9 73 da 3d 5c 55 4a 3f 33 bd e2 3b 50 c6 06 bb
       0.106666155 0.790365 0.006919527 -0.002056498

rnn.bias_hh_l0 f4 [256]
000000 be 40 82 bc c3 65 b3 bd ad 43 00 be 07 a4 25 be
       -0.015900012 -0.08759644 -0.12525816 -0.16175853
000010 ad e3 f0 3d 8f 5b 46 3d d1 3d a5 3d e3 fc ab 3d
       0.11762176 0.04842716 0.08068431 0.08397844
000020 64 48 54 3e 4f 7f 82 3d 9c a8 8c bd ce 96 2b 3e
       0.2073074 0.063719384 -0.06868097 0.16756746
000030 7f 9f 0f 3c d0 20 b3 bb 3d 78 24 3e c5 6c 30 3c
       0.008766054 -0.005466558 0.16061492 0.01076812
000040 1f 6a 9d 3d ee 7f 25 3e 88 b7 64 3e 5e 7a b5 3c
       0.076862566 0.16162083 0.22335637 0.022153076
000050 4b 59 11 be fe 81 58 3e c1 b4 53 3e 41 a3 b5 3d
       -0.14194219 0.21143338 0.20674421 0.08869029
000060 da f3 91 3e 74 a6 13 3d 91 0d 4f 3d 4a 54 9c be
       0.28506356 0.036047414 0.050550047 -0.30533057
000070 bb ac 3f 3d 26 b5 4d 3e 2b 0f 11 3e da 38 3c bd
       0.046795588 0.20088634 0.14165942 -0.045952655
000080 b6 b5 02 3d 4f df b8 bc 62 81 9c 3d ea 15 f3 3d
       0.031911574 -0.02256742 0.07641865 0.11869414
000090 7e 68 8f bd c5 8f c6 bc 66 f8 49 3b fd 58 26 3e
       -0.07002352 -0.024238477 0.0030818223 0.16244884
0000a0 77 88 94 3c 1f 19 0c be 7b af b6 3d 49 60 ad be
       0.018131478 -0.13681458 0.08920189 -0.33862522
0000b0 82 4f 00 be 59 e1 19 3d 33 d2 24 3e cc f9 87 bb
       -0.1253033 0.037568424 0.1609581 -0.004149651
0000c0 15 22 37 3d 98 36 9c 3d 9d 9b 2d be 11 52 bc bd
       0.044710238 0.076276004 -0.16953893 -0.091953404
0000d0 12 ca 1a 3f fe 51 4f bb 2a ec 9b 3c c7 ee 9f 3d
       0.60464585 -0.0031634565 0.01903351 0.07809215
0000e0 49 f3 af 3d a4 6b 61 3e 85 d0 ba bd ed 84 1d 3d
       0.08591325 0.22013718 -0.09121803 0.038456846
0000f0 81 ac a7 3d fd f8 0e be ee f1 00 3e 56 fc 85 be
       0.081871994 -0.13962169 0.12592289 -0.2616908
000100 dd 5b a2 3d dd dd 17 be 72 01 40 be 2a 3f 0e 3e
       0.07927678 -0.14830728 -0.18750551 0.13891283
000110 e0 cd 45 bd 27 43 2f 3e 79 aa 2b be 45 18 0e 3e
       -0.04829204 0.1711546 -0.16764249 0.13876446
000120 80 c2 92 be 50 2a 81 3d 3b b3 cb bd 3b c6 f6 bb
       -0.28664017 0.063068986 -0.09946295 -0.007530955
000130 70 d7 9b be f5 bf b4 bd cf 62 3c 3e 04 1b 3a bd
       -0.30437803 -0.088256754 0.18397067 -0.04543592
000140 2d f1 ae 3d f3 0b d0 3b 95 4f 04 3e cd c3 17 be
       0.085420944 0.0063490807 0.12920983 -0.14820786
000150 2f ec 45 bc 01 73 ac bd 72 58 64 be a3 0e 8c bd
       -0.012080236 -0.08420373 -0.22299364 -0.06838729
000160 43 ba 02 3e ee bc 95 3d 0a 76 ed 3d f2 fa a0 be
       0.12766366 0.07311426 0.1159478 -0.31441456
000170 4c f4 15 bd 8c a0 62 bd ac 8e 72 3c 2c 65 dc 3c
       -0.036609933 -0.05532889 0.014804523 0.026903711
000180 53 55 fb 3d 36 bf ee 3d 6b 89 47 bb c2 0f 4c be
       0.12272134 0.11657564 -0.0030446898 -0.19927886
000190 49 69 8a bc 98 18 39 3d 52 a1 19 be e6 a3 cf bd
       -0.016895907 0.04518947 -0.15002945 -0.10138683
0001a0 df ed 0c be 59 11 17 3e 2a a4 28 bd a8 97 15 bc
       -0.13762616 0.14752711 -0.041172184 -0.009130396
0001b0 d3 99 24 be 12 64 72 ba 09 33 3a 3e 9a 09 33 3e
       -0.16074304 -0.0009246479 0.18183531 0.17484131
0001c0 16 f5 12 3e 06 9b e7 3d 85 ca ce bc 27 ac 06 3e
       0.14351305 0.11308865 -0.025243053 0.13151608
0001d0 89 60 ab bc 1a 82 09 3b 19 63 1a 3e 48 c4 fa 3d
       -0.020920055 0.0020982088 0.15076865 0.12244469
0001e0 c3 74 66 be bf 1f 86 3e ca fa 91 be 17 9b 14 be
       -0.22505479 0.26196095 -0.2851165 -0.14512287
0001f0 43 58 33 bd 9e e2 f0 bc 76 e7 7f bd 1e 0c 10 bf
       -0.043785345 -0.029404934 -0.062476598 -0.5626849
000200 e3 b0 61 3d 07 44 18 bd cd a1 25 be 0c 49 f2 3c
       0.055100333 -0.03717425 -0.16175003 0.029575847
000210 e4 4b 44 3e 35 07 a4 bd bd 80 62 bd 25 dd 0d be
       0.19169575 -0.08009187 -0.055298556 -0.13853891
000220 f9 82 fb 3d 89 83 b3 bd 12 80 bc bc 56 6a c8 3e
       0.122808404 -0.08765323 -0.023010287 0.39143628
000230 af 9d 20 3f c7 aa 37 bd 88 9b 14 bd a0 f9 8f 3d
       0.62740606 -0.0448406 -0.03628114 0.07030034
000240 ea 34 00 3e 8c 8c 84 3c 53 6e 01 be 94 44 24 3d
       0.12520185 0.0161803 -0.12639742 0.040104464
000250 ca 7c d7 bd e8 f8 da bd 62 f1 1a 3d b2 14 19 3e
       -0.105218485 -0.10692006 0.037827857 0.14949301
000260 b8 a4 7d bd 80 ba 5e bd 67 c3 09 be 7c 87 20 3e
       -0.061924666 -0.05437708 -0.13453446 0.15676683
000270 0a 44 ff bc f6 31 b1 bd 3d 40 e9 3d c5 fe 11 be
       -0.031160373 -0.086521074 0.113892056 -0.14257343
000280 dc 0f da bd 9c f2 c3 3c 6b ad af 3d ce 4d ae 3c
       -0.10647556 0.023919396 0.08577999 0.021277335
000290 ae 9f 0f bf ad c3 ee 3c 42 97 0a bd 18 f8 34 3e
       -0.56103027 0.02914604 -0.033835657 0.17672765
0002a0 d7 74 c5 3c bd 8f 53 3d 5a 07 e8 3d 31 92 ff ba
       0.024103565 0.05165075 0.11329527 -0.0019498524
0002b0 a0 c5 22 be f1 03 91 bc 76 ce 37 bc a6 93 07 3e
       -0.158957 -0.017702075 -0.011218658 0.13239917
0002c0 87 45 06 3f 38 a6 da bd e4 86 10 3e bd b6 ef 3d
       0.5244984 -0.10676235 0.14113957 0.117047764
0002d0 41 45 4d 3d 08 ef 1a bd 39 7a 8c 3d 11 34 28 3d
       0.050114874 -0.037825614 0.068592496 0.04106528
0002e0 3a 18 0a 3d 8d 8d e0 bc 4a 11 e0 bd a7 e8 f4 bd
       0.03371451 -0.027411247 -0.109407976 -0.119584374
0002f0 16 6d 29 3c 4a f9 a1 bc 8e d3 10 bd 20 95 cd 3d
       0.0103409495 -0.01977219 -0.035358004 0.10038209
000300 46 72 55 bf 4d a3 f0 3e 8a 46 0e bd 3d ec 48 bf
       -0.8337749 0.4699959 -0.03473524 -0.7848547
000310 7c b0 d5 bd 0e 55 44 3e 32 64 92 bd 7f a0 0e 3e
       -0.10434052 0.19173071 -0.07148017 0.13928412
000320 24 ce 97 bc 24 67 55 3f 49 69 49 3d 27 ea 36 3e
       -0.018530913 0.83360505 0.049172673 0.1786276
000330 29 21 4f 3e 13 f3 22 bd 05 8f bb bd c9 ae 0f 3d
       0.20227493 -0.039782595 -0.09158138 0.035078797
000340 42 78 b7 bd 69 61 fb 3d 01 c5 72 3c e8 f6 50 3f
       -0.08958484 0.12274439 0.014817477 0.8162675
000350 a7 68 d4 bd fc 4d 4f 3e 5a 15 f7 3c 55 12 dc 3e
       -0.10371523 0.20244592 0.030161548 0.42982736
000360 2f 7d 21 3e 87 d1 3d bf 31 67 0b be a5 aa 5f 3e
       0.1577041 -0.7414784 -0.13613583 0.2184244
000370 b1 d4 03 3e 01 27 2d be c2 93 ae bd b8 1a 89 bd
       0.12874104 -0.1690941 -0.08524276 -0.06694549
000380 99 85 d0 bc 18 0d 39 bf da f0 81 bf 42 3f 80 bd
       -0.02545433 -0.72285604 -1.0151627 -0.062620655
000390 45 18 19 3e e5 21 cc 3d 76 ff 5d 3d b7 27 f2 3c
       0.14950664 0.09967402 0.054198705 0.029559953
0003a0 03 ec 1d 3d 89 f4 1f 3e ce 41 6d 3e a3 0d 9b bd
       0.038555156 0.15620627 0.23169634 -0.075709604
0003b0 f8 fb 3e bf 6b 8f 07 bf 17 cf 0d 3e f4 6a 29 3f
       -0.74603224 -0.52953213 0.1384853 0.6617882
0003c0 2b 4a ea 3d ab 85 30 3e 00 b6 30 3d 62 41 9c 3e
       0.11439928 0.1723849 0.04314232 0.30518633
0003d0 9c b5 68 3e 70 88 2f bf 1c 32 c9 3c 0c 3d dc 3e
       0.22725528 -0.6856756 0.024560027 0.43015325
0003e0 83 d8 c7 3d 28 01 4c 3e 1b 6d 3f 3e be 66 2f 3e
       0.09758093 0.19922316 0.18693964 0.17129037
0003f0 bd 7e e8 3d 71 67 66 3f 53 bb 12 3e ab a8 34 3e
       0.113522984 0.9000159 0.14329271 0.17642467

rnn.weight_ih_l1 f4 [256, 64]
000000 98 c9 4a 3f 47 fa 04 be 6b dc 32 be a5 41 ed 3e
       0.7921386 -0.12986098 -0.17466895 0.46339145
000010 ac 25 3b be 1d 00 b7 3d f3 f1 0d 3e 1a 10 bf 3e
       -0.1827609 0.089355685 0.13861828 0.37316972
000020 40 d2 02 bc e5 6e e5 bd 5b d7 3c 3e 27 c0 b9 be
       -0.007984698 -0.11202792 0.18441527 -0.36279413
000030 ad d2 1c bd c3 27 eb bd e4 58 42 3e eb 72 74 be
       -0.038286854 -0.11482193 0.18979222 -0.23871963
000040 1f 30 c6 3d c5 43 fb bd 34 c5 4a 3e 87 8f 0d 3e
       0.09677147 -0.122687854 0.1980179 0.13824283
000050 08 32 6d be cd 6b af 3d c8 4f cf 3e d7 3e ef bc
       -0.23163617 0.08565483 0.40490556 -0.029204769
000060 ab d7 1b be 23 74 1f 3f b2 a8 3c be 3a 21 18 be
       -0.1521899 0.62286586 -0.18423727 -0.14856425
000070 ef c6 85 3d 3a 3d 88 be 69 0b 06 bd 9b 1c 2a be
       0.06532084 -0.26609212 -0.032725725 -0.16612475
000080 e5 8d 1e be 7f 95 0c 3e a8 23 9e bc c5 4c 26 bb
       -0.15483816 0.13728903 -0.019304112 -0.0025375348
000090 19 d1 92 3c 43 b6 a3 be 38 ef 8f 3e 7a a0 cd bd
       0.017921971 -0.31974992 0.28112197 -0.10040374
0000a0 17 58 b4 3d da ea 0d 3d be 8d 69 3d b9 52 a2 be
       0.08805864 0.0346478 0.05701994 -0.31703737
0000b0 e2 cb a2 3d 80 42 31 3e bd f7 17 3e 24 ca ad 3d
       0.07949044 0.17310524 0.14840598 0.08485821
0000c0 58 9a 9e bd 21 35 e2 3d 2a c2 58 bd 5f 0c 45 be
       -0.077442825 0.1104529 -0.052919544 -0.19243
0000d0 dc b8 5a 3e 5e 16 84 bc b7 fb 63 be e3 54 b7 bd
       0.21359581 -0.016123947 -0.2226399 -0.08951738
0000e0 ee bc ec bd 14 6a 2f 3c f0 b8 9b 3d aa c7 d6 3e
       -0.11559473 0.010706443 0.076036334 0.41949207
0000f0 03 0c b7 3d 20 25 a1 3d 96 85 9c be dd ce da 3c
       0.08937838 0.07868409 -0.30570668 0.026709968
000100 37 0d d8 3e d8 a2 43 be cf b2 29 be 9f e0 87 3d
       0.42197582 -0.19105089 -0.16572116 0.0663464
000110 2b 7c 0f be 3d dc 55 be 30 53 a7 3e be b7 82 3e
       -0.1401221 -0.20884795 0.32680655 0.2553081
000120 8a cf 51 bc 21 c2 7a be 6e 4f c7 3d 17 54 39 bd
       -0.012805829 -0.24488117 0.09731947 -0.04524621
000130 5d 6c c9 3c ed f9 3c be af 31 4a be 39 6a 20 be
       0.024587804 -0.18454714 -0.19745515 -0.1566552
000140 19 b0 b0 3d 23 94 32 3e ef 14 2f bd 74 c5 49 3d
       0.08627338 0.17439322 -0.042744573 0.04926057
000150 66 2f 92 be 62 09 ef 3d 69 cc 8e 3d d8 24 a8 be
       -0.28551787 0.116717115 0.06972582 -0.3284061
000160 44 4d 79 be 50 c4 c1 3b 94 e3 a9 be 09 16 dc be
       -0.24345881 0.005913295 -0.3318144 -0.4298556
000170 b0 d7 2f 3e 06 75 fd bd 93 45 5a be 8a 28 13 be
       0.17172122 -0.12375836 -0.21315603 -0.14370933
000180 e3 e6 25 3e 41 ff b6 be b9 b0 3e 3e 4d e9 9e bd
       0.16201358 -0.35741618 0.18622102 -0.07759342
000190 1b 72 d2 3d 20 f9 5b be 40 65 bd 3e 56 f1 4f be
       0.1027567 -0.21481752 0.3699131 -0.20306906
0001a0 75 ad 31 3e b0 48 43 3e 55 14 cd 3c ce ac bd be
       0.17351325 0.19070697 0.02503411 -0.37045902
0001b0 9e eb 0c 3e df 66 51 3e d3 57 60 3e a8 9c 2c 3e
       0.13761756 0.20449398 0.21908502 0.16856635
0001c0 54 7e b5 3c 61 f5 0d bd 98 75 cc bc d1 0a 1c bc
       0.022154965 -0.03465784 -0.024958417 -0.009524063
0001d0 8d f1 df bc 47 20 ac bd 61 ff 30 be 72 1a 98 3d
       -0.02733686 -0.08404594 -0.1728492 0.07426919
0001e0 6e 0b 57 be 0a fd 00 bd 49 44 a0 3b f2 3e a0 3e
       -0.21000454 -0.031491317 0.0048909527 0.31298023
0001f0 99 90 1e 3e a9 f6 23 3e 13 0a f0 be 45 93 61 3e
       0.15484847 0.16012062 -0.46882686 0.22028835
000200 79 31 2b 3c cd 6f 31 3e 71 c3 da bd c7 50 75 3f
       0.010448807 0.17327805 -0.10681809 0.9582638
000210 e5 d9 86 3d 55 ef 64 bd ea 3e 88 3d c2 1e 0e 3c
       0.06584529 -0.055892307 0.06652625 0.008674325
000220 e4 51 2e 3e 8c 50 da bc ce 0e 7f 3d 59 6c 2a 3e
       0.17023426 -0.026649736 0.06226998 0.16642894
000230 1c 72 86 be 09 48 bc bd 39 4d 0d bd 0c ea 6d be
       -0.26258934 -0.09193427 -0.034497473 -0.23233813
000240 d6 49 f1 3d 60 10 e1 bd b1 cc 07 3c 5c e6 98 bc
       0.11781661 -0.109894514 0.008288548 -0.018664531
000250 07 4f 83 bd bf de 9a 3d 1a 5f b4 3e f3 9a f8 bd
       -0.06411558 0.07562017 0.35228807 -0.12138929
000260 02 b7 90 bd 85 29 38 3f a4 f0 3d be 33 59 ce bd
       -0.07066156 0.71938354 -0.18548828 -0.10075607
000270 c7 85 ff bd a9 51 1c be 5d f7 ca bc 3b 91 a9 3c
       -0.12476688 -0.15265526 -0.024776155 0.020699134
000280 18 07 f6 bc 83 4a 77 3e b0 11 8e 3d 16 c9 cf bd
       -0.03003268 0.24149518 0.069369674 -0.10145776
000290 2a 34 d8 3d f6 cd 86 be 1c aa 73 bd 7e 54 41 3d
       0.105568245 -0.2632901 -0.0594884 0.04719972
0002a0 94 39 8c 3d d1 ec c8 3d 18 d0 ab bc 8f 76 06 3e
       0.0684692 0.09810794 -0.02097325 0.13131164
0002b0 50 35 92 3d 38 03 18 3d a4 e7 5d 3d f7 ad ce 3d
       0.07139075 0.037112445 0.054175988 0.10091775
0002c0 43 50 ce bc e8 db 10 be 0d 60 79 3d 29 5d 85 bd
       -0.025184756 -0.14146388 0.060882617 -0.065119095
0002d0 3f 61 9b be ee b2 4e 3f fe 3f 00 3d c7 53 0b be
       -0.3034763 0.80741775 0.031311028 -0.13606177
0002e0 d5 b9 5d be 55 72 0e 3d 90 56 e2 bd 83 0f 9e 3e
       -0.2165292 0.034777004 -0.11051667 0.3087121
0002f0 a6 90 97 bb b3 5f 08 be 2d b0 4c be f7 26 07 3e
       -0.0046253977 -0.13317756 -0.1998908 0.13198458
000300 04 42 70 be 51 65 d9 be 84 51 2a be 07 f4 25 3f
       -0.23462683 -0.4246011 -0.16632658 0.6482548
000310 5f 7f 05 be 43 92 87 3d 35 9c 5a bc c1 9c ac 3d
       -0.1303687 0.06619694 -0.013342907 0.08428336
000320 00 27 06 3d 15 be 6f be 4c 14 cf 3c a1 57 c6 3d
       0.032752037 -0.23412354 0.025278233 0.09684683
000330 65 f3 2c bf c4 52 a5 bd 9e 28 8e bd 37 d7 8d bd
       -0.6755889 -0.08072427 -0.06941341 -0.069258146
000340 ef 9e b1 bd 6a be 14 be ee 1d 27 3d 78 95 68 3e
       -0.08672892 -0.14525762 0.040800028 0.22713268
000350 89 d7 0f be 49 0d 2a 3e ee 36 b9 bc 5c 69 48 3c
       -0.14047064 0.1660663 -0.0226092 0.012232151
000360 cf 07 42 bd ad 9e 52 3f 3f 1a 2c 3d 08 ba 92 3e
       -0.047370728 0.8227337 0.042017218 0.28657556
000370 9d 5b 65 3e f4 03 9e be f9 53 3c bc 76 ea 00 be
       0.22398229 -0.3086239 -0.01149463 -0.1258944
000380 bb 76 ba 3d e4 99 0a 3f a9 67 08 3f 7a 20 73 3b
       0.09104677 0.5414107 0.5328317 0.0037098215
000390 cd 92 d0 3d 0f 0e 2b bb 82 c0 be 3d a7 17 2e be
       0.1018425 -0.002610091 0.09314062 -0.1700121
0003a0 60 db 16 3e 70 0b 23 bd f1 8a e5 bc 58 3d 92 be
       0.14732122 -0.03980583 -0.028020354 -0.28562427
0003b0 f0 2a 0d 3e 1f b0 4e 3e 77 a7 51 3e 8d 30 c9 3d
       0.1378591 0.20184372 0.20474039 0.098237135
0003c0 93 27 29 bd 6b ac 7c 3e e6 7c 36 3c 51 e4 74 bd
       -0.041297507 0.24675147 0.011138177 -0.059788052
0003d0 88 fc 3f 3d 31 03 4f 3e 77 65 1c 3e 0a 5f 6b bd
       0.046871692 0.20216061 0.15273081 -0.057463683
0003e0 28 90 10 3d 74 f5 b5 3c f2 0a 0e be 3f 16 e3 bd
       0.035293728 0.022211768 -0.13871363 -0.110882275
0003f0 a3 57 1b 3e db 7a 26 be 68 18 a8 3c 78 75 1e 3d
       0.1517015 -0.16257803 0.02051945 0.038686246

rnn.weight_hh_l1 f4 [256, 64]
000000 f7 12 16 be ca 73 f4 bd 5e 7d a7 bd 99 94 b0 3d
       -0.14655672 -0.119361475 -0.08178209 0.08622093
000010 c5 66 ac bc f0 ed 78 be 05 ae e5 3d 02 d4 9e 3d
       -0.021045098 -0.24309516 0.11214832 0.07755281
000020 f3 c1 d5 bd 30 1d 19 3e 7b b9 81 3e 75 19 20 be
       -0.104373835 0.1495254 0.25336823 -0.15634711
000030 d1 3b a8 3d 4e 93 dc be 0c 03 66 bc 6c bb 33 be
       0.08214534 -0.43081135 -0.014038812 -0.17551965
000040 50 20 30 be 83 c0 0d be 39 c5 43 bd aa 1f 2d 3e
       -0.17199826 -0.13842969 -0.047795508 0.1690661
000050 d0 29 e6 3c cc 4b b1 3d 4b 65 65 3d 57 91 b7 3d
       0.02809611 0.08657035 0.056004804 0.08963268
000060 88 4f a1 3b 3d f8 90 3d 9b cb cf 3d d5 86 cc ba
       0.004922811 0.07078598 0.101462565 -0.0015604148
000070 56 e1 51 be 0e c5 16 3e 3d 5b f2 3d 20 a6 1e 3e
       -0.20496115 0.14723608 0.118338086 0.15493059
000080 e4 33 80 bc 01 e1 44 3e 98 7f af 3d a3 c3 01 3f
       -0.015649743 0.19226457 0.085692585 0.5068914
000090 5b 27 69 bd 96 94 d0 bd 49 4c df 3d 10 b5 22 bd
       -0.056922298 -0.101845905 0.10903222 -0.039723456
0000a0 2b ee 67 3e c2 d6 fb 3d 17 cb 13 bd a3 7a 3c 3e
       0.22649448 0.12296821 -0.036082353 0.18406157
0000b0 2e 24 8b be cb 9a 11 be 4d 24 be bd b4 c0 f5 3d
       -0.2717604 -0.14219205 -0.092842676 0.11999646
0000c0 47 77 cb 3d 65 0d 10 be 2b f8 3d be ed f8 5c be
       0.0993486 -0.1406761 -0.185517 -0.21579333
0000d0 9f 85 3a be dc 02 a5 3d c9 21 eb 3d 60 07 43 bd
       -0.18215035 0.08057186 0.114810534 -0.047614455
0000e0 79 8d ca 3c 87 75 4e 3d 87 1a f0 bd 85 2d ef bb
       0.024725663 0.05040505 -0.1172381 -0.0072991275
0000f0 69 b5 23 be 95 95 13 be 6c d2 2b 3e 1b de fd bd
       -0.15987171 -0.1441253 0.16779488 -0.12395879
000100 32 77 49 be ad bd 69 be 6a 31 15 bc ed 5e a7 3e
       -0.19674376 -0.22826262 -0.0091060195 0.3268961
000110 0f 59 f5 3d 87 bb 3c 3d 6c fc 6b 3e 72 09 8b 3e
       0.11979877 0.046077278 0.2304551 0.27155644
000120 ab f1 2a 3e 84 c0 f9 3c 28 b8 83 bd ac 50 a0 bd
       0.16693752 0.030487306 -0.064316094 -0.07827887
000130 48 a3 2b 3d a5 fa d5 be 21 75 5b be 2c c9 32 be
       0.041903764 -0.4179279 -0.214314 -0.17459553
000140 06 20 8f bd 91 5f 4c be 0a 8c 59 be 7b 26 87 3e
       -0.0698853 -0.1995833 -0.21244827 0.26396546
000150 5a eb 20 3d 2d da a7 3e bd 2f ac bd 89 35 b5 bd
       0.03928695 0.32783642 -0.08407543 -0.08848102
000160 b5 9e e8 3d 10 3e c9 bd ca 23 a4 3d e1 1a c2 be
       0.11358396 -0.098262906 0.08014639 -0.37911132
000170 70 fe 00 3d 68 15 71 3d 17 32 12 3e 14 cd 12 bd
       0.03149265 0.058858305 0.1427692 -0.03584011
000180 1c 11 1d be b9 a0 6f 3e 6e ed ba 3d 21 c4 db 3d
       -0.15338558 0.23401155 0.09127317 0.10730768
000190 2c da 07 3e 65 13 09 be 2a 5a 99 bd a3 a0 1f 3e
       0.1326682 -0.13386305 -0.074879006 0.15588622
0001a0 1f d9 d4 3e 37 d8 ad 3e 3b 3f bf 3d 00 e9 49 3d
       0.415719 0.3395402 0.09338232 0.04929447
0001b0 44 34 81 be a7 a3 73 be a1 6b 0c 3d f2 6d 6b 3e
       -0.25235188 -0.23792897 0.03428233 0.2299116
0001c0 58 9c b3 3d 7f 9a e9 be f6 4d 8e 3e e2 b9 7e be
       0.087700546 -0.45625684 0.27793854 -0.24875596
0001d0 81 69 1e be 36 19 24 3e 1e 1f 2f be 4a 99 6f be
       -0.15469934 0.16025242 -0.17101714 -0.23398319
0001e0 64 83 68 be e8 6f c2 bd 0c eb 46 be 5b 52 85 be
       -0.22706372 -0.09494001 -0.19425601 -0.26039395
0001f0 b1 64 39 be a4 08 84 be 85 d3 42 bd a9 0b f5 bd
       -0.18104817 -0.25787842 -0.047565002 -0.119651146
000200 58 90 01 3d 88 7f d7 bd ec 95 08 3d 1a db 1b be
       0.031631798 -0.105223715 0.0333461 -0.152203
000210 4d 03 48 3e 52 f7 cc bd e2 72 08 3e 59 c2 69 bd
       0.19532509 -0.1000811 0.13325074 -0.05707011
000220 e5 33 56 be 48 d6 ce 3d dc c0 7e 3d 02 eb 71 bd
       -0.20918234 0.10099465 0.062195644 -0.05906201
000230 6a 98 d5 3e b3 93 65 3d df c3 3c 3d ea 16 6e be
       0.41717845 0.05604906 0.046085235 -0.23250929
000240 f6 e5 2a 3b cd c1 74 be d8 7c 9f 3c 90 4c df 3d
       0.0026077009 -0.23902054 0.01946871 0.10903275
000250 a2 f6 45 3e a4 db 0e 3e 2c c6 04 3e b3 73 b9 3d
       0.19332364 0.13950974 0.12966222 0.09055271
000260 e5 2d 35 bd df 4f e3 bd 8a 8c 17 bc 18 80 f8 bc
       -0.04423322 -0.110992186 -0.009249816 -0.030334517
000270 d0 71 b4 bd b1 07 dd bd a6 f3 90 bd 45 00 d1 3d
       -0.088107705 -0.10792483 -0.07077722 0.102051295
000280 9f 1f 05 3e 3e 32 f7 3d b6 56 25 3e d3 0c fb 3d
       0.13000344 0.1207013 0.16146359 0.122583054
000290 05 f5 e2 3c b5 3d b7 bc 17 c7 40 be 50 b6 b9 be
       0.027704725 -0.022368291 -0.18825947 -0.36271906
0002a0 14 11 27 3d a3 72 b1 3b 79 46 44 bd 16 28 88 3e
       0.04078777 0.005415277 -0.04791877 0.26593083
0002b0 30 31 39 bd 9d fb c5 3d 40 7c 5a 3d c7 25 0e bb
       -0.045212924 0.09667132 0.05334115 -0.0021689998
0002c0 ef 3f 84 3d 2e cc 04 3d 08 b3 46 3d 30 ff 59 be
       0.06457507 0.032421283 0.04851058 -0.21288753
0002d0 40 4b c5 bd ba 09 23 3e 38 b1 65 be 9b 7a f3 bd
       -0.096334934 0.15921679 -0.22430885 -0.118886195
0002e0 73 06 c8 bd 7b eb 9d bd 0e 71 b0 3d 74 b6 b0 bc
       -0.09766855 -0.0771093 0.086153135 -0.021571375
0002f0 41 0e 80 3d a0 fe 56 bd 39 f1 42 3d 32 8a 43 3d
       0.06252719 -0.052488923 0.04759333 0.047739215
000300 e7 a4 39 3e 46 bc fa bd b9 09 0d 3d 2a 83 00 3e
       0.18129312 -0.122429416 0.0344331 0.12550035
000310 a3 59 9d 3c d3 a0 11 3e bd 18 af 3d 94 d2 43 be
       0.019207781 0.14221506 0.0854964 -0.19123298
000320 ac 4d a7 3d 1c ac ae 3c f8 9d 26 be 8a 17 d7 bc
       0.081691116 0.021322303 -0.16271198 -0.026256341
000330 d8 fb 7c 3d ff bf 39 bd 79 6f a5 3e 72 d0 22 3b
       0.061763614 -0.045349117 0.3231161 0.0024843481
000340 f3 21 7a 3d bb 96 21 be f1 bb 20 be 18 fb f9 3a
       0.061067533 -0.15780155 -0.15696694 0.0019072024
000350 cb a5 d9 bc 26 e2 6a bd 56 a6 3c bd d6 a8 82 be
       -0.026568314 -0.05734458 -0.046057068 -0.25519437
000360 0d 38 54 3d a1 f4 dd 3d ad af 4e 3b 9a 77 b6 3d
       0.051811267 0.10837675 0.0031537816 0.08909531
000370 03 21 af 3e 48 dd 11 bd 5b 1f 44 3d 6d 86 51 bd
       0.34204873 -0.03561142 0.047881465 -0.05115359
000380 0e 46 9a bd 22 0a be bd 5f 6d 21 bc fb b9 16 3e
       -0.07532893 -0.092792764 -0.009852736 0.14719383
000390 55 9c db bd 4f f5 23 3e 63 f7 67 be 9a d2 f4 3d
       -0.10723177 0.16011547 -0.22652964 0.119542316
0003a0 23 ee 1a 3d 7e c7 56 bd db 1b 45 be 34 c4 d4 3d
       0.03782476 -0.052436344 -0.19248907 0.10388985
0003b0 7d e0 82 3e 65 97 ff 3d fe 15 42 be 00 55 3e 3d
       0.25561896 0.12480048 -0.18953702 0.04646778
0003c0 c3 68 32 be 68 57 48 3d e1 81 38 3d b5 46 8f be
       -0.17422776 0.048911482 0.045045737 -0.27983633
0003d0 93 1a a2 bc 50 38 78 3d 5b e1 81 3d 8e fb 18 be
       -0.019788062 0.06060058 0.06341811 -0.1493971
0003e0 d2 e0 1f be 48 85 95 be 02 2d 14 3e 50 ea b6 3b
       -0.15613106 -0.29203248 0.14470294 0.0055821314
0003f0 76 a4 d7 3d 3f 94 c9 3d 6a 99 53 bd f8 88 ae bd
       0.10529415 0.09842729 -0.05165998 -0.085222185

rnn.bias_ih_l1 f4 [256]
000000 4d a6 6c 3c a6 53 7b bd 40 db 97 3d 4a c9 71 3d
       0.014443946 -0.06135907 0.074148655 0.059029855
000010 fc f3 b3 bd 7f e7 33 be f3 c2 7e 3d 08 e4 4d be
       -0.08786771 -0.17568778 0.062197637 -0.20106518
000020 a5 2d 00 bd 6c d2 dd bd 61 f8 81 be b5 63 4c be
       -0.03129353 -0.108311504 -0.2538481 -0.1995991
000030 a0 cf d7 bd a2 fb 98 bc 0a fa 01 bd 3a 86 98 bb
       -0.10537648 -0.018674675 -0.031732596 -0.004654673
000040 44 cd c6 bd 17 4e cb bd 1b 38 96 bd 51 86 3b be
       -0.0970712 -0.09927004 -0.0733492 -0.18312956
000050 7a 4f 52 be e3 02 1b be de 47 0c bd f6 75 45 be
       -0.2053813 -0.1513782 -0.034248225 -0.1928328
000060 cc 60 c3 bd b6 13 7a bd 5f 88 83 be 03 4c 89 3a
       -0.09539947 -0.061053954 -0.2568998 0.0010474924
000070 a3 54 0c be 7c 8a cb bc 13 99 a6 bd 41 11 08 be
       -0.13704161 -0.024846308 -0.08134665 -0.13287832
000080 9e 00 65 be 3e 06 91 3d 3a 5a be bd df ec 1b bd
       -0.22363517 0.07081269 -0.09294553 -0.038067695
000090 5e 78 67 be f5 ad ad bd d5 80 a1 be 22 ae 03 be
       -0.2260451 -0.08480445 -0.31543604 -0.12859395
0000a0 9e 7c bb bd 5a 9d 66 3d 18 b5 a0 be 7d cb ea bd
       -0.09154628 0.056302406 -0.31388164 -0.114645936
0000b0 e2 38 82 be bc 51 08 3d e3 de dd bc 18 c7 3d be
       -0.25434023 0.033281073 -0.02708382 -0.1853298
0000c0 38 fc 00 be 9b 55 38 be ee cd 75 bd 3b c6 69 3d
       -0.12596214 -0.18001406 -0.060010843 0.057073813
0000d0 b7 95 4d bc f2 2b 25 be 14 4e 22 bd d6 16 0f be
       -0.012547902 -0.16130045 -0.039625242 -0.13973555
0000e0 53 95 72 bd 18 d6 30 be e6 72 8c bd e6 42 a0 bd
       -0.059224438 -0.1726917 -0.06857853 -0.0782526
0000f0 dc 89 9f bd 60 7b 87 be 72 d7 80 be 01 e5 9a bb
       -0.077899665 -0.26461315 -0.25164372 -0.0047270064
000100 2c 7f 17 bc d7 bb 5e bd 5f dd 10 be 72 5f 18 be
       -0.009246629 -0.054378357 -0.14146946 -0.1488016
000110 a6 91 c5 bd 3d 49 52 3c 02 31 84 be fa dd 64 3c
       -0.09646921 0.012834844 -0.2581864 0.013968939
000120 80 e5 e3 bc ff c2 92 bd 40 02 04 be 6b 42 12 bd
       -0.027819395 -0.07166099 -0.12891483 -0.035707872
000130 77 99 15 3d 06 4f 9f bd d6 d3 3d be 08 d3 20 be
       0.03652331 -0.077787444 -0.1853784 -0.15705502
000140 d1 a1 1a bd d9 19 b8 bd 1c 97 44 3d 67 3d 53 bd
       -0.037751976 -0.08989305 0.04799567 -0.05157223
000150 1e e1 e4 3d 69 37 a6 3d c9 0b 96 ba ff 23 8b bd
       0.1117575 0.081160374 -0.0011447604 -0.06793975
000160 07 a5 91 bd 2f 50 0f be 8c 95 93 b7 c4 1e 6c 3c
       -0.071115546 -0.13995431 -1.7593404e-05 0.014411632
000170 94 5c 50 bd b1 f6 98 bd 42 ae c9 bd ab b2 b2 bc
       -0.05086954 -0.07468928 -0.0984769 -0.021813711
000180 d5 f5 83 3a 03 73 7d bd 6d 5c 6f be 32 c6 a2 bd
       0.001006777 -0.06187726 -0.23375101 -0.07947959
000190 56 f5 89 bc e2 ea 33 bd f0 0e 49 bc 35 e9 ca 3d
       -0.016840618 -0.043925174 -0.012271628 0.09907762
0001a0 4b 08 77 bc 52 3c 14 bd 56 85 92 3d af c7 66 bd
       -0.015077661 -0.03619034 0.07154338 -0.056342777
0001b0 14 5f 7b 3c 6a 6d af 3d 64 1f 1c 3d 9e e8 26 bd
       0.015342493 0.08565791 0.038115874 -0.040749185
0001c0 2e 3f 7d bc 72 2b 3a bd ef cc ec bc 19 ed 1e be
       -0.015456958 -0.04545159 -0.028906314 -0.15520133
0001d0 7a 4d d6 bb 65 bf 95 3d 78 81 f7 bd 7a 1f d8 bd
       -0.0065399976 0.07311896 -0.12085241 -0.10552879
0001e0 41 25 32 bc 92 28 c9 bd 5a e1 c0 bd bf d8 6b be
       -0.01087314 -0.09822191 -0.094179824 -0.23031901
0001f0 b9 a6 ed bb 97 80 1e 3d 72 69 c0 3d b9 57 7f 3b
       -0.007252541 0.03869685 0.09395112 0.00389622
000200 07 ec cc bc b7 20 48 3c d0 28 d9 3d c2 a9 d2 bd
       -0.02501489 0.012214831 0.106034875 -0.10286285
000210 e9 38 8f bd b1 f2 dc bd 2d c4 95 3d b5 8f 9d bc
       -0.069932766 -0.10788477 0.07312808 -0.019233564
000220 2c 52 11 3d c6 47 05 bd c7 bb 9e 3d a0 c1 2f 3d
       0.035478756 -0.03253915 0.077506594 0.042909265
000230 26 20 03 3d 63 fc 70 bd b3 56 53 3c 27 95 f9 3d
       0.03201308 -0.058834445 0.012899089 0.12186652
000240 85 18 ca 3c d6 ee 5d 3d a3 44 0c 3e e4 f9 3a 3d
       0.024669895 0.05418285 0.13698058 0.04564847
000250 93 bc cb 3d f2 b4 03 3d cf 5f af bd e2 f4 72 3d
       0.09948077 0.032154985 -0.08563196 0.05931557
000260 81 20 c1 3c b6 6e b5 bd d1 10 f5 3d 7f 4d 88 3d
       0.02357507 -0.08859007 0.11966098 0.06655406
000270 30 15 8d bd c1 85 1d 3c b5 46 ec 3d 3c 27 f7 3d
       -0.06888807 0.009614409 0.11536924 0.1206803
000280 b8 82 2f 3d 96 30 1b be 9f 48 95 bb df 18 ea bc
       0.042849272 -0.15155253 -0.0045557762 -0.028576313
000290 ae 6f b8 3d 7f 8e 2e be 95 00 cf bd 85 61 16 bd
       0.09005676 -0.17046545 -0.10107533 -0.036714096
0002a0 0e 4d d3 bd f0 1d 96 bd b9 a4 95 bd 5a 54 5c bd
       -0.103174314 -0.07329929 -0.07306809 -0.05379138
0002b0 ae b1 cb bd ca 92 7e 3d 57 87 c9 3d 78 9c 06 3c
       -0.09945999 0.062151708 0.09840267 0.008216016
0002c0 fc 37 06 3e a1 3b 37 bd de fa d2 3a ac 4e 28 3d
       0.13107294 -0.0447346 0.0016096493 0.041090652
0002d0 d8 2b ee bc 6b 40 42 bd c4 7f bb bd de 32 02 3d
       -0.02907364 -0.047424715 -0.09155229 0.031786792
0002e0 28 12 b9 3d a9 06 75 3d d8 dd 8f bc 10 ce a5 3b
       0.09036666 0.059820805 -0.017561838 0.005059965
0002f0 c9 4b 06 bd e3 c1 db bd f7 c6 aa bd 91 1e 0c 3e
       -0.032787118 -0.1073034 -0.08338731 0.13683535
000300 13 24 38 be 40 ab 64 be 37 33 8f 3d 99 95 86 bb
       -0.17982511 -0.22330952 0.0699219 -0.004107189
000310 ad 06 74 be fa 92 cd 3c 1f 94 72 3d 5c fd 77 bc
       -0.23830672 0.025094498 0.05922329 -0.015136089
000320 00 52 07 be 59 c4 58 be af 89 20 be 3a 13 c2 bc
       -0.13214874 -0.2116865 -0.15677522 -0.023690809
000330 19 01 5c be dd 27 39 be 2e b5 ef 3c 2f fc 8f 3b
       -0.21484794 -0.18081613 0.029261198 0.0043940763
000340 3b 77 4f 3d 59 69 11 bd 46 d9 9b bc 92 7c ab bd
       0.050650816 -0.035500858 -0.019024502 -0.08373369
000350 ff 0d 79 be 4b dd 3d bd ac cd 7a bd a7 1a 91 3d
       -0.24321745 -0.04635362 -0.0612313 0.07085162
000360 c6 2f 95 3d 3c 85 cf bc ee 4b 60 bd 02 f5 4f be
       0.07284503 -0.025332086 -0.054759912 -0.20308307
000370 15 44 8b bc 0c 97 cb bb d9 f5 3c bc 88 a9 b9 bd
       -0.017000237 -0.0062130746 -0.011533224 -0.09065539
000380 08 bc 3d bd b2 30 17 bd a0 ec fd bd 78 1d d6 bd
       -0.0463219 -0.036911674 -0.12398648 -0.104548395
000390 38 10 32 be f0 40 3c 3b c2 71 8a be 43 54 2d be
       -0.17389 0.002872523 -0.27039915 -0.16926675
0003a0 96 8f 21 bb 38 6d 29 be a0 a2 0b bc ed 80 3b bc
       -0.0024652234 -0.1654557 -0.00852266 -0.0114443125
0003b0 8d ad 33 be 46 50 82 bd 3d 87 0f be 65 72 1c 3e
       -0.17546673 -0.06362967 -0.14016433 0.15278013
0003c0 5d 84 87 3d 5d da 4e 3d 40 e4 90 be 99 73 89 3d
       0.06617043 0.050501216 -0.2829914 0.06711502
0003d0 06 ec d9 bd dc a7 5a bd cc e9 da bd f8 f6 3e bd
       -0.10640721 -0.05338274 -0.106891245 -0.046622247
0003e0 7d df e2 bd cd ef e7 bc b5 7d 0b be 47 e1 07 be
       -0.11077783 -0.028312588 -0.13622172 -0.1326953
0003f0 27 9e 81 bc f5 fc 86 be 40 df 92 be fc 3b 9c bd
       -0.015822483 -0.26364866 -0.2868595 -0.076286286
