notebooks/checkpoints/LSTM_optuna/trial_009/LSTM_trial_9/checkpoints/best-epoch=2-val_loss=25.48.ckpt (torch, 322902 bytes, 42 tensors)

rnn.weight_ih_l0 f4 [128, 30]
-0.11517319 -0.16634859 0.069573 -0.19276273 0.10634916 -0.2566273 0.23938477 0.10046217
-0.2756787 -0.14365743 0.06579324 -0.09202402 -0.014606193 0.04004661 0.030102653 -0.2099519
-0.033823777 -0.16954364 0.04651571 -0.08481481 -0.012712306 0.057117965 0.030092234 -0.25212902
-0.19415146 0.040244326 -0.32368144 -0.21561298 0.06845898 0.052086264 -0.14532731 -0.16251943
0.09392018 -0.18775782 0.40139621 -0.029407673 -0.17296715 0.04080599 -1.1056701 0.020163666
-0.14042501 0.105362475 -0.07731428 -0.07254022 0.13341434 -0.11287053 -0.114116356 -0.04471782
-0.12691937 0.008447149 0.0782527 0.06634139 0.15567888 -0.12692451 -0.091591835 0.16576143
0.05651595 0.08852954 -0.048597325 0.13039272 0.20218003 0.034528624 0.20330176 0.10386775
0.060025603 -0.02665421 -0.13522805 -0.10842646 -0.043167166 -0.06849805 -0.09324766 -0.009036167
0.06347559 -0.009472471 0.05804151 0.124051884 0.1624618 -0.1409811 0.1370043 0.11190247
-0.08300807 0.070779 0.0077352948 0.14673035 0.112587936 -0.06296693 0.13781254 0.15544488
0.033009402 0.16100521 0.18743138 -0.08716926 0.15098432 0.08250821 0.16416314 0.06651476
-0.20335428 0.037672732 -0.05092599 -0.13692568 0.13897614 -0.15142855 0.13044441 0.15365675
0.12416783 0.26477873 0.005646992 -0.12697762 -0.052169647 0.03146136 0.13873233 0.11846372
0.12253931 -0.12630537 -0.09557792 0.24858974 -0.089151114 0.08140521 -0.06965817 0.030440586
-0.19699897 -0.07477169 -0.14887577 0.2128411 -0.03411984 0.17535101 0.063541435 -0.00024069322
-0.14409186 -0.27012333 0.025668163 0.11722171 -0.19746573 -0.021992251 0.02089977 -0.19158056
-0.028519372 -0.067741394 -0.08491002 -0.040694237 0.071907006 -0.09345417 -0.09336746 0.029183084
0.057782944 0.06553039 -0.1490251 -0.118338294 -0.036238432 -0.19443844 0.009160053 -0.2588748
-0.016242249 -0.16672777 0.11077332 -0.048859954 0.21816818 -0.100297965 0.0037088862 -0.019367544
-0.130233 -0.20040296 -0.09635037 -0.067794636 -0.06578175 -0.08085126 -0.20825188 -0.00025189976
-0.12038061 0.0648612 0.0027671363 0.043481413 -0.23622105 0.10370977 0.10314599 -0.15640251
0.10399178 -0.09905828 -0.10732528 0.05977581 0.08082281 0.0719712 0.15160458 0.033832096
-0.052966066 -0.07781219 0.23733556 0.26796314 0.10865939 0.04400072 -0.016631616 -0.1272648
-0.1481192 -0.10562993 -0.01446005 -0.024096975 0.0058137337 -0.080569595 -0.02016697 0.21261306
0.05104395 0.19949013 -0.14806136 -0.066104405 0.08611086 -0.13379768 0.041956317 0.045406565
0.18425867 0.21044801 0.15293474 3.8048136e-06 0.021758405 0.15486175 0.094655134 0.11043966
-0.009981085 0.045045365 0.16539007 -0.1517124 0.12098038 -0.079860814 -0.11127017 0.12407423
-0.13362707 0.047024164 -0.08078938 -0.1371383 -0.16285953 0.04727077 0.056823663 0.017050415
0.19750512 0.060635157 -0.085898325 -0.00053997204 0.077401884 0.07175031 -0.13110842 0.14489964
0.11721489 0.13256577 0.16718267 0.068635136 -0.070699796 0.04621174 -0.106545486 0.00495669
0.23366053 -0.006031424 -0.03458868 0.1061553 0.19532737 0.2039251 0.12335819 0.20354445
00000000: ecdf ebbd 4957 2abe 4a7c 8e3d 9863 45be
00000010: 97cd d93d a764 83be 4821 753e 1cbf cd3d
00000020: c225 8dbe ef1a 13be 9bbe 863d 1777 bcbd
00000030: d04e 6fbc ea07 243d d799 f63c a2fd 56be
00000040: cd8a 0abd d99c 2dbe 4287 3e3d 63b3 adbd
00000050: 4747 50bc 87f4 693d fd83 f63c 0e17 81be
00000060: a4cf 46be 3cd7 243d 93b9 a5be a6c9 5cbe
00000070: 3934 8c3d 6858 553d afd0 14be 7e6b 26be
00000080: 3959 c03d 9643 40be ce83 cd3e 5ce8 f0bc
00000090: 4d1e 31be 2f24 273d 9986 8dbf 462e a53c
000000a0: 93cb 0fbe 48c8 d73d f356 9ebd f88f 94bd
000000b0: c59d 083e aa28 e7bd d6b5 e9bd 082a 37bd
000000c0: 27f7 01be e965 0a3c f442 a03d ffdd 873d
000000d0: 496a 1f3e 80f8 01be 8094 bbbd 5dbd 293e
000000e0: 457d 673d fa4e b53d fd0d 47bd ab85 053e
000000f0: 4808 4f3e e36d 0d3d 562e 503e 9db8 d43d
00000100: 68dd 753d ee59 dabc 3979 0abe b10e debd
00000110: 0ed0 30bd b548 8cbd a1f8 bebd 6e0c 14bc
00000120: 7dff 813d 6c32 1bbc efbc 6d3d ea0e fe3d
00000130: 635c 263e 595d 10be db4a 0c3e 1f2d e53d
00000140: 2300 aabd 95f4 903d 5b78 fd3b 7b40 163e
00000150: 8194 e63d cef4 80bd bb1e 0d3e f12c 1f3e
00000160: de34 073d 8dde 243e 03ee 3f3e cc85 b2bd
00000170: a29b 1a3e 10fa a83d 621a 283e e438 883d
00000180: 1b3c 50be b94e 1a3d c597 50bd 3f36 0cbe
00000190: c34f 0e3e 1610 1bbe 3893 053e 3258 1d3e
000001a0: b44b fe3d 1491 873e 670a b93b 6c06 02be
000001b0: d7af 55bd a1dd 003d d90f 0e3e 1b9d f23d
000001c0: e4f5 fa3d 3256 01be 5bbe c3bd 4f8e 7e3e
000001d0: dc94 b6bd c6b7 a63d f1a8 8ebd 895e f93c
000001e0: 19ba 49be e621 99bd e472 18be 04f3 593e
000001f0: 3fc1 0bbd 378f 333e 0322 823d 9862 7cb9
00000200: d18c 13be 9b4d 8abe 0a46 d23c f011 f03d
00000210: 7534 4abe 1829 b4bc ff35 ab3c b22d 44be
00000220: 75a1 e9bc 00bc 8abd 4ee5 adbd 00af 26bd
00000230: fb43 933d e664 bfbd 7037 bfbd 5d11 ef3c
00000240: cfad 6c3d cc34 863d 099a 18be 595b f2bd
00000250: c06e 14bd df1a 47be 0c14 163c 3d8b 84be
00000260: 770e 85bc afba 2abe 1fdd e23d 6021 48bd
00000270: 7b67 5f3e 0569 cdbd c910 733b afa8 9ebc
00000280: cd5b 05be 6f36 4dbe 5853 c5bd ead7 8abd
00000290: 95b8 86bd 5895 a5bd fb3f 55be 6a11 84b9
000002a0: 1c8a f6bd f3d5 843d d858 353b 9119 323d
000002b0: eee3 71be ca65 d43d 343e d33d fb27 20be
000002c0: a4f9 d43d 11df cabd 5bcd dbbd 7bd7 743d
000002d0: 6e86 a53d a365 933d 3b3e 1b3e 8693 0a3d
000002e0: f2f2 58bd ff5b 9fbd 1808 733e 7732 893e
000002f0: d088 de3d 193a 343d 073f 88bc b451 02be
00000300: 8fac 17be 8154 d8bd d8e9 6cbc 0567 c5bc
00000310: 2281 be3b ac01 a5bd 3435 a5bc 3db7 593e
00000320: 7613 513d 2447 4c3e 669d 17be bf61 87bd
00000330: e45a b03d 4202 09be 63da 2b3d 3cfc 393d
00000340: 4eae 3c3e af7f 573e ed9a 1c3e 3356 7f36
00000350: af3e b23c 1494 1e3e 8dda c13d 302e e23d
00000360: b487 23bc 7d81 383d 045c 293e 7f5a 1bbe
00000370: 90c4 f73d 118e a3bd 9de1 e3bd a11a fe3d
00000380: 89d5 08be 699c 403d e774 a5bd fc6d 0cbe
00000390: a6c4 26be ff9e 413d eebf 683d 50ad 8b3c
000003a0: c83e 4a3e 925c 783d 76eb afbd e98c 0dba
000003b0: e184 9e3d d4f1 923d 4941 06be 9260 143e
000003c0: 5c0e f03d 52bf 073e ef31 2b3e 9490 8c3d
000003d0: 0ecb 90bd 8548 3d3d 8534 dabd bb6b a23b
000003e0: b544 6f3e 40a3 c5bb dcac 0dbd f367 d93d
000003f0: e603 483e bed1 503e 38a3 fc3d f56d 503e

rnn.weight_hh_l0 f4 [128, 32]
-0.34394887 0.0467314 0.19503391 0.32186705 0.032032475 0.19079784 -0.13714272 0.072099194
0.42486838 0.22738692 0.11551226 0.11067943 0.20952317 0.17601673 0.06808492 -0.29418966
0.0042127897 0.2587253 -0.203413 0.044365216 -0.10525315 -0.0030843392 0.2619193 -0.22039717
0.33134615 -0.19225033 0.072950415 -0.1434982 -0.05290775 0.00460732 0.33299825 0.092615604
0.18035838 0.24939117 -0.33331278 -0.37116107 0.15055397 -0.027332315 0.1326935 -0.26514286
-0.016107403 0.24925698 0.114210814 0.07775432 -0.052059963 -0.29430613 0.35934725 0.02282433
0.22239329 -0.11125945 -0.2722201 0.11295491 -0.038920723 0.23965725 0.08410423 -0.037003025
-0.25053844 0.0777916 -0.15439358 0.0074306093 -0.024340093 0.10218674 -0.30110344 -0.06610056
0.15382627 0.08051951 0.07803032 0.0013292169 0.042243168 0.031631157 -0.13359709 -0.14006935
-0.11216448 0.2626486 0.071369536 -0.062780835 0.001600671 -0.13394678 -0.100102656 0.04829092
-0.1409115 -0.23946404 -0.076140985 -0.0130159585 -0.25361457 -0.10083089 0.16154818 0.0021512574
-0.19134244 0.08094808 0.1130854 -0.1496156 0.07430574 0.09169808 -0.023411505 0.18289922
0.36651367 0.05639953 0.019190922 -0.070435606 0.01676056 0.054993663 0.010907653 0.111731544
-0.1309225 -0.052646033 0.06884738 -0.14325419 0.030319147 -0.20169355 0.024416506 -0.1631368
-0.004263283 0.03635342 -0.15285668 -0.08669799 0.043988552 0.215893 -0.016690487 0.110785834
-0.036574267 0.22955784 -0.16433807 0.09192173 -0.016532268 -0.25874403 -0.12009196 0.016722266
0.5255747 0.018014714 -0.38247395 -0.3561471 0.10667812 -0.111007266 0.005798611 -0.12962855
-0.3818417 0.2291268 0.06533991 -0.11849871 -0.106064156 -0.5308279 -0.15825565 0.41131997
0.22790822 -0.06049606 -0.058439713 0.007391532 -0.2125538 0.15643077 0.04672382 0.022820938
-0.37178853 0.30319124 -0.1464163 0.12642348 0.2154022 -0.040626068 0.05026424 -0.14240901
-0.05197843 -0.013035178 0.009590892 -0.052101597 0.1653595 0.1260306 -0.092027865 0.06437298
-0.19522244 0.2374203 -0.057957582 -0.11518315 -0.032158315 0.00019088035 0.034428816 -0.016635604
-0.18625945 0.14110455 -0.019599864 0.13517094 0.11024001 -0.10952831 0.077365085 0.10460515
0.24370842 0.0068082823 -0.08008607 -0.00049927225 -0.12153475 0.06596512 -0.19109274 0.091417424
0.14502543 -0.08718242 -0.21134938 -0.06950852 0.1369735 -0.04896773 0.06665928 -0.017676992
-0.18552607 -0.021580635 -0.17811455 0.07359421 -0.010158326 -0.06347009 0.07054032 0.38176668
0.08684794 0.023298543 -0.0626724 0.048695717 0.08520196 0.13063218 0.046712156 0.2862218
-0.2350912 0.27044207 -0.16349773 0.060905248 0.24147503 -0.0014536084 0.026097972 -0.18519308
0.17277573 -0.00069788855 -0.02220962 -0.24844149 -0.07248055 -0.07277147 -0.09826126 -0.11053027
-0.46131212 0.03237258 0.06103482 -0.20034678 0.038502086 -0.32947558 -0.12447157 0.37228712
0.09351212 -0.19211741 -0.09879014 -0.07348718 0.0028140107 0.20751278 -0.10863686 0.19287544
-0.17412524 0.6682708 -0.11095852 -0.010574775 0.043851506 -0.3148368 -0.022742335 -0.09805651
00000000: 111a b0be 6d69 3f3d f8b6 473e c2cb a43e
00000010: 7c34 033d 8260 433e 246f 0cbe bea8 933d
00000020: 5988 d93e 1ed8 683e b191 ec3d e6ab e23d
00000030: 3e8d 563e bb3d 343e 1b70 8b3d 07a0 96be
00000040: 710b 8a3b a477 843e 7f4b 50be 4db8 353d
00000050: f78e d7bd a022 4abb 491a 863e ccaf 61be
00000060: 34a6 a93e 45dd 44be 0767 953d 31f1 12be
00000070: ccb5 58bd 00f9 963b bf7e aa3e 40ad bd3d
00000080: deaf 383e 6660 7f3e f9a7 aabe d308 bebe
00000090: d22a 1a3e 05e8 dfbc cee0 073e cec0 87be
000000a0: acf3 83bc 393d 7f3e 5ce7 e93d a83d 9f3d
000000b0: d43c 55bd 4baf 96be 5dfc b73e 17fa ba3c
000000c0: 11bb 633e ffdb e3bd 6f60 8bbe e754 e73d
000000d0: 566b 1fbd b668 753e d73e ac3d 7c90 17bd
000000e0: 9346 80be 3451 9f3d 5a19 1ebe 787c f33b
000000f0: e064 c7bc 4847 d13d 3b2a 9abe bb5f 87bd
00000100: a284 1d3e 6ae7 a43d 5cce 9f3d 1e39 ae3a
00000110: 2c07 2d3d ac8f 013d adcd 08be 576e 0fbe
00000120: 7eb6 e5bd e179 863e 312a 923d 3d93 80bd
00000130: 9bcd d13a 5829 09be 9f02 cdbd b3cc 453d
00000140: 1b4b 10be 1036 75be ceef 9bbd e340 55bc
00000150: c5d9 81be 6d80 cebd e36c 253e 1cfc 0c3b
00000160: 46ef 43be 1bc8 a53d 5199 e73d d534 19be
00000170: 9c2d 983d 34cc bb3d 7cc9 bfbc ef49 3b3e
00000180: aea7 bb3e 3203 673d 4836 9d3c 8b40 90bd
00000190: 714d 893c 0941 613d 03b6 323c 82d3 e43d
000001a0: 8c10 06be 5ea3 57bd dbff 8c3d 3ab1 12be
000001b0: dc5f f83c c188 4ebe 2005 c83c 550d 27be
000001c0: 03b3 8bbb 53e7 143d 7686 1cbe b78e b1bd
000001d0: 572d 343d 0e13 5d3e 7dba 88bc afe3 e23d
000001e0: e6ce 15bd 3611 6b3e 3d48 28be 7641 bc3d
000001f0: ae6e 87bc 197a 84be c6f2 f5bd 22fd 883c
00000200: 108c 063f 9893 933c a0d3 c3be ea58 b6be
00000210: 0f7a da3d c757 e3bd 4602 be3b 59bd 04be
00000220: c180 c3be 37a0 6a3e eed0 853d 74af f2bd
00000230: 2a38 d9bd 56e4 07bf c50d 22be 8898 d23e
00000240: c660 693e b7ca 77bd 7b5e 6fbd aa34 f23b
00000250: b4a7 59be 632f 203e 7a61 3f3d faf2 ba3c
00000260: 115b bebe e23b 9b3e 28ee 15be 2875 013e
00000270: 6592 5c3e 8567 26bd e0e1 4d3d abd3 11be
00000280: 56e7 54bd 8091 55bc 1e23 1d3c 7c68 55bd
00000290: 0054 293e 2a0e 013e 1b79 bcbd fbd5 833d
000002a0: 64e8 47be 4f1e 733e ee64 6dbd 25e5 ebbd
000002b0: 70b8 03bd 0e27 4839 3b05 0d3d 6447 88bc
000002c0: ccba 3ebe b67d 103e e58f a0bc 406a 0a3e
000002d0: 84c5 e13d 6150 e0bd 9671 9e3d 3a3b d63d
000002e0: b38e 793e 0318 df3b 2a04 a4bd 98e1 02ba
000002f0: 36e7 f8bd b918 873d d1ad 43be 0f39 bb3d
00000300: 8c81 143e b28c b2bd f96b 58be 7c5a 8ebd
00000310: c842 0c3e 6392 48bd a984 883d 57cf 90bc
00000320: 8cfa 3dbe dfc9 b0bc a963 36be 90b8 963d
00000330: 1b6f 26bc 9bfc 81bd 7177 903d ec76 c33e
00000340: 55dd b13d 96dc be3c 635a 80bd 2975 473d
00000350: 5d7e ae3d 71c4 053e 3f55 3f3d aa8b 923e
00000360: bfbb 70be 6277 8a3e f36b 27be c877 793d
00000370: 3b45 773e 0187 beba 6acb d53c 41a3 3dbe
00000380: 1fec 303e 82f2 36ba f3f0 b5bc 7267 7ebe
00000390: af70 94bd 3509 95bd 333d c9bd b25d e2bd
000003a0: 1a31 ecbe 1c99 043d a6ff 793d b527 4dbe
000003b0: 5db4 1d3d 06b1 a8be f3ea febd 6b9c be3e
000003c0: 4883 bf3d 6dba 44be 7c52 cabd 7280 96bd
000003d0: 446b 383b 3b7e 543e 017d debd 2481 453e
000003e0: e34d 32be cc13 2b3f 383e e3bd d241 2dbc
000003f0: a39d 333d 4a32 a1be 224e babc dad1 c8bd

rnn.bias_ih_l0 f4 [128]
-0.0120049855 0.012296702 0.11035523 0.13703914 -0.041805018 -0.03443214 -0.0523083 -0.08481421
-0.08320668 0.027177934 0.162916 -0.019993758 -0.12292185 -0.054260366 0.23991257 -0.061743226
-0.15341687 -0.18375279 0.18714584 -0.035948567 0.32303765 -0.055066675 -0.064733565 0.069998324
-0.01327571 -0.3054548 0.08961871 0.16564395 -0.06390111 -0.00033041372 -0.19921759 0.13687699
0.2374421 -0.0047668465 -0.10776114 -0.015857607 -0.040330883 0.047929518 -0.04147811 -0.18592948
0.1741915 -0.042760488 0.23048426 -0.04561135 0.056131188 -0.20316008 -0.04459978 0.0025072289
-0.06196821 -0.15248078 0.052225985 0.071462706 -0.26798934 -0.09552896 -0.2237423 -0.2448547
-0.030868122 -0.48624066 0.11062164 -0.15541646 -0.10448204 -0.047432426 -0.22123088 -0.18768968
-0.029498477 -0.071066745 -0.014165557 -0.09580833 0.09764258 0.3086966 -0.4031134 -0.2194191
0.06969289 0.28647974 0.10431591 -0.08312184 -0.009834326 -0.140383 -0.11065023 -0.12638615
0.0052578733 -0.127633 -0.10024851 0.21192357 -0.3585442 -0.11620452 0.092624895 -0.099203356
-0.18787031 -0.2070001 -0.07472364 -0.10196094 -0.24875279 -0.07182799 -0.08887153 -0.028858302
-0.00852906 0.247925 0.06041617 0.6320003 -0.012490976 -0.039318476 0.2615769 0.11544026
0.04531574 -0.091129646 0.092366055 0.107620046 0.44970828 -0.059884146 0.14146695 0.027060278
0.11353329 -0.10887819 0.09245052 0.019347617 0.056202512 0.2896273 0.09933565 0.08940993
-0.053075626 -0.0043317312 0.27967674 0.04462323 0.081119366 -0.13029109 -0.105309404 0.21891062
00000000: 8fb0 44bc 1b78 493c ec01 e23d fd53 0c3e
00000010: bd3b 2bbd b708 0dbd 3a41 56bd 13b3 adbd
00000020: 4468 aabd 42a4 de3c 74d3 263e f3c9 a3bc
00000030: 73be fbbd 1e40 5ebd a4ab 753e 77e6 7cbd
00000040: 5019 1dbe b129 3cbe 29a3 3f3e ce3e 13bd
00000050: 3165 a53e 988d 61bd 0893 84bd 485b 8f3d
00000060: 5d82 59bc 9264 9cbe 048a b73d 919e 293e
00000070: 96de 82bd 613b adb9 b2ff 4bbe 7b29 0c3e
00000080: 0624 733e 3533 9cbb dfb1 dcbd d0e7 81bc
00000090: ff31 25bd be51 443d f3e4 29bd 4c64 3ebe
000000a0: 425f 323e 9f25 2fbd 1104 6c3e f8d2 3abd
000000b0: d1e9 653d 3209 50be 42ae 36bd 5250 243b
000000c0: 61d2 7dbd ec23 1cbe eaea 553d 0a5b 923d
000000d0: e635 89be b0a4 c3bd b41c 65be 31bb 7abe
000000e0: 25df fcbc 89f4 f8be 998d e23d 7e25 1fbe
000000f0: aefa d5bd 8148 42bd 598a 62be b931 40be
00000100: caa6 f1bc 718b 91bd a716 68bc 2837 c4bd
00000110: d5f8 c73d 7b0d 9e3e e164 cebe 67af 60be
00000120: 25bb 8e3d 79ad 923e 94a3 d53d c93b aabd
00000130: 2720 21bc 90c0 0fbe 969c e2bd 5f6b 01be
00000140: 3d4a ac3b 3ab2 02be 174f cdbd 7e02 593e
00000150: 1b93 b7be a3fc edbd 1fb2 bd3d 212b cbbd
00000160: 1361 40be d6f7 53be b508 99bd e6d0 d0bd
00000170: 0db9 7ebe 8e1a 93bd 4702 b6bd 3f68 ecbc
00000180: 78bd 0bbc 0de0 7d3e f276 773d c6ca 213f
00000190: f3a6 4cbc 690c 21bd 68ed 853e f16b ec3d
000001a0: ff9c 393d 2ea2 babd 6a2a bd3d e667 dc3d
000001b0: 2a40 e63e 1449 75bd b6dc 103e 84ad dd3c
000001c0: 2484 e83d 87fb debd b356 bd3d e57e 9e3c
000001d0: 9b34 663d 084a 943e 7d70 cb3d 8e1c b73d
000001e0: d465 59bd 32f1 8dbb ca31 8f3e d9c6 363d
000001f0: e921 a63d 076b 05be 75ac d7bd 1b2a 603e

rnn.bias_hh_l0 f4 [128]
0.10723924 -0.011779467 0.11413719 0.0915937 -0.058565956 0.118026346 -0.080268905 -0.10237126
0.041572858 0.22327392 0.17894864 0.019495018 0.064374216 -0.071304955 0.14114559 -0.05233506
-0.1568467 -0.187237 0.043977097 0.0074869674 0.039206572 0.018565632 0.08325945 0.18069527
-0.12763721 -0.19651574 0.1855435 0.1579486 0.13872807 0.07542912 -0.020749908 0.038253482
-0.040833466 -0.10233987 -0.1975653 0.27108023 -0.0269692 -0.053993482 0.13667935 -0.05268658
-0.11124667 -0.061999973 0.026479224 -0.15002073 0.09431272 -0.037916146 -0.044882435 0.098892696
0.11527993 0.018650943 -0.12802531 -0.043900862 -0.12715288 0.14623544 -0.08257132 -0.3269365
-0.066095866 -0.3124339 -0.13531876 -0.23233958 0.058151267 0.10184081 -0.085704476 -0.013468418
-0.1991592 0.1932999 -0.20091434 0.0072998633 0.22701602 0.25551984 -0.42014727 -0.14663912
-0.18058378 0.22960256 -0.12338718 0.01096866 0.06979238 -0.16663101 -0.031242967 0.055671513
0.11667888 -0.0815675 -0.13296469 -0.05177674 -0.4320782 0.15343332 -0.06605474 0.14255707
-0.0888949 -0.05115956 -0.0029655888 -0.08455689 0.005699885 -0.032272875 -0.06384022 -0.1629683
-0.0022787096 0.19143915 -0.10307028 0.5905289 -0.064689785 -0.12102457 0.3554536 0.08400329
0.019414783 0.09917568 -0.13354893 0.117676474 0.3195448 0.060586005 -0.002441792 0.13558762
0.13098714 0.11061744 -0.062482145 0.001761149 0.122666 0.16191019 0.15720773 0.036913857
-0.03745351 -0.023266265 0.07234935 -0.0295414 0.07517177 0.1641495 -0.0041875364 0.18058454
00000000: 3fa0 db3d aafe 40bc c2c0 e93d 7a95 bb3d
00000010: dbe2 6fbd ccb7 f13d 0664 a4bd 06a8 d1bd
00000020: 4d48 2a3d eba1 643e 503e 373e 04b4 9f3c
00000030: a1d6 833d 5508 92bd 7888 103e 4a5d 56bd
00000040: 6c9c 20be 0ebb 3fbe 5421 343d 3c55 f53b
00000050: 1297 203d f416 983c ee83 aa3d 2e08 393e
00000060: 54b3 02be 6c3b 49be 1eff 3d3e 47bd 213e
00000070: bb0e 0e3e 957a 9a3d b6fb a9bc afaf 1c3d
00000080: fe40 27bd 9197 d1bd 8f4e 4abe 07cb 8a3e
00000090: 83ee dcbc 4528 5dbd acf5 0b3e e2cd 57bd
000000a0: 4bd5 e3bd aff3 7dbd f5ea d83c 099f 19be
000000b0: 0727 c13d f64d 1bbd a5d6 37bd 4188 ca3d
000000c0: e217 ec3d ddc9 983c 1119 03be 64d1 33bd
000000d0: 5d34 02be bebe 153e 271b a9bd 3964 a7be
000000e0: 455d 87bd 56f7 9fbe 0091 0abe 6dea 6dbe
000000f0: 0630 6e3d ea91 d03d d485 afbd a4aa 5cbc
00000100: 64f0 4bbe 69f0 453e 7dbc 4dbe b133 ef3b
00000110: e376 683e 7fd3 823e 8b1d d7be 9128 16be
00000120: f4ea 38be ef1c 6b3e 6bb2 fcbd e5b5 333c
00000130: 4fef 8e3d 52a1 2abe 40f1 ffbc d007 643d
00000140: 56f5 ee3d dd0c a7bd e527 08be d913 54bd
00000150: 5b39 ddbe a01d 1d3e b547 87bd 7bfa 113e
00000160: 880e b6bd b08c 51bd 535a 42bb 2a2c adbd
00000170: 1ac6 ba3b 9030 04bd a9be 82bd 29e1 26be
00000180: 6756 15bb a008 443e 8316 d3bd e72c 173f
00000190: 147c 84bd bbdb f7bd 04fe b53e eb09 ac3d
000001a0: c00b 9f3c 9e1c cb3d 0dc1 08be 5d00 f13d
000001b0: 609b a33e 0829 783d 7906 20bb 7bd7 0a3e
000001c0: 7e21 063e 658b e23d 47ed 7fbd 5bd6 e63a
000001d0: 5038 fb3d c9cb 253e 10fb 203e fc32 173d
000001e0: da68 19bd e598 bebc e52b 943d ce00 f2bc
000001f0: a8f3 993d ce16 283e 9a37 89bb 27eb 383e

rnn.weight_ih_l1 f4 [128, 32]
0.37655863 0.119807966 -0.29272673 -0.24235004 0.51117736 0.15263458 0.07222497 -0.104498394
-0.27032775 0.6785399 -0.109150715 -0.0013175645 -0.27757603 0.041197218 -0.14702879 0.36524138
0.32901067 -0.5618733 -0.49100497 0.40905124 0.24886465 0.21304028 0.15297712 0.1850964
-0.30234167 0.43360138 -0.39813617 -0.13338344 -0.26196286 0.045673538 0.019728146 -0.409647
0.10026354 -0.0027426952 -0.108665235 -0.2326251 -0.0318936 0.166497 -0.022466037 -0.08970788
-0.20603774 0.18064919 -0.047334444 0.18021473 0.039193965 -0.210472 -0.052166514 0.4449737
-0.1166367 -0.36994326 -0.072952755 0.11805665 -0.05281295 0.07737088 0.11152008 0.47388646
-0.15593652 0.24881452 -0.0012899466 0.22543585 -0.4056725 -0.19013661 0.040787574 0.026977178
0.07991392 0.06950164 -0.26112893 -0.14210807 -0.06758011 0.054319594 -0.04870035 0.09567139
-0.32155204 -0.27212697 0.002656147 -0.08562171 0.07628054 -0.091650404 0.034509517 0.46338132
-0.10268251 -0.48596263 -0.02460257 0.12533578 0.27302125 0.051210534 0.009239563 0.17067254
-0.371807 0.54017884 -0.19373186 -0.10484157 -0.11072647 0.05324135 -0.21264291 -0.00016633687
0.39642426 0.26054245 -0.09246004 0.18333124 0.44046724 -0.010498855 0.07571131 -0.24846153
-0.088624775 0.17676078 -0.025311755 0.07983484 0.1392443 -0.11304619 -0.30405217 0.30401644
-0.105698496 -0.17515843 -0.26187953 0.15653953 0.28417844 0.13019757 0.092625745 0.09940157
-0.19662398 0.28612182 -0.23836084 -0.23549908 0.10387957 -0.3192941 0.15014254 -0.25679022
0.46737677 0.2379018 -0.39851078 -0.31805605 0.15740661 0.009726677 -0.04170419 -0.2094309
-0.26570728 0.31330684 0.0988932 0.0011858705 0.124695584 -0.0030860961 -0.3655179 0.33890146
0.41607043 -0.2942344 -0.16328874 0.48239827 0.100147 0.30233845 0.017826531 0.2776477
-0.092235975 0.37095198 -0.31874382 -0.0756257 -0.035475306 -0.29920954 -0.20945472 -0.26226768
0.31658414 -0.013682846 -0.08087966 -0.030803164 0.064030975 -0.20355023 -0.052793976 0.08957741
-0.5677774 -0.1884799 -0.019692348 -0.14604528 -0.06702368 -0.15682897 0.0153854815 0.41584986
0.015698196 -0.43973494 -0.12865469 -0.13951452 0.012454959 0.018928373 0.11826721 0.22165288
-0.29011497 0.31152892 -0.13500029 -0.029033381 -0.23550583 0.02456045 -0.160452 -0.07121276
0.49826318 0.18747856 0.025908932 0.14150186 0.42486358 0.2687146 0.21406735 -0.25872603
0.07814071 0.29709557 -0.15980175 -0.11938202 0.23962191 -0.14164494 -0.0869248 0.15215407
0.10813882 0.059525155 -0.13383439 0.25901473 0.31694776 0.020964272 0.17022322 0.107763186
0.04637091 0.12752157 -0.17402771 -0.1488439 -0.11446968 -0.15166198 -0.26541844 -0.43292037
0.17780755 0.17178874 -0.113332935 0.16765687 -0.0627246 -0.13605084 -0.0632262 0.0523288
-0.32745856 0.09146427 0.08829642 0.06476149 -0.23053977 0.0066013564 0.03623801 0.21943694
0.16238761 -0.6661654 -0.040260248 0.15190761 0.15581416 -0.06905083 0.31065983 0.26097676
-0.27557117 0.29263923 -0.010942262 0.14425066 0.12685032 -0.22059338 -0.07170051 0.20031402
00000000: 4bcc c03e e15d f53d 47e0 95be 9c2a 78be
00000010: 85dc 023f 3d4c 1c3e afea 933d 4103 d6bd
00000020: 6668 8abe cab4 2d3f 698a dfbd 21b2 acba
00000030: 721e 8ebe 6abe 283d b78e 16be eb00 bb3e
00000040: 1674 a83e eed6 0fbf 0165 fbbe 2a6f d13e
00000050: 60d6 7e3e 3b27 5a3e 09a6 1c3e e989 3d3e
00000060: 87cc 9abe 0001 de3e 81d8 cbbe ab95 08be
00000070: ff1f 86be 2d14 3b3d ec9c a13c 40bd d1be
00000080: f956 cd3d cabe 33bb e18b debd 4635 6ebe
00000090: dda2 02bd 317e 2a3e b20a b8bc c4b8 b7bd
000000a0: 8ffb 52be 1afc 383e c3e1 41bd 368a 383e
000000b0: da89 203d f985 57be 8eac 55bd 98d3 e33e
000000c0: 39df eebd 3469 bdbe 4168 95bd afc7 f13d
000000d0: 6452 58bd a074 9e3d a464 e43d 3fa1 f23e
000000e0: d3ad 1fbe 3cc9 7e3e 6d13 a9ba a8d8 663e
000000f0: 4eb4 cfbe 2cb3 42be df10 273d 3eff dc3c
00000100: e9a9 a33d e056 8e3d b1b2 85be c784 11be
00000110: 7167 8abd 397e 5e3d 057a 47bd 5def c33d
00000120: 78a2 a4be 3a54 8bbe c012 2e3b 6f5a afbd
00000130: f938 9c3d 35b3 bbbd da59 0d3d 5140 ed3e
00000140: 354b d2bd 18d0 f8be 548b c9bc 0658 003e
00000150: 71c9 8b3e 23c2 513d 8961 173c c8c4 2e3e
00000160: 7d5d bebe 2949 0a3f a561 46be 2db7 d6bd
00000170: 8fc4 e2bd 9a13 5a3d 10bf 59be b76a 2eb9
00000180: 1ff8 ca3e d265 853e b05b bdbd 2fbb 3b3e
00000190: ec84 e13e 6403 2cbc 880e 9b3d b36c 7ebe
000001a0: e880 b5bd c700 353e 995a cfbc 7380 a33d
000001b0: 0f96 0e3e c384 e7bd baac 9bbe 0ba8 9b3e
000001c0: 7478 d8bd bb5c 33be 1315 86be e64b 203e
000001d0: d67f 913e 8352 053e 91b2 bd3d 0d93 cb3d
000001e0: cc57 49be 8f7e 923e dd14 74be ac26 71be
000001f0: d0be d43d 847a a3be f7be 193e 027a 83be
00000200: 024c ef3e 889c 733e 9b09 ccbe 3ed8 a2be
00000210: 332f 213e a45c 1f3c 03d2 2abd 0e75 56be
00000220: c90a 88be c169 a03e 8588 ca3d 366f 9b3a
00000230: 6660 ff3d 1a40 4abb 2a25 bbbe 7e84 ad3e
00000240: 2f07 d53e e4a5 96be 2a35 27be e8fc f63e
00000250: df19 cd3d 1bcc 9a3e f208 923c d727 8e3e
00000260: 37e6 bcbd 6bed bd3e 6432 a3be a6e1 9abd
00000270: 8e4e 11bd fe31 99be 4c7b 56be f347 86be
00000280: 5117 a23e 042e 60bc 3ca4 a5bd eb56 fcbc
00000290: ac22 833d 796f 50be 7f3e 58bd 5c74 b73d
000002a0: dc59 11bf e000 41be d951 a1bc e58c 15be
000002b0: b643 89bd c697 20be 6313 7c3c 46ea d43e
000002c0: 8199 803c f024 e1be 0ebe 03be e5dc 0ebe
000002d0: e20f 4c3c ad0f 9b3c 1436 f23d f9f8 623e
000002e0: f389 94be b880 9f3e 843d 0abe 6ad7 edbc
000002f0: 7128 71be ff32 c93c 874d 24be ffd7 91bd
00000300: 5a1c ff3e 61fa 3f3e f83e d43c dde5 103e
00000310: b887 d93e f694 893e 7934 5b3e bd77 84be
00000320: 3d08 a03d e91c 983e 12a3 23be 8f7e f4bd
00000330: 725f 753e 5f0b 11be a105 b2bd 47ce 1b3e
00000340: e377 dd3d a6d0 733d e20b 09be 949d 843e
00000350: fa46 a23e 44bd ab3c ff4e 2e3e f2b2 dc3d
00000360: 6cef 3d3d 0495 023e 5234 32be 896a 18be
00000370: 146f eabd 474d 1bbe ede4 87be bda7 ddbe
00000380: 2f13 363e 63e9 2f3e 191b e8bd 3eae 2b3e
00000390: c175 80bd e950 0bbe bd7c 81bd b956 563d
000003a0: a6a8 a7be 9f51 bb3d c1d4 b43d aca1 843d
000003b0: 9e12 6cbe 3150 d83b 4f6e 143d 14b4 603e
000003c0: f048 263e d189 2abf eee7 24bd ab8d 1b3e
000003d0: bf8d 1f3e 866a 8dbd ce0e 9f3e bf9e 853e
000003e0: aa17 8dbe cfd4 953e 2c47 33bc 72b6 133e
000003f0: 0de5 013e 3be3 61be b8d7 92bd 1e1f 4d3e

rnn.weight_hh_l1 f4 [128, 32]
0.22161213 0.0013903717 0.09581529 0.048698474 -0.10775576 -0.14678586 0.31413904 0.30473924
0.13517255 -0.33033624 0.11546803 0.06016822 -0.097702146 -0.08407687 0.1073361 -0.30011356
-0.02415795 0.097009696 -0.20771569 0.1426209 -0.048313342 -0.15694971 0.013795551 0.07961693
-0.31795913 0.062931724 -0.04025227 -0.17586513 -0.16317764 -0.045709502 -0.15876156 0.0021389478
0.10279122 -0.27283433 0.04545107 -0.12173155 -0.015746212 -0.22040485 0.2990984 0.1184059
0.24375314 0.07655736 0.023574336 0.08475618 -0.25535098 0.24139254 0.020445153 -0.16124082
-0.28804302 0.18101157 -0.0758041 0.21308753 -0.16609496 -0.28222564 0.05193038 0.08545381
-0.16229685 -0.052813444 -0.057584923 0.035844896 -0.14349435 -0.14904179 0.07716007 -0.06993962
0.36575884 -0.14588925 -0.16163562 -0.38236788 0.2672289 -0.37571314 0.38019627 0.19993383
0.2421574 -0.19210987 -0.3002279 0.16594987 -0.2045056 -0.029144142 -0.13537845 -0.36279315
-0.33577713 0.22088188 0.11619731 0.12165907 -0.13586332 -0.29476264 -0.33468595 0.12090676
-0.29006398 0.21991487 -0.04885085 -0.4146532 -0.31740823 -0.1981166 -0.0023682527 -0.13118741
0.2599923 -0.030977305 0.06933629 -0.1434413 0.01695198 -0.13493527 0.19126119 0.11267818
0.14703725 0.05851975 -0.019303853 0.24831834 0.0124955755 0.2049766 0.12222046 -0.22302113
0.016928455 0.18751949 -0.19345984 0.076342635 -0.23704425 -0.31381553 0.1281533 -0.11750244
-0.3432882 0.09347301 0.016849034 -0.20905486 -0.14038473 -0.0012056264 0.028739443 -0.068575814
0.25267497 -0.28849065 -0.21776243 0.0319155 -0.0046802294 0.074775614 0.07474433 0.022445584
0.3908566 -0.26812714 -0.12579039 0.075849146 -0.23966411 0.12656324 -0.13267486 -0.18208832
-0.015394204 0.21864201 -0.13703294 0.15037668 0.017959885 -0.25738856 -0.19186662 0.1544627
0.010565946 0.10809762 -0.33850354 -0.0314691 -0.11305736 -0.107467994 -0.12400213 -0.00087284215
0.37925702 -0.39417285 -0.08867162 -0.2007736 0.026696643 -0.20451592 0.3747151 0.3130741
0.19111793 -0.30929458 -0.076659694 0.067653865 -0.05917141 -0.049157545 -0.21839844 -0.08281626
-0.36185396 -0.0075019877 0.07540381 0.09836505 -0.20791876 -0.38258445 -0.27191365 0.24692608
-0.32223776 0.019634398 -0.054840136 -0.026737077 -0.19813594 0.020046066 0.08452944 -0.28836042
-0.07768037 -0.16888626 0.11214757 0.07902396 0.36146995 -0.12845455 -0.04298676 0.015392332
0.20890991 0.0026880426 -0.122189246 0.02383404 0.1082763 0.046977982 0.15708329 -0.000333666
0.061800964 0.15992019 -0.26727968 -0.06690544 -0.028253026 -0.27846888 -0.006561906 0.16626514
-0.28368637 0.15154688 -0.04062716 0.10784181 0.007880443 0.03741059 -0.08460693 0.03916566
-0.024990916 -0.002610659 -0.11547799 -0.2044335 -0.1432466 -0.008793225 0.1383261 0.11997356
-0.09933112 0.060213152 -0.15146221 0.1166411 0.012626765 0.07635993 -0.025710594 -0.06019463
0.10486497 0.0174554 0.22787465 -0.01225271 -0.15660638 -0.1111025 -0.217026 0.09405049
-0.065736994 0.14355363 0.06592055 -0.20107624 -0.23186657 -0.13521133 0.09276074 -0.24628903
00000000: 4aee 623e 223d b63a cf3a c43d 0d78 473d
00000010: 0daf dcbd 084f 16be d5d6 a03e c806 9c3e
00000020: ac6a 0a3e d521 a9be 817a ec3d f472 763d
00000030: 1018 c8bd 7e30 acbd 07d3 db3d 7ca8 99be
00000040: e5e6 c5bc 05ad c63d 6cb3 54be 370b 123e
00000050: 36e4 45bd 6db7 20be bc06 623c 330e a33d
00000060: 8acb a2be 59e2 803d 90df 24bd fd15 34be
00000070: 0a18 27be e339 3bbd 6492 22be 972d 0c3b
00000080: 3484 d23d f1b0 8bbe e72a 3a3d 644e f9bd
00000090: 33fe 80bc cfb1 61be 6d23 993e cb7e f23d
000000a0: 6c9a 793e 1bca 9c3d f71e c13c a694 ad3d
000000b0: 5dbd 82be 9b2f 773e 987c a73c 501c 25be
000000c0: 607a 93be 195b 393e 2e3f 9bbd 9e33 5a3e
000000d0: cc14 2abe e17f 90be f3b4 543d 6802 af3d
000000e0: 2531 26be e952 58bd 2bde 6bbd 19d2 123d
000000f0: 2ff0 12be 699e 18be 1906 9e3d 813c 8fbd
00000100: be44 bb3e fe63 15be cf83 25be b9c5 c3be
00000110: 3ad2 883e 795d c0be 16a9 c23e 74bb 4c3e
00000120: 1cf8 773e 73b8 44be 79b7 99be c3ee 293e
00000130: ea69 51be b2bf eebc a6a0 0abe 06c0 b9be
00000140: fbea abbe dc2e 623e dbf8 ed3d 6428 f93d
00000150: c11f 0bbe 21eb 96be f55b abbe f79d f73d
00000160: 4483 94be 5d31 613e d417 48bd 6d4d d4be
00000170: 5583 a2be 14df 4abe b034 1bbb fe55 06be
00000180: b61d 853e 1ec4 fdbc 2f00 8e3d 47e2 12be
00000190: e1de 8a3c 792c 0abe f9d9 433e d1c3 e63d
000001a0: ef90 163e 68b2 6f3d 1d23 9ebc 2a47 7e3e
000001b0: 3eba 4c3c 63e5 513e b84e fa3d a75f 64be
000001c0: 8bad 8a3c 1c05 403e 561a 46be 8759 9c3d
000001d0: babb 72be 6eac a0be 9e3a 033e 1fa5 f0bd
000001e0: 79c3 afbe c76e bf3d fc06 8a3c 7a12 56be
000001f0: 04c1 0fbe 1c06 9eba fb6e eb3c 7a71 8cbd
00000200: 9d5e 813e 0cb5 93be 1dfd 5ebe d4b9 023d
00000210: 9c5c 99bb f523 993d 8e13 993d cddf b73c
00000220: 5b1e c83e f647 89be 32cf 00be cc56 9b3d
00000230: 826a 75be cb99 013e ebdb 07be 5c75 3abe
00000240: f937 7cbc b1e3 5f3e 5d52 0cbe 58fc 193e
00000250: 9c20 933c 6fc8 83be af78 44be 782b 1e3e
00000260: ca1c 2d3c 4962 dd3d 5650 adbe bee5 00bd
00000270: 9e8a e7bd 2e18 dcbd d4f4 fdbd 72cf 64ba
00000280: fa2d c23e 06d1 c9be 7799 b5bd 9897 4dbe
00000290: ebb2 da3c 9f6c 51be a8da bf3e 404b a03e
000002a0: 6bb4 433e dc5b 9ebe c2ff 9cbd 1c8e 8a3d
000002b0: b85d 72bd 6c59 49bd d7a3 5fbe 929b a9bd
000002c0: ec44 b9be 3cd3 f5bb 506d 9a3d 9e73 c93d
000002d0: a8e8 54be 1ce2 c3be 4438 8bbe 31da 7c3e
000002e0: 59fc a4be 51d8 a03c 0da0 60bd b707 dbbc
000002f0: 26e4 4abe a637 a43c c51d ad3d faa3 93be
00000300: e316 9fbd 85f0 2cbe a0ad e53d 50d7 a13d
00000310: 9712 b93e 9789 03be e312 30bd 1f30 7c3c
00000320: 7bec 553e df29 303b 5b3e fabd 9b3f c33c
00000330: f7bf dd3d fc6b 403d 71da 203e e4ef aeb9
00000340: 0223 7d3d 1ec2 233e e2d8 88be b805 89bd
00000350: e472 e7bc 7993 8ebe 4205 d7bb 6941 2a3e
00000360: 573f 91be 1b2f 1b3e aa68 26bd 2bdc dc3d
00000370: f91c 013c d93b 193d 6646 adbd 2c6c 203d
00000380: c0b9 ccbc 9717 2bbb b97f ecbd 0457 51be
00000390: 3daf 12be 7511 10bc 5ba5 0d3e b3b4 f53d
000003a0: 1d6e cbbd 11a2 763d e918 1bbe 87e1 ee3d
000003b0: 7ee0 4e3c 9862 9c3d 069f d2bc a58e 76bd
000003c0: 72c3 d63d a1fe 8e3c f957 693e 97bf 48bc
000003d0: 6c5d 20be b589 e3bd 103c 5ebe 8b9d c03d
000003e0: 1ea1 86bd b9ff 123e 5a01 873d eee6 4dbe
000003f0: 6e6e 6dbe d774 0abe 58f9 bd3d 3133 7cbe

rnn.bias_ih_l1 f4 [128]
0.15497787 0.20334212 0.080102965 0.0605506 -0.06914879 0.17186698 0.18574123 0.06055599
-0.0017271977 0.094745874 0.1085166 -0.047998384 -0.1691229 -0.10433357 0.12167341 0.17141126
-0.030022794 -0.07013447 0.1641797 -0.043026507 0.1591174 -0.025377762 0.33733347 0.24994224
-0.06804685 0.15483055 0.28095728 0.1453886 0.12556869 0.12434799 -0.04748743 -0.13091652
0.11041895 0.0708843 -0.08580365 -0.0101608485 -0.13767798 -0.013626024 0.068209186 -0.076546736
0.07607151 0.04324109 0.09149648 0.12942554 0.07892551 -0.10320042 -0.13700174 -0.13972484
-0.10882485 -0.081314735 0.1193417 0.09250867 0.028214915 -0.04510073 -0.039911598 0.025628531
-0.029429214 -0.103364795 0.06715023 0.010633662 0.0067121773 -0.04567161 -0.009246229 0.051269338
0.074696586 -0.07084854 0.15981442 -0.10387248 0.023670219 -0.06089278 -0.0049540973 0.12542626
-0.16366859 0.08402518 0.02751856 -0.04172558 0.051011126 -0.11651006 -0.058081843 -0.053174287
0.022416458 0.028946659 -0.06782015 0.20945123 0.08047871 -0.035641406 -0.01846769 -0.14819889
0.0019678876 0.006302863 0.042972125 -0.054757778 -0.066906095 0.01005043 0.07524991 0.15818696
0.28104994 0.16872089 0.091138855 0.039833765 0.2704828 0.34973368 0.09627354 0.036383383
0.0988637 0.20506516 0.032629453 0.15282972 0.025348615 -0.06576511 -0.009405411 0.11565582
-0.015108892 -0.021174477 0.38969827 0.023433795 0.25173178 -0.06573608 0.29218337 -0.08287734
-0.01925267 -0.07212178 0.02391926 0.15760402 0.15177707 0.04171934 -0.0018107465 0.20156881
00000000: 85b2 1e3e eb38 503e 060d a43d e803 783d
00000010: e19d 8dbd e6fd 2f3e f332 3e3e 8f09 783d
00000020: 2363 e2ba 200a c23d f43d de3d f499 44bd
00000030: 8e2e 2dbe d7ac d5bd e92f f93d 6f86 2f3e
00000040: 5df2 f5bc a9a2 8fbd b91e 283e 903c 30bd
00000050: acef 223e 06e5 cfbc f9b6 ac3e dcf0 7f3e
00000060: 265c 8bbd e68b 1e3e a2d9 8f3e c0e0 143e
00000070: 1495 003e 29aa fe3d 2e82 42bd fb0e 06be
00000080: 5523 e23d ca2b 913d d3b9 afbd b079 26bc
00000090: 75fb 0cbe b03f 5fbc 42b1 8b3d 89c4 9cbd
000000a0: 61cb 9b3d 921d 313d 8262 bb3d 2188 043e
000000b0: b3a3 a13d be5a d3bd 2f4a 0cbe 0714 0fbe
000000c0: 90df debd 5788 a6bd 6c69 f43d 3075 bd3d
000000d0: f722 e73c 8bbb 38bd 587a 23bd edf2 d13c
000000e0: 8915 f1bc ecb0 d3bd 0f86 893d d038 2e3c
000000f0: d3f1 db3b 2712 3bbd 7f7d 17bc ccff 513d
00000100: 86fa 983d 0a19 91bd 64a6 233e 18bb d4bd
00000110: 0ce8 c13c b56a 79bd fb55 a2bb be6f 003e
00000120: bd98 27be 6515 ac3d 9a6e e13c 71e8 2abd
00000130: 0bf1 503d d49c eebd 3ae7 6dbd 48cd 59bd
00000140: b8a2 b73c 8b21 ed3c 4ae5 8abd 627a 563e
00000150: 06d2 a43d b9fc 11bd 8e49 97bc 73c1 17be
00000160: adf7 003b 3f88 ce3b 8a03 303d b149 60bd
00000170: 1006 89bd 8faa 243c a01c 9a3d c3fb 213e
00000180: c7e5 8f3e 2bc5 2c3e 02a7 ba3d bb28 233d
00000190: b97c 8a3e 4b10 b33e 102b c53d be06 153d
000001a0: 0d79 ca3d 9afc 513e 76a6 053d 657f 1c3e
000001b0: e6a7 cf3c dcaf 86bd 2719 1abc f5dc ec3d
000001c0: 498b 77bc 1976 adbc 8886 c73e 3bf8 bf3c
000001d0: fde2 803e a3a0 86bd 0f99 953e 98bb a9bd
000001e0: c7b7 9dbc 95b4 93bd 53f2 c33c f362 213e
000001f0: 736b 1b3e e6e1 2a3d 9256 edba 0e68 4e3e

rnn.bias_hh_l1 f4 [128]
0.20612182 0.23734766 -0.082169674 0.06635105 0.15729213 0.13278823 0.02275243 0.10619563
-0.009331339 0.26450118 0.024120552 0.037041027 0.110272914 -0.09109761 0.13593039 -0.00816496
0.08680096 0.1474199 0.33328485 0.10176409 0.071485795 -0.17667225 0.26296213 0.19855076
0.085838355 -0.09140336 0.13302709 0.17074135 0.11672546 0.35690212 -0.24570799 0.08937524
-0.070849076 -0.058303203 0.1690221 0.14376388 0.1372505 0.06265495 -0.03154151 -0.06494763
0.01969603 -0.09432684 0.07660565 -0.052969795 -0.11738091 -0.048223894 -0.12834394 -0.0889544
0.057754207 0.11587332 0.19348983 -0.114925824 0.12835516 -0.051535856 0.20823921 -0.116842955
-0.13733564 -0.20236753 0.032538526 -0.15209302 -0.18769658 0.08053457 0.014749698 0.10196089
-0.007109195 -0.051501773 -0.061724775 0.19104345 -0.20131843 0.11515418 -0.14306873 0.050391585
0.0359151 -4.6994155e-05 0.07016081 -0.000333203 -0.09807774 -0.0062135444 0.044722952 -0.044429496
0.09773951 -0.007542116 -0.03703352 -0.03653656 0.051892348 -0.037501786 0.13683021 -0.10414175
0.033995904 -0.03225008 -0.10084863 0.11048822 0.012482369 0.11088922 -0.03812888 -0.00036636918
0.1636498 0.15102652 0.19173037 -0.01488081 0.13760875 0.30882722 -0.059317794 -0.056356136
-0.06276718 0.17212228 0.121227674 0.3097271 0.11039807 0.14389949 0.0009688902 0.18755777
0.09893724 0.024490526 0.11587527 0.07896803 0.10693092 -0.03549341 0.003818703 0.22917224
0.138796 0.1471583 0.19354206 -0.08051377 0.10805828 0.37888807 0.1292074 0.11808526
00000000: 9911 533e 440b 733e 9348 a8bd 0fe3 873d
00000010: 3011 213e a3f9 073e 4e63 ba3c 187d d93d
00000020: 79e2 18bc b36c 873e 7798 c53c 55b8 173d
00000030: c4d6 e13d 6291 babd 5631 0b3e 53c6 05bc
00000040: b4c4 b13d 3ef5 163e 50a4 aa3e b169 d03d
00000050: 2567 923d 92e9 34be f9a2 863e e450 4b3e
00000060: 05cc af3d af31 bbbd 4138 083e d2d6 2e3e
00000070: c20d ef3d e0bb b63e e09a 7bbe 5e0a b73d
00000080: 5219 91bd 57cf 6ebd 2114 2d3e d736 133e
00000090: 658b 0c3e 3d51 803d ac31 01bd 4303 85bd
000000a0: 9259 a13c 6e2e c1bd 6ce3 9c3d dbf6 58bd
000000b0: 6765 f0bd 6b86 45bd 986c 03be b92d b6bd
000000c0: ad8f 6c3d fe4e ed3d 3322 463e 3b5e ebbd
000000d0: 896f 033e 4317 53bd a93c 553e 5c4b efbd
000000e0: b7a1 0cbe 6f39 4fbe 1e47 053d 46be 1bbe
000000f0: 8833 40be 4fef a43d b8a8 713c dfd0 d03d
00000100: 40f4 e8bb 86f3 52bd 1ed3 7cbd e5a0 433e
00000110: 6b26 4ebe f4d5 eb3d 9c80 12be 6867 4e3d
00000120: b61b 133d 971b 45b8 79b0 8f3d c0b1 aeb9
00000130: fbdc c8bd fd9a cbbb 6a2f 373d b4fb 35bd
00000140: a72b c83d db23 f7bb 76b0 17bd 5ca7 15bd
00000150: 128d 543d 799b 19bd 381d 0c3e 4548 d5bd
00000160: 4a3f 0b3d a918 04bd ba89 cebd a647 e23d
00000170: da82 4c3c e319 e33d 072d 1cbd 3d15 c0b9
00000180: d093 273e b2a6 1a3e f754 443e a4ce 73bc
00000190: 4fe9 0c3e 9a1e 9e3e 37f7 72bd b1d5 66bd
000001a0: 148c 80bd d340 303e 3746 f83d 8d94 9e3e
000001b0: 6218 e23d 635a 133e 1ffd 7d3a 250f 403e
000001c0: 9c9f ca3d 5ba0 c83c 0350 ed3d feb9 a13d
000001d0: 99fe da3d 8a61 11bd 3443 7a3b 21ac 6a3e
000001e0: 8a20 0e3e aab0 163e e42f 463e 67e4 a4bd
000001f0: a94d dd3d 9efd c13e f24e 043e afd6 f13d

rnn.weight_ih_l2 f4 [128, 32]
0.2809223 -0.3834313 -0.2081051 -0.36118895 0.24298057 -0.32694343 0.2691172 0.07305766
0.3175008 -0.11744735 -0.22806212 0.34929207 -0.2824979 0.33997557 -0.24541116 -0.52056235
-0.31658548 0.098053075 0.17652178 0.15938136 -0.38621008 -0.33006126 -0.3619147 0.36563742
-0.28475654 0.21659854 -0.16759975 -0.34179834 -0.14292388 -0.1047162 -0.2624516 -0.22303262
0.07668591 -0.12743741 -0.063137926 -0.22862475 0.18136379 -0.41947514 0.32711276 0.21554798
0.20209548 -0.089974046 -0.13432777 0.28505522 -0.045757774 0.21640106 -0.30201194 -0.42914698
-0.22327016 0.14118993 0.062022123 0.15840131 -0.24372742 -0.23809436 -0.32968166 0.24247725
-0.27336568 0.19507521 -0.29623157 -0.38084486 -0.07038585 -0.24192445 -0.34806442 -0.40230584
0.11141449 -0.097567536 -0.15789603 0.031137874 0.24375334 -0.3313576 0.06374739 0.11949925
0.21351208 -0.310757 -0.300592 0.08368899 -0.2862709 0.2996982 -0.10779392 -0.28596818
-0.23517819 0.35154706 0.36292404 0.18832567 -0.28597468 -0.3621718 -0.09652664 0.10496205
-0.24683373 0.5416859 -0.33035186 -0.27774358 -0.18938823 -0.17688085 -0.44838822 -0.18880759
0.12928605 -0.00015762771 -0.16955301 -0.019844951 0.13574864 -0.10033748 0.035498366 -0.1151362
-0.05106262 0.14207192 -0.38671663 0.16753897 -0.20427674 0.27607414 0.09334379 -0.21551071
-0.13566321 0.22715794 0.14492714 0.35238403 -0.105815254 -0.19930656 0.15269111 -0.15787183
0.061311644 0.1524115 -0.016971558 -0.4870137 -0.21536395 0.13878083 -0.09860219 -0.115544915
-0.06579528 0.011235849 0.10724737 0.036121428 -0.050284702 -0.15177456 -0.044455763 0.26873326
-0.03083699 0.05957832 -0.14098208 0.042338442 -0.2479125 -0.0065095113 0.022436919 -0.16396305
-0.006210966 0.05425833 0.036920767 0.12756795 -0.08328792 0.013342872 -0.22959383 -0.023510735
-0.17075205 0.17877239 -0.043957323 -0.14269288 -0.088516906 -0.17813514 -0.113730624 -0.008889062
0.3180945 -0.31277737 -0.14637692 -0.3105356 0.409815 -0.036714144 0.27742413 0.04993207
0.18330617 -0.13708864 -0.20265374 0.24204807 -0.3372063 0.07893495 -0.25762492 -0.29103988
-0.17698997 0.22658993 0.31341842 0.35855174 -0.1572611 -0.20065717 -0.23085997 0.22842753
-0.057224624 0.24925932 -0.079823166 -0.33447424 -0.3890982 -0.31917453 -0.1711467 -0.3327684
0.17116544 -0.008367217 -0.24943556 -0.22183132 0.08818056 -0.31425658 0.19439213 0.18382984
0.055776652 -0.35828298 -0.32709256 0.069001906 -0.3603514 0.24274653 -0.19050632 -0.4236518
-0.22457689 0.16233662 0.29531112 0.5067559 -0.30889508 -0.25788075 -0.12697017 0.052633557
-0.42384607 0.508024 -0.121181354 -0.51726663 -0.18300508 -0.3546234 -0.45563048 -0.26017618
0.1849373 -0.033981923 -0.24003758 -0.2519181 0.090023115 -0.27043554 0.21170151 0.14002787
0.1750398 -0.13295847 -0.3308967 0.25805575 -0.34269688 0.30920848 -0.15329146 -0.36113364
-0.28016534 0.3466824 0.30201674 0.31166285 -0.3770364 -0.29639214 -0.21472985 0.21969573
-0.08468552 0.33293098 -0.20126839 -0.421788 -0.29151365 -0.24452868 -0.18585952 -0.39111707
00000000: 0cd5 8f3e 1b51 c4be 8119 55be c2ed b8be
00000010: e6cf 783e 2165 a7be bbc9 893e 419f 953d
00000020: 778f a23e 3c88 f0bd 1e89 69be 69d6 b23e
00000030: 91a3 90be 4711 ae3e 104d 7bbe 9343 05bf
00000040: 7e17 a2be 0dd0 c83d 20c2 343e de34 233e
00000050: 54bd c5be cafd a8be e24c b9be d434 bb3e
00000060: 9ccb 91be 02cc 5d3e 459f 2bbe 3100 afbe
00000070: a35a 12be 7275 d6bd 0e60 86be aa62 64be
00000080: 810d 9d3d f47e 02be 754e 81bd 9b1c 6abe
00000090: 6eb7 393e 72c5 d6be 537b a73e 9cb8 5c3e
000000a0: 1ef2 4e3e 5044 b8bd 388d 09be c2f2 913e
000000b0: 816c 3bbd 3d98 5d3e 4fa1 9abe 27b9 dbbe
000000c0: efa0 64be 1894 103e e90a 7e3d f433 223e
000000d0: ae93 79be 02cf 73be 09cc a8be f54b 783e
000000e0: 96f6 8bbe ccc1 473e aaab 97be 19fe c2be
000000f0: 7526 90bd 0bbb 77be 8035 b2be 08fb cdbe
00000100: 482d e43d 7dd1 c7bd 7faf 21be db14 ff3c
00000110: 7a9a 793e b4a7 a9be fe8d 823d 06bc f43d
00000120: e9a2 5a3e 8b1b 9fbe 32e7 99be 2265 ab3d
00000130: 1992 92be 0b72 993e 0fc3 dcbd 6c6a 92be
00000140: 8dd2 70be fafd b33e 2ed1 b93e 72d8 403e
00000150: 466b 92be 956e b9be c2af c5bd 58f6 d63d
00000160: fbc1 7cbe edab 0a3f e123 a9be 6834 8ebe
00000170: fdee 41be 4120 35be 2493 e5be c756 41be
00000180: 9063 043e de48 25b9 4e9f 2dbe e191 a2bc
00000190: b101 0b3e bd7d cdbd bc66 113d 87cc ebbd
000001a0: 0a27 51bd 4d7b 113e b9ff c5be 568f 2b3e
000001b0: ec2d 51be 9759 8d3e 072b bf3d d7ae 5cbe
000001c0: 4ceb 0abe 179c 683e c867 143e ae6b b43e
000001d0: abb5 d8bd 0517 4cbe 0f5b 1c3e 27a9 21be
000001e0: eb21 7b3d c311 1c3e f007 8bbc dc59 f9be
000001f0: 5e88 5cbe 901c 0e3e f2ef c9bd d0a2 ecbd
00000200: adbf 86bd 9116 383c 82a4 db3d 10f4 133d
00000210: 55f7 4dbd ca6a 1bbe 3f17 36bd 6897 893e
00000220: db9d fcbc 6508 743d 9b5d 10be 136b 2d3d
00000230: c6dc 7dbe bd4d d5bb a1cd b73c eee5 27be
00000240: 5c85 cbbb fc3d 5e3d 3b3a 173d 2ca1 023e
00000250: db92 aabd 109c 5a3c a51a 6bbe 9699 c0bc
00000260: a0d9 2ebe 1c10 373e 980c 34bd 151e 12be
00000270: 5a48 b5bd 0f69 36be 9aeb e8bd 6ea3 11bc
00000280: 48dd a23e 5b24 a0be d5e3 15be 86fe 9ebe
00000290: 46d3 d13e 9261 16bd 890a 8e3e 9285 4c3d
000002a0: 9db4 3b3e f760 0cbe 7684 4fbe 73db 773e
000002b0: 4ea6 acbe a6a8 a13d 6ae7 83be 2e03 95be
000002c0: dc3c 35be 3107 683e 6178 a03e 1894 b73e
000002d0: 0e09 21be 1379 4dbe 8e66 6cbe e8e8 693e
000002e0: 5e64 6abd d63d 7f3e 547a a3bd 3540 abbe
000002f0: e137 c7be d86a a3be 1541 2fbe 9f60 aabe
00000300: fe45 2f3e a716 09bc 096c 7fbe c027 63be
00000310: 0298 b43d 3de6 a0be bb0e 473e e43d 3c3e
00000320: 0f76 643d de70 b7be ad78 a7be df50 8d3d
00000330: fb7f b8be 8c92 783e 1714 43be e4e8 d8be
00000340: 7cf7 65be 923b 263e 0533 973e c1ba 013f
00000350: 7f27 9ebe f208 84be 7804 02be 4996 573d
00000360: 5a02 d9be dc0d 023f ee2d f8bd 966b 04bf
00000370: af65 3bbe 3391 b5be 6648 e9be d035 85be
00000380: 3460 3d3e a130 0bbd 69cc 75be 69fb 80be
00000390: 0a5e b83d 8776 8abe 48c8 583e 7763 0f3e
000003a0: a23d 333e 4426 08be 4b6b a9be e21f 843e
000003b0: f775 afbe 9350 9e3e 70f8 1cbe 82e6 b8be
000003c0: d571 8fbe 5b80 b13e f0a1 9a3e 4692 9f3e
000003d0: ea0a c1be b6c0 97be 24e2 5bbe ebf7 603e
000003e0: 9a6f adbd ee75 aa3e 4d19 4ebe 99f4 d7be
000003f0: 4741 95be ba65 7abe f551 3ebe 7f40 c8be

rnn.weight_hh_l2 f4 [128, 32]
0.013091435 0.21271984 0.17218195 -0.22413701 0.0073891217 -0.221529 -0.0020518275 0.09843191
0.11997514 -0.24982275 0.13841328 -0.18230699 -0.062071696 0.08887658 -0.18589546 0.28597152
0.10107047 0.26912636 0.0030186826 0.028452286 0.24534553 0.22348419 0.019657683 0.34805295
0.031045645 0.07325432 -0.15053266 -0.0014862389 -0.28704152 -0.30333185 -0.11078581 -0.11697677
0.0044903243 0.1641925 0.03638711 -0.14581117 0.07743801 -0.019320982 -0.21357377 0.04696471
-0.10832868 -0.1358117 0.10155531 -0.097937815 -0.15694799 0.2602724 -0.1604936 0.06344407
-0.048283827 0.1358423 0.07349703 0.032407388 0.03196199 0.064105295 0.20351559 0.15848804
-0.018624853 0.03636432 -0.17072628 0.057323355 -0.08638965 -0.256474 -0.101629324 -0.3273389
0.32761595 0.3537425 0.12067959 -0.20922159 -0.13264766 -0.13763064 -0.1491138 0.15412664
0.04279009 -0.022667423 0.12332851 -0.2782003 -0.067451425 0.1944353 -0.31055948 0.31268576
0.28491548 -0.008511448 0.15074316 0.06088251 0.09724826 0.32345742 -0.04639819 0.31397176
-0.062025983 0.22919591 -0.100649424 0.12190314 -0.4141388 -0.17343438 -0.10048902 0.03462928
0.14621517 0.26856765 0.18822557 0.11030092 0.068316564 -0.033864126 -0.07008191 -0.1452153
-0.23831177 -0.09219898 -0.21408848 0.0671689 -0.043019228 -0.03203905 -0.19927622 0.056829836
0.10170159 -0.019151807 0.09283071 0.24573363 0.0960872 -0.035460997 -0.1343279 0.07037496
-0.053636264 0.07354955 -0.032086067 0.15267006 0.09181349 -0.122068025 -0.11548636 -0.16903879
0.0650487 0.33720398 -0.046190117 -0.04808754 -0.015187617 0.03747322 -0.085498236 0.16904564
-0.08970713 -0.023941869 -0.039256968 -0.1922514 -0.09238743 0.2671032 -0.07435459 0.0061867866
0.09229644 0.11031087 -0.117300645 0.2399131 0.007181792 0.1216472 0.11418227 0.1361776
-0.097481884 0.2907109 -0.12901093 0.34029543 -0.2957765 -0.11010656 -0.23016658 -0.062228207
0.036026392 0.22524542 -0.06062132 -0.3723782 0.09398597 -0.09470177 -0.2150494 -0.0540999
0.15111908 -0.097633384 -0.14728059 -0.12203528 -0.31771916 0.16166358 -0.4245368 0.24134901
0.22932604 0.28455952 -0.07771037 0.20190765 0.31381217 0.0526695 -0.13295305 0.2788556
-0.038999453 0.0925313 0.14598568 -0.027691813 -0.33543357 -0.3035407 -0.36503154 -0.41350722
-0.030908959 0.19612888 0.0117057795 -0.35024372 0.19440751 -0.18494578 -0.016846234 0.19885693
-0.16113079 -0.013905228 0.016268216 -0.16414869 -0.0502612 0.04300647 -0.07023119 0.046138126
0.28677186 0.09733114 0.10126543 0.15517063 0.19362433 0.12142066 -0.014808996 0.23450032
-0.025935555 -0.004079843 -0.062824704 0.022762245 -0.35122326 -0.062463775 0.017338231 -0.3095707
0.12337919 0.25573754 -0.045683775 -0.13743353 0.26860097 -0.025536586 0.014037417 0.24071969
0.07360549 -0.24812013 -0.08438445 -0.12480167 -0.17004043 0.19811735 -0.067752056 0.2556614
0.17690794 0.06444502 0.023168776 0.047482766 0.21847133 0.099626966 0.09938844 0.10775222
-0.25902393 0.26099932 0.003264305 0.20359878 -0.08375832 -0.21119434 -0.14413671 -0.0693275
00000000: 757d 563c 3bd3 593e 7750 303e 2c84 65be
00000010: 7220 f23b 80d8 62be f477 06bb ab96 c93d
00000020: 87b5 f53d 89d1 7fbe 36bc 0d3e afae 3abe
00000030: e43e 7ebd ed04 b63d 615b 3ebe dc6a 923e
00000040: 09fe ce3d eeca 893e 17d5 453b c514 e93c
00000050: dc3b 7b3e 0ad9 643e 2609 a13c ff33 b23e
00000060: 7053 fe3c 5c06 963d 3c25 1abe e7cd c2ba
00000070: 1bf7 92be 504e 9bbe ace3 e2bd 8491 efbd
00000080: 9223 933b 1422 283e a60a 153d 864f 15be
00000090: d297 9e3d 0947 9ebc 15b3 5abe 115e 403d
000000a0: 6ddb ddbd 3912 0bbe 3bfc cf3d 9f93 c8bd
000000b0: f9b6 20be 6d42 853e 6f58 24be f7ee 813d
000000c0: 43c5 45bd 3e1a 0b3e 9c85 963d 9cbd 043d
000000d0: 93ea 023d a349 833d 6466 503e b04a 223e
000000e0: 2693 98bc c1f2 143d dfd2 2ebe e5cb 6a3d
000000f0: 0fed b0bd 8f50 83be 0923 d0bd f798 a7be
00000100: 47bd a73e bd1d b53e dc26 f73d 2f3e 56be
00000110: cad4 07be 0cef 0cbe 4ab1 18be 60d3 1d3e
00000120: a944 2f3d 08b1 b9bc a893 fc3d 4570 8ebe
00000130: f923 8abd 0c1a 473e a701 9fbe 5918 a03e
00000140: 71e0 913e 9a73 0bbc 6a5c 1a3e f05f 793d
00000150: 192a c73d 369c a53e 070c 3ebd e8c0 a03e
00000160: f50e 7ebd 55b2 6a3e 4921 cebd 5aa8 f93d
00000170: 000a d4be c898 31be 30cd cdbd 6fd7 0d3d
00000180: 6eb9 153e b381 893e 34be 403e 73e5 e13d
00000190: 8ee9 8b3d 1cb5 0abd 1b87 8fbd 52b3 14be
000001a0: 0008 74be d2d2 bcbd 033a 5bbe d98f 893d
000001b0: ee34 30bd 613b 03bd 110f 4cbe 67c6 683d
000001c0: ec48 d03d 40e4 9cbc 071e be3d 99a1 7b3e
000001d0: 5ec9 c43d 8d3f 11bd 418d 09be bf20 903d
000001e0: b3b1 5bbd 25a1 963d ae6c 03bd 8a55 1c3e
000001f0: b608 bc3d cdfe f9bd 1d84 ecbd 8118 2dbe
00000200: 4138 853d 00a6 ac3e d931 3dbd 71f7 44bd
00000210: 7cd5 78bc 857d 193d b319 afbd 4d1a 2d3e
00000220: 5fb8 b7bd bd21 c4bc eacb 20bd 8ddd 44be
00000230: 9f35 bdbd c0c1 883e 3847 98bd 87ba ca3b
00000240: ea05 bd3d aaea e13d 523b f0bd c8ab 753e
00000250: 3d55 eb3b 2b22 f93d 65d8 e93d 2472 0b3e
00000260: 95a4 c7bd 0fd8 943e 711b 04be 343b ae3e
00000270: 0470 97be 8c7f e1bd cab0 6bbe 01e3 7ebd
00000280: 6990 133d bca6 663e 104e 78bd 5ba8 bebe
00000290: b77b c03d 00f3 c1bd e935 5cbe db97 5dbd
000002a0: f6be 1a3e 03f4 c7bd b9d0 16be a2ed f9bd
000002b0: 16ac a2be 238b 253e e35c d9be 3224 773e
000002c0: 72d4 6a3e c9b1 913e 9d26 9fbd e1c0 4e3e
000002d0: fdab a03e f9bb 573d d824 08be 29c6 8e3e
000002e0: e4bd 1fbd 0d81 bd3d 457d 153e f1d9 e2bc
000002f0: f3bd abbe b069 9bbe 6ae5 babe 38b7 d3be
00000300: c934 fdbc 02d6 483e 99c9 3f3c 2553 b3be
00000310: c312 473e 6d62 3dbe 1d01 8abc 27a1 4b3e
00000320: 78ff 24be c1d2 63bc ec44 853c 9816 28be
00000330: b0de 4dbd 8d27 303d 5fd5 8fbd 55fb 3c3d
00000340: c3d3 923e 8c55 c73d 4064 cf3d 0de5 1e3e
00000350: 7545 463e 65ab f83d 6ea1 72bc da20 703e
00000360: cd76 d4bc 34b0 85bb 3daa 80bd e377 ba3c
00000370: 89d3 b3be 04da 7fbd e808 8e3c 0d80 9ebe
00000380: 3bae fc3d 08f0 823e e91e 3bbd 60bb 0cbe
00000390: 1186 893e 1a32 d1bc 32fd 653c 397f 763e
000003a0: 7abe 963d 3413 7ebe c1d1 acbd 0598 ffbd
000003b0: 141f 2ebe 46df 4a3e 97c1 8abd 0de6 823e
000003c0: 5b27 353e c0fb 833d 72cc bd3c 4a7d 423d
000003d0: f3b6 5f3e 3909 cc3d 2b8c cb3d 32ad dc3d
000003e0: c99e 84be b4a1 853e f3ed 553b 337c 503e
000003f0: 7b89 abbd 5443 58be 9398 13be 94fb 8dbd
